runs/_tmp_25-08-2025_18-59-46/models/GCN__val_acc_0.8523.pt (torch, 258736 bytes, 3 tensors)

conv1.bias f4 [16]
00000000: 994a 253d 3401 2a3c 68d6 083d 4b93 373d
00000010: c88e 273d 9136 4c3c 63fc 523d 8f94 f23c
00000020: 7e16 3e3d 903d 163d b176 dd3c fe56 1d3d
00000030: d233 313d 14ed 9c3c 1d0e f93b 59cb 1a3d
0.040354345 0.010376263 0.0334076 0.044818204 0.04090765 0.0124641815 0.051510226 0.029611854
0.04640817 0.036679804 0.027034136 0.03841304 0.04326231 0.019156016 0.0076005594 0.037791584

conv1.lin.weight f4 [16, 4005]
00000000: aaab 23bc 15c0 f83c 5fb1 bdbb 8587 ba3b
00000010: a250 c3bb 5ba3 d8ba f202 0abc bc24 48bc
00000020: 7aec 2f3d fbe4 10bd 34ff bb3a 2ec7 8dbc
00000030: 579a 983b 095f 913c eddb a8ba 8d65 093d
00000040: 0557 193d 49a5 33ba ff8c aebc 63f9 d93c
00000050: d0b6 ceba 52ba bdbb 7207 96bc 4620 3b3b
00000060: 2b5a 463d 8a74 58bd e01c 10bb c243 f7ba
00000070: 510f 833c 5f29 c7bb e1ba 1f3d f5de 013c
00000080: d149 1a3c f450 183c b5a7 8d3c 165d 9c3d
00000090: 6b69 2abd f74a 32bd eb32 3c39 b7f7 8f3b
000000a0: 681e 293d eaec 733a bb30 b83b 03a4 04bc
000000b0: 00d9 a7bc 15bb 2d3c 209f 83bd d3ff c0bc
000000c0: 3371 a13c 6d6a c03b 386c 253a d813 4dbc
000000d0: 8c49 723b ffe1 9c3c 2f42 34bb 3f85 aa3b
000000e0: 8cee 00bc fb04 4bbc 4eda f4bb 7ce5 9f3a
000000f0: a0bc 24bc 952d f7bc e413 333c 0427 823d
00000100: 4969 073d bc13 d93c 231d 4c3b 7329 1b3c
00000110: f6fe 743c 4758 fb3b 88d7 ee3b 10a6 1abc
00000120: e6f0 9d3c 3bb8 8f3d 52cc b53c 406c 3abc
00000130: 4d9f 393d 5bb7 19bd 8159 b73c 1ecb 45bc
00000140: b7df b1bb 4f80 afbd 2252 00be ce71 913c
00000150: 24b5 fb3b 4316 4f3d 2614 573c 0c58 4e3a
00000160: 667e fb3b 4b73 4d3a ab55 243c 9a20 e4bc
00000170: c494 25bb 0d71 b53a 38dc ad3a e421 393c
00000180: e99a 083d b061 c7bc 771e e7bb 1216 13bb
00000190: b277 4abc 4692 6fbc 4cfb 8d3b 8d03 7dbb
000001a0: 6a9b 293d 2988 493c 62b7 ccba a1fd 6abc
000001b0: 1078 50bc ca87 333b 1eff 2ebc e193 aebb
000001c0: 36fc 163c efcc 653b f0d1 b8bc 65da d53b
000001d0: 5bca 50bc b2c0 573b 5003 c13a 6720 bf3b
000001e0: 8a85 303c 63b5 ddba 1064 64bb 3c9f 163c
000001f0: 3bbf 503d fcd3 52bc f30a 8a3c ea31 2b3c
00000200: 3383 8abd f2b6 eabb d72c 203b bd34 21bc
00000210: ffde cc3b 78b7 4c3d c964 c63b 0cbd d83b
00000220: c89d b5bb 819c 213d a89c 8a3b 9f97 cbbb
00000230: 2ae0 cb3b a745 273d f062 d4ba 24a5 b803
00000240: db21 a93c f678 47bc 2b27 bb3c 71f4 ebbc
00000250: 2033 b9bc 710a b43c 882e 7bbd 8b46 76bd
00000260: cf27 88b8 cb02 0b3d fce6 743a 21fd 7dbb
00000270: 9e2c 5e3c 04da e43b ffb8 823b cf6f fe3b
00000280: 6cb9 a2bc 5d78 d83a 69f6 023c b709 943c
00000290: c416 8ebc 40b7 6abb d467 9cbb 0624 bebb
000002a0: 8f31 c63c 01ba 88bc dc61 b53b cde3 d33a
000002b0: ca0e a93a 5ef1 8fba 5e34 8d3b e6a2 073c
000002c0: aed6 403c e597 f93b ac0d 86bc 8af2 a4bd
000002d0: 270d 673c 0839 eebc 457a 583c f7cf 863b
000002e0: 4d2b ef39 43ab 20bd fafd 8d3a 34e1 653c
000002f0: ca3a 4b3b 3e64 f73c 6dad 00bc bfc7 313d
00000300: 1f4b 3d3b 55ae b53b 84ca 453c 9b2f a9bc
00000310: e09c 1d3c 74ab 3f35 54e0 c23c 851d a43c
00000320: 3241 7f3c d4b6 4ebc 9092 1e3c f21c 62bc
00000330: f4d1 3c3b 6c99 8e3d 2ec6 483c fa7a 913b
00000340: ca7f 803b d102 a83c 065f 38bb 42e7 10bd
00000350: fd46 213b 90c9 663b de24 a8bc 05db 823c
00000360: 2591 9fbb 959e e7bc a486 e73b bb7e 893c
00000370: f292 7d3d 75ca 663a 7cc0 10bc ac30 adbc
00000380: c71f b93c ad53 bcbc 9c80 d1bc 7e23 21ba
00000390: 6f0c 393c 28e1 a5bb dbab 783c 2659 da3c
000003a0: 39f5 e13b 0e9e 783c 1a71 87bb cd12 233c
000003b0: 76bd 3ebd fdd7 9abc 6ed5 073d 2ec9 f2bc
000003c0: c87c cdbc 8c13 533d 5dab 203c 53be 883c
000003d0: e003 a7bc bf11 7abd 90ea 8a3c 3b59 833d
000003e0: 72d9 af3c 3348 0e3c 2d71 d83c 37a4 59bb
000003f0: 830e b0bd a941 f93a 6c39 f83b 23d6 93bc
-0.009989658 0.03036503 -0.0057889665 0.0056924247 -0.00596054 -0.0016528176 -0.008423554 -0.012215789
0.04295013 -0.035374623 0.0014343024 -0.01730689 0.0046570706 0.017745512 -0.0012882926 0.033544112
0.037436504 -0.00068529375 -0.021307467 0.026608175 -0.0015771035 -0.0057900334 -0.018314097 0.0028553172
0.048425835 -0.052845515 -0.0021989867 -0.0018864798 0.015998514 -0.00607793 0.03899658 0.007926692
0.009417013 0.0092966445 0.017291883 0.07634942 -0.04160444 -0.043528523 0.00017948046 0.0043935436
0.041288763 0.00093050173 0.0056210435 -0.008095744 -0.020489216 0.010603686 -0.06426835 -0.023559486
0.019707298 0.005872062 0.00063103763 -0.012516938 0.0036970107 0.019150732 -0.0027505269 0.0052038725
-0.007869374 -0.012391324 -0.007472313 0.0012199129 -0.010054737 -0.030173102 0.010930035 0.06355098
0.033059392 0.026498668 0.0031145297 0.0094703315 0.014953366 0.0076704356 0.007288877 -0.009439006
0.019279908 0.07017561 0.022192154 -0.011378348 0.045317937 -0.037528377 0.022381546 -0.012072353
-0.00542828 -0.08569395 -0.12531331 0.017754462 0.0076815058 0.05055834 0.013127362 0.00078713964
0.00767498 0.00078373094 0.01003019 -0.027847577 -0.0025265673 0.0013842896 0.0013264483 0.011299584
0.03335086 -0.024338573 -0.0070531922 -0.0022443575 -0.012357639 -0.014622277 0.0043329354 -0.0038606853
0.04140798 0.0123005295 -0.0015618617 -0.014342696 -0.012723938 0.002739417 -0.010680942 -0.005327687
0.009215405 0.0035064777 -0.022561044 0.006526279 -0.012743558 0.0032921252 0.0014725719 0.00583272
0.010774026 -0.0016915019 -0.003484968 0.009193238 0.05096362 -0.012867924 0.016850924 0.010448912
-0.067633055 -0.007162922 0.002444079 -0.009839234 0.006252169 0.049979657 0.006054495 0.006614333
-0.0055424906 0.039455894 0.0042301007 -0.006213143 0.006221791 0.04083791 -0.0016203802 1.08524625e-36
0.020646026 -0.012174835 0.022845825 -0.028803082 -0.022607386 0.021977635 -0.061323673 -0.06012587
-6.4924e-05 0.03393821 0.00093422807 -0.0038755613 0.013560442 0.0069839973 0.0039893384 0.0077647935
-0.019863807 0.0016515363 0.007993319 0.018071039 -0.01734484 -0.0035814792 -0.0047731195 -0.005802634
0.024193553 -0.016690256 0.0055353474 0.0016165912 0.0012898084 -0.0010981967 0.004309221 0.008278584
0.011769934 0.007616984 -0.016363941 -0.08054073 0.014102257 -0.029079929 0.013212745 0.004114147
0.00045617894 -0.039225828 0.0010833137 0.014030743 0.0031010383 0.030199166 -0.007853848 0.043403383
0.0028883887 0.0055444636 0.012072209 -0.020652583 0.009619921 7.140254e-07 0.023788609 0.020033607
0.015579509 -0.012616832 0.009678498 -0.013800846 0.0028811665 0.06962857 0.012254281 0.004439709
0.0039214836 0.020509155 -0.002813281 -0.035376795 0.0024608963 0.0035215355 -0.020525392 0.015973577
-0.0048695975 -0.02827386 0.007065611 0.016784063 0.061907716 0.0008803972 -0.008834954 -0.021141373
0.02259816 -0.022989118 -0.025574021 -0.00061469513 0.011294468 -0.005062241 0.015177692 0.026653837
0.006895688 0.015174402 -0.004133356 0.009953213 -0.046567403 -0.01890182 0.033162527 -0.029636946
-0.025083914 0.051532313 0.009806481 0.016692316 -0.02038759 -0.06105208 0.016957551 0.06413504
0.02146599 0.008684206 0.026421154 -0.0033209452 -0.08596518 0.0019016761 0.0075752046 -0.018046444

conv2.lin.weight f4 [1, 16]
00000000: 1da9 97be 6e97 313f 2389 03bf 8f05 49be
00000010: cf00 c6be a892 8c3e a413 27be e46c c73e
00000020: 712b 92be d999 9fbe 57e4 983e f1b1 d7be
00000030: f619 6fbe af23 2c3f 6164 2f3f 6307 e1be
-0.2962121 0.6937169 -0.5138113 -0.19631027 -0.38672492 0.2745564 -0.16316086 0.38950264
-0.28548768 -0.31172064 0.2986171 -0.42127946 -0.23349747 0.6724195 0.6851254 -0.43950948
