runs/_tmp_25-08-2025_18-59-46/models/GraphSAGE__val_acc_0.8663.pt (torch, 515900 bytes, 5 tensors)

conv1.lin_l.weight f4 [16, 4005]
0	0x3ae6f102	0.0017619433
1	0xbc81124a	-0.015755791
2	0xbb08bbbe	-0.0020863856
3	0xba6431c5	-0.0008704926
4	0x3aa2e931	0.0012429116
5	0x39231ea6	0.00015556309
6	0x39a4c342	0.00031425996
7	0x3ba74ba3	0.005105452
8	0xbceb08c5	-0.028690705
9	0xbb4617c7	-0.0030226575
10	0xbba74b8a	-0.0051054405
11	0x39dd2b5c	0.0004218471
12	0xbb3a6699	-0.00284425
13	0xbbec4b25	-0.0072111064
14	0xbd1f4787	-0.038886573
15	0x3ae2fc83	0.0017317686
16	0xbcddc5fa	-0.027071942
17	0x3afc534b	0.0019250897
18	0x3c28df19	0.010307097
19	0xbc89e6ed	-0.016833747
20	0x3b3a5116	0.0028429679
21	0x3bb7f419	0.0056138155
22	0x3c9408f7	0.018070681
23	0xbaf16183	-0.0018415902
24	0xbd861700	-0.06547356
25	0x3bad704d	0.0052929283
26	0xba639c27	-0.00086826313
27	0xbb623905	-0.003451885
28	0x3b39686c	0.0028291
29	0x3a744ddb	0.00093194627
30	0xbb96845d	-0.0045934157
31	0x3a8a7308	0.0010562846
32	0x8059c222	-8.243001e-39
33	0xbbb1b7e1	-0.0054235314
34	0xbb240e98	-0.0025033113
35	0xbc9e4648	-0.019320622
36	0x3bee59da	0.0072738947
37	0x3bdf54d7	0.0068155336
38	0xba169e3d	-0.0005745625
39	0xbc18cc21	-0.009326012
40	0x13c9c47b	5.093328e-27
41	0x3c0766e3	0.008264276
42	0xbb518c00	-0.0031974316
43	0x3b256f39	0.0025243296
44	0x3ce96ebb	0.028495183
45	0xbbfc1d7e	-0.0076939454
46	0x3d9db00d	0.07699595
47	0x3aa1db59	0.0012348696
48	0xbc01b6f5	-0.0079171555
49	0x3b10bb62	0.0022084345
50	0xbaa119c9	-0.001229101
51	0x39b388fa	0.00034243596
52	0x80473991	-6.540971e-39
53	0xbb65e9f2	-0.003508207
54	0x3a995bf2	0.0011700375
55	0x3b838005	0.004013064
56	0x00548815	7.762999e-39
57	0xbc01db30	-0.0079257935
58	0x3bae355b	0.005316419
59	0x3a90b6a4	0.0011040759
60	0x3ba0b5b4	0.004904473
61	0x3c6aff72	0.0143431295
62	0x3c821f9c	0.015884213
63	0xbca54825	-0.020176003
64	0xbbdb2e69	-0.006688882
65	0x3b24590e	0.0025077495
66	0xb76794ac	-1.3803288e-05
67	0xbc8719cc	-0.016491793
68	0xbb5c8037	-0.0033645758
69	0xbc1e9d14	-0.009681005
70	0xbc1e62a2	-0.009667071
71	0x3917295f	0.00014415894
72	0x3bb04fc3	0.005380602
73	0xbcf8772a	-0.03033026
74	0xbc314e5a	-0.010821903
75	0x3c978e09	0.018500345
76	0xbc88abe8	-0.016683534
77	0x3cacfb0b	0.0211158
78	0xbc9ef4d0	-0.019403845
79	0x3b762a48	0.0037561823
80	0x3b348ada	0.0027548582
81	0xbc31ff45	-0.010864084
82	0x3da04a6c	0.07826695
83	0xb899aa00	-7.3272735e-05
84	0xba468e2c	-0.0007574286
85	0x3c91d9a1	0.017803969
86	0xb8ae8213	-8.321195e-05
87	0xbbb289d3	-0.005448559
88	0x00300ea2	4.413353e-39
89	0xb9ee9125	-0.0004550304
90	0xbcb25017	-0.021766705
91	0xbcc7fa0d	-0.024411226
92	0x39767c26	0.00023506637
93	0xbcb2b97d	-0.021816963
94	0xb8c3e580	-9.341072e-05
95	0x3c213bf8	0.009840958
96	0x3c082726	0.008310115
97	0xbb5fe17d	-0.00341615
98	0x3bf67e53	0.0075223832
99	0xb961c2a8	-0.00021530187
100	0x3b1ef82f	0.0024256816
101	0xbac94162	-0.0015354569
102	0xb95f82c7	-0.00021315656
103	0x3a18d53b	0.00058301137
104	0xbc854247	-0.016266955
105	0xb730b16e	-1.0531729e-05
106	0xbc84db35	-0.016217807
107	0x3a1c9a5c	0.0005973929
108	0x3b553aee	0.0032536346
109	0xbc5d0dd9	-0.013492071
110	0xbc08b7ec	-0.008344632
111	0x3b6f21ac	0.0036488576
112	0xbc222778	-0.009897105
113	0xba32fac5	-0.00068275287
114	0xbcc81b52	-0.02442709
115	0x3ad65f7b	0.001635536
116	0xbceca9cd	-0.028889561
117	0xba071572	-0.0005153037
118	0x3b0defb8	0.0021657776
119	0xb76c0ef8	-1.4070181e-05
120	0xbb5f193f	-0.0034042147
121	0x3add78f1	0.0016897005
122	0xbb4b4ff9	-0.003102301
123	0xb92cdb07	-0.00016484792
124	0xbd1b2995	-0.037881453
125	0x3aec050a	0.0018006873
126	0xbacefa5e	-0.0015791168
127	0x3c4a7896	0.0123578515
128	0x3ceef65f	0.029170213
129	0xbc292fac	-0.010326307
130	0x3c81170c	0.01575806
131	0x38e593e1	0.000109471155
132	0xb9bdf69f	-0.00036232636
133	0x3bcbe9f9	0.00622296
134	0x3ab5a4be	0.0013858301
135	0x3a42d871	0.0007432765
136	0x3ac01288	0.001465396
137	0xbb82bc1a	-0.0039897086
138	0xb85dc4ac	-5.287367e-05
139	0x3c6192e3	0.013767931
140	0xbb83d165	-0.0040227645
141	0xbc409ae1	-0.011755676
142	0x3a5c6e4e	0.00084087707
143	0x38bea67e	9.0909176e-05
144	0x3a0c5082	0.0005352573
145	0xb9a74972	-0.00031907443
146	0x3b027651	0.0019906948
147	0xbc9caefb	-0.019126406
148	0x3c6c36c4	0.014417354
149	0x3ad27dc1	0.0016059206
150	0x37afa8b5	2.0940186e-05
151	0x3cc81aff	0.024426935
152	0x006f7e2f	1.0239006e-38
153	0xb9a93b7f	-0.0003227852
154	0xbaf1d87b	-0.0018451357
155	0x3c99ee73	0.01879046
156	0xba95cb68	-0.0011428418
157	0xbb4b62b6	-0.0031034178
158	0xbbbb7f22	-0.0057219425
159	0xbc2db6ee	-0.010602696
160	0xb9a03599	-0.00030557511
161	0xb8cf0a0b	-9.8724e-05
162	0xbc35f84d	-0.011106563
163	0x3c8a0b08	0.016850963
164	0x3cc9efc5	0.024650464
165	0x3b9a8daf	0.004716597
166	0x3bda81af	0.0066682915
167	0x3cae763f	0.021296619
168	0xb9825a0e	-0.00024862628
169	0x3bddcf27	0.0067690792
170	0xbbce4033	-0.0062942742
171	0xb9c0fe86	-0.00036810728
172	0xbabefa68	-0.0014570476
173	0xbc842578	-0.016131148
174	0x3b6589bb	0.003502472
175	0xba7527c5	-0.00093519344
176	0x3b45e088	0.0030193646
177	0xbaed13ca	-0.0018087563
178	0x3a899fe7	0.0010499925
179	0x3d0a3e3d	0.03375076
180	0xb99a9cd4	-0.00029490015
181	0xbb8666bb	-0.004101602
182	0x3b92ed36	0.004483844
183	0xbb61beb9	-0.0034445955
184	0xb927f8fc	-0.00016019115
185	0xb9b1a210	-0.00033880817
186	0x3a17300a	0.0005767351
187	0xbc311ea9	-0.010810533
188	0xbac8c5ed	-0.0015317776
189	0x3d470192	0.048585482
190	0x3bb8c3dc	0.0056385826
191	0xbcc43cbb	-0.02395474
192	0xbcd6efcb	-0.02623739
193	0xbac956b4	-0.0015360923
194	0x3cbc196c	0.02296134
195	0xbbdb07b6	-0.006684269
196	0xb91fb98d	-0.00015232545
197	0xbae75672	-0.0017649664
198	0xbb9edb53	-0.004847923
199	0xbbbbb8a4	-0.005728798
200	0x39010d5d	0.00012307377
201	0xba218d4a	-0.00061627163
202	0xb9875f67	-0.00025820287
203	0x3ad5b7ee	0.0016305426
204	0x3a82b0b0	0.000997087
205	0x3cb4f88d	0.022091174
206	0xb7242e95	-9.7860075e-06
207	0x3c8414d6	0.016123217
208	0x008ca872	1.2917396e-38
209	0xbbfce9cb	-0.0077183
210	0x3be15ed0	0.0068777576
211	0x3c663929	0.014051714
212	0xbc067a51	-0.008207873
213	0xb9e71d0a	-0.0004408139
214	0x3c99ce97	0.018775268
215	0xbaad96f2	-0.0013243838
216	0x3b8021a8	0.003910262
217	0x3b46ff33	0.0030364513
218	0xbc545b48	-0.012961216
219	0xba09818b	-0.00052454387
220	0xbc8275c6	-0.0159253
221	0x3a83eacc	0.0010064482
222	0x3c5c61f0	0.0134510845
223	0x3bd0735c	0.006361408
224	0x3c9e41ae	0.019318428
225	0xbba9c44a	-0.00518087
226	0xbbbf77a2	-0.0058431188
227	0x3bb6b591	0.0055758436
228	0xba5a3999	-0.0008324623
229	0x3bbf3f47	0.0058364007
230	0x3d18c8cc	0.03730087
231	0x3c1f9855	0.009740909
232	0xb9cb4147	-0.00038767813
233	0xbabf5356	-0.001459698
234	0xbcb5678b	-0.0221441
235	0x3b974bf9	0.004617211
236	0x3ba41854	0.005007783
237	0x3aa5e542	0.0012656825
238	0x3d1a8daa	0.037732758
239	0xbb3d3432	-0.0028870222
240	0xb9d765d0	-0.00041083852
241	0xbb9bdf6c	-0.0047568586
242	0x3b1701ae	0.0023041773
243	0xb85e5121	-5.300448e-05
244	0x3c38901d	0.011264828
245	0xbaaf4570	-0.0013372134
246	0x3b1ca79f	0.002390362
247	0xbc2811fc	-0.010258194
248	0xbb7921b1	-0.0038014466
249	0xbb95ad2d	-0.0045677633
250	0xbc6ab33f	-0.014324962
251	0x3a9408d0	0.001129413
252	0x3c6fdd70	0.014640197
253	0xba56d566	-0.0008195251
254	0x3bf0a6c5	0.007344099
255	0x3ab15f55	0.001353244

conv1.lin_l.bias f4 [16]
0	0xbc946f09	-0.018119352
1	0x3d3b96a9	0.045797978
2	0xbb255ac2	-0.0025231098
3	0x3d59b987	0.05315545
4	0xbc25575f	-0.010091632
5	0xbc9c460f	-0.019076375
6	0xbcc45554	-0.023966469
7	0xbc7f8b77	-0.015597216
8	0x3e014b5f	0.12626408
9	0xbc2e79ca	-0.010649154
10	0x3d4c234b	0.049838345
11	0x3baac7f9	0.005211827
12	0x3d407663	0.046987902
13	0x3dbebb2a	0.093130425
14	0xbcf54708	-0.029941097
15	0x3d4308d1	0.04761583

conv1.lin_r.weight f4 [16, 4005]
0	0x3c207532	0.009793567
1	0xbc90e885	-0.017688999
2	0x3c836e04	0.01604367
3	0x0ae7840d	2.2294163e-32
4	0x3b68f718	0.003554767
5	0x3c8ec1e6	0.017426442
6	0xbc5d8d25	-0.013522421
7	0x3c751635	0.014958908
8	0xbc17d93e	-0.009268103
9	0x3d3116ea	0.043234743
10	0x3ade12c0	0.0016942844
11	0x3cfd9d3b	0.030958762
12	0x3b5dded6	0.0033854744
13	0xbd251143	-0.040299665
14	0xbd0544f3	-0.03253646
15	0xbc63639f	-0.013878732
16	0xbd8c2a3c	-0.06843993
17	0xbc01edb3	-0.007930207
18	0x3beb4f87	0.0071811113
19	0xbca271c0	-0.01982963
20	0x3bd494df	0.0064874734
21	0xbb0fc84c	-0.0021939455
22	0x3b4cd307	0.0031253712
23	0xbb40510f	-0.002934519
24	0xbdc708a6	-0.097184464
25	0x3d50dbde	0.05099093
26	0xb98747f7	-0.00025802825
27	0xbc643c47	-0.013930387
28	0x3d288c15	0.041149218
29	0x3a5b9d87	0.00083776604
30	0xbd24bd0a	-0.040219344
31	0xbc8496c8	-0.01618518
32	0xbafb491a	-0.0019171566
33	0xbc238e1c	-0.009982612
34	0xbb91fd6c	-0.004455259
35	0xbd8e35eb	-0.06943878
36	0x3c743e7f	0.014907478
37	0x3c8f2228	0.017472342
38	0xbc2cd01c	-0.010547664
39	0xbbad8a95	-0.0052960613
40	0xbc5ff363	-0.013668868
41	0xbd157724	-0.036490574
42	0xbc4deb57	-0.012568316
43	0x3b92e5e5	0.004482972
44	0x3d8c902c	0.06863436
45	0x3c9a6da8	0.018851116
46	0x3dc1920e	0.09451686
47	0x3c9336be	0.017970439
48	0xbab1d63d	-0.0013567876
49	0x3bbcf8d8	0.005766969
50	0xbc19acd1	-0.009379582
51	0xbc2f399e	-0.010694889
52	0xbb9da1b5	-0.0048105367
53	0xbc01d678	-0.0079246685
54	0x3c80b141	0.015709521
55	0xbc9a9a29	-0.018872337
56	0xbbf13da4	-0.0073620845
57	0x3cb34c28	0.0218869
58	0xbc013424	-0.007885966
59	0xbc08852e	-0.008332534
60	0x3c841cab	0.016126951
61	0x3d4c0d46	0.049817346
62	0xb9df212a	-0.00042558584
63	0xbca102cc	-0.019654654
64	0x3a10fd9f	0.00055309566
65	0xbbfcdb70	-0.0077165887
66	0x3bd91f6e	0.006626061
67	0x3c77c337	0.015122226
68	0x3aa913a2	0.0012899528
69	0xbc79d7f4	-0.015249241
70	0xbcc1d352	-0.023660336
71	0x3c108194	0.008819956
72	0x3c010fc6	0.007877296
73	0xbd7cdb04	-0.061732307
74	0xbc8c736b	-0.01714488
75	0x3c310d83	0.010806444
76	0xbd8132c0	-0.06308508
77	0x3d5a66ba	0.053320624
78	0xbb90210b	-0.0043984703
79	0x3a6c9ff6	0.00090265216
80	0xbc3abef2	-0.011398064
81	0x3d8ecf35	0.06973115
82	0x3df7db7a	0.12102409
83	0xbbb63724	-0.0055607725
84	0x006611f5	9.373662e-39
85	0x3ca72846	0.020404946
86	0xbbb88586	-0.0056311516
87	0x3d2b8d53	0.041882824
88	0x3bfb4146	0.0076676933
89	0x0081dd63	1.1926198e-38
90	0x3bf6f09c	0.007536007
91	0x3d50673e	0.05087971
92	0x3c55b552	0.013043718
93	0xbc69e8be	-0.0142766815
94	0xbb79312d	-0.0038023696
95	0xbbd15fdd	-0.0063896016
96	0xbce066ce	-0.027392771
97	0x3c8b4639	0.017001258
98	0x3c522eac	0.01282851
99	0x3c46a8be	0.012125192
100	0x3c14f1a2	0.009090813
101	0xbc0bccdb	-0.008532728
102	0xbbc74579	-0.00608128
103	0xba0283dd	-0.00049787556
104	0xbc88c17d	-0.016693825
105	0x3c0ae352	0.008477049
106	0xbc90cb9e	-0.017675217
107	0x3c69c05f	0.014267056
108	0x3cd56841	0.026050689
109	0xbc8bbd4b	-0.017058035
110	0xbd0b0f46	-0.033950113
111	0xbc148641	-0.009065212
112	0xbc01c2d5	-0.007919987
113	0xbcf49d30	-0.02986011
114	0x3d5e369d	0.054251302
115	0x3b8765e9	0.0041320217
116	0xbd22a5bb	-0.039708834
117	0xbb44364e	-0.0029939595
118	0xbbf503d9	-0.0074772653
119	0xbbadaa70	-0.0052998587
120	0xbb126875	-0.0022340093
121	0x3d158dd4	0.03651221
122	0x3badfce2	0.005309687
123	0xbca11b14	-0.019666232
124	0xbc19648d	-0.009362352
125	0x3bb3fc6e	0.0054927384
126	0xbd4724a7	-0.04861894
127	0x3be27aa6	0.0069115935
128	0x3da02730	0.078199744
129	0x3b9f7203	0.004865886
130	0x3baf6404	0.005352499
131	0x3c3508e6	0.011049485
132	0x3bb3c3cf	0.0054859887
133	0x3ce46128	0.027878359
134	0xbbce6271	-0.006298356
135	0xbbaffc43	-0.005370648
136	0x3c276af6	0.010218373
137	0xbb4ae73e	-0.0030960585
138	0xbacb8e0d	-0.0015530005
139	0x3c301c58	0.010748945
140	0xbc5e3bac	-0.013564032
141	0xbd05b1ad	-0.032640148
142	0x3b042a63	0.0020166866
143	0x3a85b49a	0.0010200918
144	0xbb985f92	-0.0046500647
145	0x3c4d495f	0.0125297
146	0xbcbec640	-0.023287892
147	0x3d9eec92	0.07759966
148	0xbc38260d	-0.011239541
149	0xbc087ea7	-0.0083309775
150	0x3d8ca788	0.068678916
151	0x3d3be77d	0.04587506
152	0x3b2ef4b3	0.0026696145
153	0xbc3709d0	-0.011171773
154	0xbb21f6d0	-0.0024713762
155	0xbbac2551	-0.005253472
156	0x3cb8c8fb	0.022556772
157	0xbbe7f50d	-0.007078773
158	0xba82b0ac	-0.0009970865
159	0xbd562ab0	-0.052286804
160	0x3ca2b5a4	0.019862004
161	0xba8d27b8	-0.0010769283
162	0x3bcab0ac	0.0061856117
163	0x3cda9432	0.026681993
164	0x3c7bd00a	0.015369425
165	0x3c00f5df	0.00787112
166	0xbc915e6a	-0.017745215
167	0x3c9108cd	0.017704392
168	0xbd192893	-0.03739221
169	0x3c19fb28	0.009398259
170	0xbc24193b	-0.010015781
171	0xbc4a9d42	-0.012366595
172	0xbb90bf70	-0.0044173524
173	0xbcbefe7e	-0.02331471
174	0xbbd83e38	-0.006599214
175	0xbc08e9f5	-0.008356561
176	0xbbc6369f	-0.006048992
177	0xbc26c6fc	-0.0101792775
178	0x3ba2c085	0.004966798
179	0x3db80aa5	0.08986405
180	0xbc1f21d6	-0.009712657
181	0x3a3b2fc8	0.0007140604
182	0xbc1cf2f1	-0.009579406
183	0x3c2d991c	0.010595586
184	0x3c9a9ce2	0.018873636
185	0x3ceadde1	0.028670253
186	0xbbb164ae	-0.0054136133
187	0xbd077d97	-0.033078756
188	0xbb39fd20	-0.0028379634
189	0x3c64256c	0.013924938
190	0x3beeb8d1	0.0072852154
191	0xbcc41d93	-0.023939883
192	0x3d1c6634	0.038183406
193	0xbc1828d5	-0.009287079
194	0x3d14f69c	0.036367998
195	0xbdab44ea	-0.08362754
196	0xba5e63ee	-0.00084835186
197	0x3bdc57e5	0.006724345
198	0xbc528dfa	-0.012851233
199	0xbcf589b9	-0.029972898
200	0xbba0a1c2	-0.0049020955
201	0xba8ce4c6	-0.0010749332
202	0xbbdab5ba	-0.0066744955
203	0x3ce2e1c0	0.027695537
204	0xbcc5d9f1	-0.024151774
205	0xbd40b97d	-0.047051895
206	0x3c0a7e73	0.008452999
207	0xbb7a05f7	-0.0038150528
208	0xbb9dad81	-0.004811943
209	0xbc8b3446	-0.0169927
210	0x3be330bd	0.0069333003
211	0x3c7835c4	0.0151495375
212	0x3b8acf0f	0.004236109
213	0xbb453c8b	-0.00300959
214	0x3ceb47dc	0.028720789
215	0x3b1564e9	0.0022795743
216	0xbb1e8410	-0.0024187602
217	0x3d142d4c	0.03617601
218	0xbce75fa3	-0.028243845
219	0xbb7928cc	-0.0038018702
220	0xb96c4361	-0.00022531814
221	0x3c1260fe	0.008934258
222	0x3cf18734	0.029483415
223	0x3cc006c4	0.023440726
224	0x3b9abdc9	0.004722331
225	0x3cf3844f	0.029726176
226	0x3d1d9e03	0.03848077
227	0x3c49eb40	0.012324154
228	0xbc57a560	-0.013161987
229	0x3cd4a99b	0.02595978
230	0x3cafd86e	0.021465506
231	0x3c26bf33	0.010177421
232	0x3b7765b8	0.0037749838
233	0x3af07e7c	0.0018348242
234	0x3d83bf07	0.0643292
235	0xbc08ccb8	-0.00834959
236	0x3d3d6596	0.046239458
237	0x3c41ecab	0.011836211
238	0xbc38fe8d	-0.011291158
239	0xbc9e5886	-0.01932932
240	0x3c1ece94	0.009692807
241	0xbca27c42	-0.019834641
242	0xbc9c3219	-0.019066857
243	0x3a89bba9	0.0010508198
244	0x3c87ff44	0.016601212
245	0x3d57c09f	0.052673932
246	0xbc25a757	-0.010110698
247	0xbd846134	-0.064638525
248	0xbc57ff60	-0.013183445
249	0xb99aa4b9	-0.00029495897
250	0xbcd07c0c	-0.025449775
251	0x3aaeb863	0.0013330098
252	0x3d8cfdcd	0.06884346
253	0xbbe19d02	-0.006885172
254	0xbb7d6303	-0.0038663752
255	0x3c98ae32	0.01863775

conv2.lin_l.weight f4 [1, 16]
0	0x3e8b5c52	0.27218872
1	0xbe6f5e18	-0.23375738
2	0x3e17007d	0.1474628
3	0xbe892798	-0.2678802
4	0x3e1b7f91	0.15185381
5	0x3e4d294e	0.20035288
6	0xbe48fee3	-0.19628482
7	0x3e61f270	0.22065139
8	0x3db49d0d	0.088190176
9	0x3e18cf2f	0.14922784
10	0xbea6c913	-0.32575282
11	0x3eb86145	0.3601171
12	0xbe5cd0c0	-0.21564007
13	0xbcc0d2dd	-0.023538047
14	0xbc8b069c	-0.016970925
15	0xbe95d774	-0.2926594

conv2.lin_r.weight f4 [1, 16]
0	0x3e87fefd	0.26561728
1	0xbe5e5f17	-0.21715961
2	0x3ecf8311	0.40529683
3	0xbebb44d5	-0.36575952
4	0x3e3a9721	0.18221714
5	0x3e93a92f	0.28840014
6	0x3e94a704	0.29033673
7	0x3e780f91	0.24224688
8	0xbeb86685	-0.36015716
9	0x3ea38f64	0.31945336
10	0xbdc9e721	-0.098585375
11	0x3e50c932	0.2038925
12	0xbea50363	-0.32229146
13	0xbe921b42	-0.2853642
14	0x3e94b0bf	0.29041097
15	0xbe40617b	-0.18787186
