runs/25-08-2025_18-01-20__best_val_acc_0.8675/models/GCN__val_acc_0.8597.pt (torch, 258736 bytes, 3 tensors)

conv1.bias f4 [16]
00000000: 0ad6 333c b706 5fbd 7dfb b03d 3c39 df3d
00000010: 75e5 ec3d e3d9 233d f8c3 fb3c 5a54 f63d
00000020: 3beb 6fbd 697f 903d 17c5 a03c 26d4 8e3d
00000030: d1b9 833d c172 8f3d e28b f3bc 1250 4cbd
0.010976324 -0.054449763 0.086417176 0.108995885 0.11567203 0.040002715 0.030733094 0.120278075
-0.058573943 0.070555516 0.01962523 0.06974058 0.06431926 0.070043094 -0.029729787 -0.04988105

conv1.lin.weight f4 [16, 4005]
00000000: 4a56 87bc 5997 97bc a8dd 063d 7f81 4cba
00000010: 3d38 9c3c 5056 163c ac15 d6bb ca8b 87bc
00000020: 46a5 b4bd f9b3 243d aff7 21bc fe4a 1b3d
00000030: be71 763c bec6 26bd ad44 b3bd fb7f ab3b
00000040: 51b1 8cbd 1e49 ecbc ac81 b63d 1cfd 1ebd
00000050: 7bab 443c f8f4 c4bb 1752 65bc 0cdb d7ba
00000060: 521c 17be 41a0 6ebb ff4b 4a3c 0f47 45bc
00000070: c2f5 8bbb 74af af3c 9208 87bd f073 c4bc
00000080: f55a fbbb d018 ac37 ceb9 063c 8a86 cfbd
00000090: 3aa4 5f3c 6bf5 9dbc 383a a939 bcdb 1d3d
000000a0: 45b3 8dbc 3db7 b23b 08c9 ca3a 1a05 183d
000000b0: 0113 0e3d 129d 3d3d 601e 023e d740 113d
000000c0: 4b82 17bc 2673 223d f1ad 70bd e0e4 d2bc
000000d0: c2d8 aabc 3099 1c3c 861e da3b 0457 72bd
000000e0: 9506 dcbc 1989 b2bb e0dd 0f3c 6b7e 9a3a
000000f0: 9c61 773c 1a94 973d 14bd 4fba 96f6 a2bd
00000100: ce82 f3bb 0402 3cba 249e f8bd 7076 8cbc
00000110: 30fb 6bbc e5ce 663c 665f 85bc 9dc3 8fbc
00000120: dd13 883c cd70 34bd 2b16 7abd f0b2 d03c
00000130: d2d4 c03c ef2e 2bbd 6135 bcbc 2002 11bc
00000140: 886f 843c e670 d33d de1c b53e 2a4e e9ba
00000150: ff7e a73a 9094 fc3c 1456 0abd 9fe0 af3c
00000160: aca3 57bc a422 59ba c988 ccbd 2e0a 253d
00000170: 44fd 713c 48b6 b6bd fc90 5c3a 06a8 fdbb
00000180: 3a75 0b3c 6294 733d f66d 863c 5857 ab3c
00000190: 5f1a 243d 7a0a 793c f8c7 b3bb 0cae e6bc
000001a0: 2b04 e9bc 8239 cf3b dd2e 953c 6756 de3c
000001b0: 2f92 5d3c e7aa 413c a11d 033d ffc0 a83c
000001c0: 22b8 d33c 6698 813d c463 c63d e9aa be3c
000001d0: 4d55 033c 7ce5 cf3b 7ad6 f93a 3166 d5bb
000001e0: 4030 2fbb 7e5c fb3c cf4d d73c e79f 573c
000001f0: c53b 22bd 950f cd3c fcdb 20bd 8179 51bb
00000200: f778 db3d c47d 90bc c44b 403b 4c6d a83b
00000210: 0726 fc3b 8f14 dc3c 8d9a 8f3c dfd7 cabc
00000220: 4ab8 80ba 5df0 56bc f854 9bba 431f dabc
00000230: 5ceb b7bb 309e 2bbd 7778 643c f437 b43b
00000240: 628b a5bc 50b1 343c 7034 b9bd e901 99bc
00000250: a279 893d 9442 53bd 326e db3d 7808 9b3d
00000260: 0ae9 613c 42f8 dabb e6c6 c3ba 3ad9 3e3c
00000270: 564f b0ba 174a 27bc fa48 7fba e853 fabd
00000280: 0b95 6e3d d227 b5bb ac17 993b c685 403d
00000290: 7490 583d a9e0 5aba d01b 0c3d 6de6 023c
000002a0: a479 c5bb e8dc 2bbd f852 423b c73d c6bc
000002b0: d548 fdba 0cda 793b 5960 d5bb 9feb 22bc
000002c0: 0568 23bc 21b2 9cbb b028 623d 1f58 ac3e
000002d0: 51ef a93b ed1e 7f3d 8d94 5e3b 4e46 1dbb
000002e0: 47fb 27bb 9747 47bc 84cf 9bbb 9632 b9b9
000002f0: bab7 e1b9 f401 97ba 3acc d83b c435 d53b
00000300: f31c 1abd 2500 0abc 0dc0 0a3c 7a56 263c
00000310: 221a bbba 8ff3 ad3b c0fe dfbc eb67 56bd
00000320: 96d8 c2bd 9ac1 0d3d a669 f3ba e0c3 0f3c
00000330: b452 b03c f31c 73bd 65bb d03b 8337 e9bb
00000340: 1366 a9bc 06f8 ccbd 6891 efba 67e6 55bc
00000350: 7ee3 ffbb 047b ab39 f279 c1bc b075 80bc
00000360: 22c8 cb3c ae0c 123d 4817 013c 6d25 aabc
00000370: 3a72 543d a4eb 48bb 73f6 f13c 35a7 5f3b
00000380: 48af 843d 1668 2dbc 4548 0c3d fc88 88bc
00000390: 425b f3bb ae8d c8bb fccf 00bd 4e0e a13d
000003a0: fdef f5bc a7c3 bebb a7a0 b13d a024 48ba
000003b0: 7537 583d eb01 453d 6fce 1b3d 609d 5f3d
000003c0: dd24 523d cb89 09bd 5bbc 81bc f7fc c9bc
000003d0: 2445 053d 6970 0d3e 7fc7 64bd 503c 10bd
000003e0: c706 67bc f86f 15bc 53d3 4bbd c960 163d
000003f0: 5d46 a23e 9bae 80ba e8ff 62bc fa1b 87bc
-0.016520638 -0.018504785 0.03292623 -0.0007801279 0.019069785 0.009175852 -0.006533345 -0.016546149
-0.08820586 0.040210698 -0.0098857125 0.037913315 0.015041767 -0.04071688 -0.08753333 0.0052337623
-0.06869758 -0.028843459 0.08911452 -0.038815603 0.012003775 -0.006010648 -0.0139966225 -0.0016468479
-0.14756897 -0.0036411437 0.01234722 -0.0120408675 -0.00427124 0.021445967 -0.065934315 -0.023981065
-0.007670755 2.0515552e-05 0.00822301 -0.10133083 0.0136499945 -0.019282063 0.00032277568 0.038539633
-0.017297396 0.0054539726 0.0015471289 0.03711424 0.034686092 0.046292372 0.127069 0.035462227
-0.009247373 0.039660595 -0.058759633 -0.025743902 -0.020855311 0.009558007 0.0066564707 -0.059165016
-0.026858607 -0.005448472 0.0087809265 0.0011786943 0.0150989555 0.07401295 -0.0007924598 -0.07957189
-0.0074313646 -0.0007171931 -0.12139538 -0.01714632 -0.0144031495 0.014087413 -0.016280841 -0.01754933
0.016611034 -0.044052888 -0.061056297 0.025475949 0.02353898 -0.041792806 -0.022974672 -0.008850604
0.016166463 0.10324268 0.35373586 -0.0017799784 0.0012778937 0.030832559 -0.033773497 0.021469412
-0.013161581 -0.0008283055 -0.09987027 0.04029291 0.014769856 -0.08921486 0.00084139383 -0.007740977
0.008511836 0.05946768 0.016409855 0.020915672 0.040064212 0.015200252 -0.0054864846 -0.028159164
-0.02844437 0.006323994 0.018210823 0.02714081 0.013523622 0.011820531 0.03201068 0.02059984
0.025844637 0.06327896 0.096869975 0.023274856 0.008015943 0.0063444953 0.0019061111 -0.0065124263
-0.002673164 0.030683752 0.02628222 0.013160682 -0.039607782 0.025031844 -0.039272293 -0.003196329
0.107164316 -0.017638095 0.0029342035 0.0051399823 0.007694963 0.026865272 0.01752975 -0.024761138
-0.0009820547 -0.0131188305 -0.0011850884 -0.026626235 -0.005612774 -0.041898906 0.013944737 0.005499834
-0.020208064 0.011028603 -0.09043205 -0.018677669 0.06712653 -0.051577166 0.107143775 0.07569975
0.013788471 -0.0066824267 -0.0014936596 0.011648471 -0.0013451378 -0.0102105355 -0.00097383524 -0.12223035
0.058247607 -0.0055284286 0.0046720114 0.047002576 0.052872136 -0.0008349517 0.03420621 0.007989508
-0.0060264636 -0.04195872 0.0029651504 -0.02419938 -0.0019324074 0.003812435 -0.0065117297 -0.009943872
-0.009973531 -0.004781977 0.055214584 0.3366098 0.0051859994 0.062285352 0.0033963055 -0.0023998204
-0.002563195 -0.012163064 -0.0047549624 -0.0003532364 -0.0004305223 -0.0011520968 0.0066161426 0.0065066535
-0.037625264 -0.008422886 0.00846864 0.010152454 -0.0014274756 0.0053085755 -0.027343154 -0.052345198
-0.09513967 0.03460846 -0.0018570914 0.008774728 0.02152381 -0.05935378 0.0063699954 -0.007117213
-0.020678556 -0.10008244 -0.0018277587 -0.0130554205 -0.0078091016 0.00032707315 -0.023617718 -0.015681118
0.024875704 0.035656624 0.007879086 -0.0207698 0.051866747 -0.003065803 0.029536461 0.0034126763
0.06478745 -0.010583898 0.03424861 -0.016666882 -0.0074266503 -0.006120405 -0.03144835 0.078640565
-0.030021662 -0.0058216634 0.0867322 -0.0007634852 0.052787263 0.048097532 0.038038667 0.054593444
0.051304687 -0.033578675 -0.015836885 -0.024656756 0.03253664 0.13812412 -0.055854317 -0.03521377
-0.014100737 -0.009120934 -0.04976208 0.036713395 0.31694308 -0.0009817661 -0.013854958 -0.016492832

conv2.lin.weight f4 [1, 16]
00000000: d6fb 3c3f e554 e23d c340 31bf 4140 e0be
00000010: ac0a d6be 3be6 f9be 5a07 33bf f1cb cbbe
00000020: e273 b83e 2032 f9be bb6c 2e3f 9b31 cdbe
00000030: fa37 d2be 9011 6fbf 59e3 0dbc 3bbd 163e
0.7382177 0.110513486 -0.69239444 -0.43799022 -0.41805017 -0.48808464 -0.6993309 -0.39804032
0.36025912 -0.48671055 0.6813466 -0.40076908 -0.41058332 -0.93386173 -0.008660161 0.14720623
