runs/25-08-2025_18-01-20__best_val_acc_0.8675/models/GraphSAGE__val_acc_0.8675.pt (torch, 515900 bytes, 5 tensors)

conv1.lin_l.weight f4 [16, 4005]
00000000: 7636 8bba ec76 fd3b 3a4b c2bc 99e3 0bbb
00000010: a9d8 b3bb 4079 0a3b 9087 56bc f280 03bc
00000020: 949c aa3d 04e4 59bb e446 e839 132f bc3b
00000030: b429 a13c e0a9 943c fdf8 16bb 594d 883c
00000040: d77e 15bd 214f 213c 6569 1ebd 8eeb 3bbc
00000050: aed3 fabb 078e 063b ee4c 613c 2fc6 903b
00000060: 48fd 913d 46d4 833c 5e94 d63b 392c ab3c
00000070: fed6 80bd a859 fa3a 0887 013c ee27 e3bb
00000080: 3a84 7a3a a937 143c 19fe bdbc 3780 7cbd
00000090: 731d 1d3b 6980 cc3c 3fe8 46ba c043 a93a
000000a0: 562b ea39 35c8 733b 98af 173c 6bb1 eaba
000000b0: 932b 3dbc 7390 d3bc 8979 22bd c002 8d3c
000000c0: 6053 803c f316 7bbb 369e 2fbb 34e7 f3b9
000000d0: 2cc0 2a3a 9cff dabc 3129 82bc 9c07 5cba
000000e0: 66f3 22ba 539c 993c 744f bf3b 77e1 93bb
000000f0: fc10 0cbc df33 08bd e7bc 32bc b727 fa3b
00000100: f265 af3c 1ac5 623b ab8b 183a ff55 463d
00000110: 0454 9b3b b36c 293d 42e6 723b 57ea 03bc
00000120: 46c3 683b 775b 753d 976d 6abb 4de2 023c
00000130: 01d4 6fbd aa1b dbbc d24d f63c 071b 9abc
00000140: 7e78 95ba 8578 493c 09ba 08be 32e6 30b9
00000150: a5e2 c93a e2f2 173c 1011 1c3c a913 bc3c
00000160: 5a9a 0b3a 1492 1539 d0aa 0c3c 8b48 ffbc
00000170: 29af 8a39 4915 273c 403c ddb9 283f 60b9
00000180: d2de 15bb d539 27bc 645d b13a de17 783a
00000190: e247 b53b 069f e5ba e472 0e3b 1252 22bc
000001a0: 4bcf 033e 3677 e0ba ff13 4f3d ca8d c239
000001b0: 7af7 183c 767c 913b ec76 a73b a3f3 39bc
000001c0: a5dd 223c 3936 4e3c dafc 3b3d 01d2 b13c
000001d0: d48c 893c b96a 003a 8f93 513b 62b7 e7b9
000001e0: e64d 103b b813 b7bc 7dbe 553b b31b 013b
000001f0: 74f6 b43d e475 a5bb 9cab 17ba e6bb dabc
00000200: ab95 22bd d8cc f23b 383d c43c dae9 6d3a
00000210: 3639 963a bf37 e63c 7d86 163d 6ec1 6cba
00000220: 13a1 963a fab3 87bc daeb 803a 4ab6 17bd
00000230: 0410 bc3b 17b7 723c 3e6d e6bb 650b 9bb9
00000240: 0075 a0bb 2b6d af3b bae1 d23c d21c 47bc
00000250: aec6 82bb 9a10 2d3a c6ca 10bd 4b8a 5abc
00000260: d156 2e3a 70f7 023b 709f b6ba efc2 6a3c
00000270: a15a 22ba 7c7b be3a 737d 743c d8f5 183b
00000280: d5b7 3bbb 3ecc 1b3b 8ffc fe3c 8b39 30bd
00000290: 236b dcbd 22c1 44ba a4c7 82bc 80a1 91bb
000002a0: a29d a0bb 91a1 59bd 634a 323d 7e26 24ba
000002b0: 2e4e 6c3b ef3a 993b 6979 6b3c 0baf 953b
000002c0: 1c71 69bc 195f 39bc e5e0 1e3c 4989 93bd
000002d0: 30b6 0db8 ab96 b4bb 3626 b1bc 260d 323b
000002e0: 3c40 d6ba e3f5 e6ba 980c 90bb a58f c03d
000002f0: b9cb 09bc 19d1 643c 4ff9 e33a d252 0a3c
00000300: c6e6 5b3d ef45 d93b fc33 363c 1ccc 603d
00000310: 2656 173c 2ea1 623a ac2d dcba 7a5c 893c
00000320: 5c39 58bb 58ec 623a 8ac9 963a a2ec 1aba
00000330: a886 6bbc adb4 c0bc d1db a4ba 083e 11bd
00000340: a6da 5e39 afa2 a53c c0e0 ebba c903 893d
00000350: 1561 41bb a85f 0e3b c543 003c 65a9 12bc
00000360: 32c1 abbb 7387 4cbc 6bf3 5c3c b20a 2c3b
00000370: 1e13 a93c a307 463b 856a 27bc 7232 cd3b
00000380: 54bf 00bd 5c30 873b d6f8 3c3c ef11 df3b
00000390: 28df e23b 703d c2bb cdd9 913d 9266 c13c
000003a0: 081f 41bc 3caa 093b 918a b43d b1e2 97bc
000003b0: f03f a23b ba04 9a3c 642c b33c 4b82 89bc
000003c0: e646 843c f641 a93c 26c3 cf3a 768d 88b9
000003d0: 3328 0dbc e419 d73c a89a c2bc 6aef 7e3b
000003e0: 7a49 e83b 94a4 dd3a 2f47 e83c 2964 ecb9
000003f0: 6f4b 0dbd 1a21 2b3b abc9 7b3b 4e8c 8dbc
-0.0010621089 0.007735124 -0.023717511 -0.0021345376 -0.0054884744 0.00211294 -0.013093844 -0.008026348
0.08330646 -0.003324748 0.00044303306 0.0057429164 0.019673206 0.018147409 -0.0023036592 0.016638445
-0.036497917 0.009845526 -0.03867473 -0.011469735 -0.0076546287 0.0020531432 0.013751252 0.0044181566
0.07128388 0.01609243 0.0065484485 0.02089511 -0.062910065 0.0019100206 0.007905729 -0.00693225
0.00095564465 0.009046474 -0.023192452 -0.061645713 0.0023973852 0.024963574 -0.0007587708 0.0012913868
0.00044664246 0.003719819 0.009258173 -0.0017905658 -0.011546033 -0.025825715 -0.039666686 0.017213225
0.015664756 -0.003831324 -0.0026797182 -0.00046520832 0.0006513621 -0.026733212 -0.015888782 -0.0008393468
-0.0006216079 0.018751299 0.005838329 -0.0045129615 -0.008548971 -0.033252593 -0.010909296 0.007634129
0.021410916 0.0034602345 0.0005819152 0.048421856 0.00474024 0.04136343 0.0037063514 -0.008051476
0.0035516783 0.05990168 -0.0035770887 0.007988525 -0.058551792 -0.02674659 0.030066404 -0.018811716
-0.0011403707 0.0122968005 -0.13352217 -0.00016870422 0.0015402628 0.009274216 0.009525552 0.022958593
0.00053254294 0.00014264166 0.008585647 -0.03116252 0.00026451916 0.010197946 -0.00042197295 -0.00021385832
-0.0022868407 -0.010206659 0.0013531861 0.00094640057 0.0055322507 -0.0017518706 0.002173596 -0.009907262
0.12872045 -0.0017125371 0.05055618 0.00037108205 0.009336347 0.0044398857 0.005110612 -0.011349591
0.0099405395 0.01258617 0.045895435 0.021706583 0.016790785 0.00048987154 0.003197882 -0.00044196384
0.0022019087 -0.02234827 0.003261476 0.0019700348 0.0883607 -0.005049454 -0.00057857647 -0.026700925
-0.039693516 0.007409673 0.023954973 0.0009075679 0.0011461142 0.028102754 0.03674935 -0.0009031509
0.0011492096 -0.016565312 0.0009835914 -0.03703908 0.005739214 0.01481416 -0.0070320657 -0.00029572393
-0.00489676 0.00535359 0.0257424 -0.012152867 -0.0039909696 0.00066019 -0.03534963 -0.013338636
0.000665051 0.001998391 -0.0013933014 0.014328702 -0.00061933143 0.0014532651 0.014922488 0.0023339894
-0.0028643508 0.002377286 0.031126289 -0.043023627 -0.10762622 -0.00075055857 -0.015964337 -0.004444301
-0.004901604 -0.053132597 0.043527972 -0.00062618393 0.003605734 0.004676215 0.014372208 0.004567986
-0.014248159 -0.011314177 0.009697174 -0.072039194 -3.3786695e-05 -0.005511125 -0.021624666 0.0027168482
-0.0016346048 -0.0017620887 -0.0043960325 0.09402398 -0.008410388 0.013965868 0.0017393025 0.008442597
0.05368688 0.006630651 0.0111207925 0.054882154 0.009236848 0.00086452335 -0.0016798279 0.01676773
-0.0032993173 0.0008656434 0.0011504155 -0.0005909895 -0.014375366 -0.023523653 -0.0012577717 -0.03545955
0.00021253023 0.020219175 -0.0017996058 0.06690175 -0.0029507328 0.0021724496 0.0078286575 -0.00895152
-0.0052415365 -0.0124834655 0.01348577 0.0026251492 0.020638999 0.0030216954 -0.010218267 0.006262117
-0.031432465 0.004125638 0.0115339365 0.006807558 0.006923575 -0.005927734 0.0712162 0.02360848
-0.011787184 0.0021006009 0.08815492 -0.018540712 0.0049514696 0.018801082 0.021871753 -0.016785761
0.016147088 0.020661335 0.0015851005 -0.00026045338 -0.008615541 0.026257463 -0.023755386 0.0038900026
0.007088837 0.001691001 0.028354255 -0.00045088053 -0.034495767 0.002611226 0.0038419764 -0.017278817

conv1.lin_l.bias f4 [16]
00000000: 078d cc3d 7945 a43d 97ce 3ebd e202 823d
00000010: 7365 5a3d 9ae7 87bd 036c 49bd e1e7 09bc
00000020: 8811 83bc 791b b63d dcff efbc 57cb 063d
00000030: 453c 82bd 55d7 37bd 9909 5fbc d257 83bd
0.09987836 0.08021063 -0.04658374 0.06348206 0.053319406 -0.06635971 -0.049175274 -0.008417101
-0.01599957 0.08891959 -0.029296808 0.032908764 -0.06359152 -0.04488309 -0.013613128 -0.06413235

conv1.lin_r.weight f4 [16, 4005]
00000000: 1ee0 5abc a2e8 1f3d 1c9e adbc 5e5c 0e3b
00000010: 3ea1 ec3a 6279 64bc f57e 073d bd15 95bc
00000020: b8b1 e13d cf22 eabc 75ed d43c b0fa 1f3b
00000030: e4d7 e439 0050 f23d 552a 243d 3a06 8c3d
00000040: 9c28 e93d b4e5 4bbd f975 85bc b4ad 78bc
00000050: f8f7 b4bc 6acd 5bbd 0c19 dbbc 29b4 213c
00000060: 218d 923e 3726 9ebd ca30 2b3c 0596 fb3c
00000070: 99ac 82bd 445d d43b 7665 643d 1540 9d3c
00000080: b44f 163c e9b9 a43c b0d8 0bbb 2cd7 a33d
00000090: 3aaf 563c d53d 813d 3c1a a43b f82e 02bd
000000a0: c0d7 73bd 6d7d 223d bbab 213d 2041 79bd
000000b0: 6eaf 13bd 4fca 54bb 13e0 12be 69d9 73bd
000000c0: ae55 073c 9cee 463c 1923 043c cfd0 d53c
000000d0: d8cf 9b3c 0c45 2dbc 8cdc 65bb 387b 67b9
000000e0: 4d34 b93c a809 c439 d6a7 37bb 401a 3cb8
000000f0: add8 c0bb 34bd 3fbc 60a1 283a f398 423d
00000100: b761 94bb fe05 183d 46d4 3abb 7662 b6bc
00000110: d9de 533c 90c9 6fbd ad78 143d cf34 e5bc
00000120: ebac 2abd 4570 063e 7226 433c 6306 8cbc
00000130: f229 163e 4f86 463d 2d0e 71bc 1ff1 dd3c
00000140: 48f7 3f3c 40cf cfbd 3ee7 77be e100 143a
00000150: 4822 a63b 1316 cc3d eb50 de3c 410d aabd
00000160: 5fc4 f53c a0e9 08b9 8e8d bbbd b224 9fbd
00000170: 3893 6bbb fc37 fa3c b26c a93c d22b 21bb
00000180: 556c 52bc d696 5d3a f019 47bb c0b4 f63b
00000190: ca1b 95bc dd5a 54bc 7c65 973c 0156 a13b
000001a0: daae 373e c054 00b9 d354 373d 9a99 8abb
000001b0: 7846 24bb 5ced 51ba a4e0 fc3c 2805 15ba
000001c0: bf6c 2cbc f825 1abd 0c4e d8bd a3bb 013c
000001d0: b163 12bc 2cb5 903b b158 b1bb d1a9 7b3b
000001e0: 53bd d83b fedc 98bd 3e64 01bc 985b 4b3c
000001f0: d8ff bebb 85cc 59bd 9b6a a83d 6a6e df3c
00000200: 0094 adbd 36c6 ccbc cca5 72bb f040 673c
00000210: 60c7 43bc 4572 ad3c 065b 86bb 32a9 4c3d
00000220: 5e76 1d3a 7971 d4bd 33af 003d c185 0bba
00000230: afc0 2e3c fb07 ad3d 139f e6bc f4a4 3e3a
00000240: 30e7 c53c 8b15 663c f940 643d c6dd 35be
00000250: 679d 49bd 9a63 a4bc 4681 5dbd 7c4f f0bd
00000260: fa37 813c b323 a2bc 8590 dc3b 9615 f33a
00000270: bcde e1bc bb49 a83b 6ce0 c13b 58e1 f63d
00000280: 6595 96bd d088 913b 7fea 99bc 8810 ffbd
00000290: da10 64bd ce1c 953c 1a21 0bbd 6a96 bf3b
000002a0: d69e 293c 1e03 fe3c cb9c aa3b 9b14 ab3b
000002b0: 72d0 863c c4c4 79ba 50ce ef3c ad60 453c
000002c0: b633 1e3b 8014 7537 ba61 3fbd 48bf 08be
000002d0: ae50 023d 7a87 b23c 5931 043d 5e10 f3bc
000002e0: 3a0e 243c 1fd6 65bd 2bfb fa3a eaa9 2e3d
000002f0: 3915 f5ba cd4f 3abd b034 17bd a6f5 9f3b
00000300: c25a ccbd 26c1 103c 485e c13d fc62 073e
00000310: 43af 803c 2817 49bc d87e 033d f151 3b3d
00000320: 1cb9 13bc 0556 5fbc 2757 543c 9897 17bd
00000330: abb7 383d 47e0 b9bc 8098 92b8 5474 163d
00000340: b3a4 9b3c a641 9d3d e802 3bbc 121c 3ebc
00000350: 4477 a93b 2e1f 043a 2c90 403d a648 0bbc
00000360: ac72 acbb 6ef9 60bd e329 6c3c 0b80 983c
00000370: e34b 09bd b3b9 dcbc ecfb 29bd 4543 923b
00000380: e6f5 2c3c daee b0bc 335e 54bc 9058 c7b9
00000390: 2269 9a3c 857b d6bc 35b0 b8bc a4c1 84bb
000003a0: 2456 22be ad38 8b3c e195 073d 7af0 3f3b
000003b0: e265 2dbb 6922 e0bc 78a3 b2bc bd82 cdbc
000003c0: 4786 5e3c 7eaa 423c a237 34bc 7029 d53c
000003d0: 1c22 a13b aa6a b7bd 91b8 ff3c ba06 2f3d
000003e0: bb9f af3c 7b26 423b 1294 bcbb 68f4 743a
000003f0: 4f27 8fbe 2eec a13c dc0b 4c3d d075 d43c
-0.013359098 0.039040215 -0.021193556 0.0021722536 0.0018053425 -0.013944956 0.03308006 -0.018198842
0.11020225 -0.028581051 0.025992135 0.0024410896 0.000436484 0.11831665 0.040079433 0.06837125
0.11384699 -0.04977961 -0.016291605 -0.015178133 -0.022090897 -0.053662695 -0.026745342 0.009869614
0.28623298 -0.07722133 0.010448644 0.030711183 -0.06380577 0.0064808447 0.055760823 0.019195596
0.009174276 0.02010818 -0.0021338873 0.08000025 0.013103301 0.06310622 0.00500801 -0.031783074
-0.059531927 0.039670397 0.039470416 -0.060853124 -0.036055975 -0.0032469218 -0.1434329 -0.05953351
0.008260174 0.01214185 0.008065009 0.026100544 0.019020006 -0.010575544 -0.0035074083 -0.00022075779
0.022607947 0.00037391228 -0.0028023622 -4.484714e-05 -0.0058852048 -0.011702824 0.0006432738 0.047509145
-0.00452825 0.03711509 -0.0028507872 -0.022263747 0.012931549 -0.058541834 0.036247898 -0.027979283
-0.041668814 0.13128765 0.011911022 -0.01709289 0.14664438 0.04846793 -0.014712852 0.027092515
0.011716671 -0.10146952 -0.24209306 0.0005645883 0.0050700046 0.09965148 0.027138194 -0.08303309
0.030000864 -0.00013057003 -0.09157859 -0.07770671 -0.0035945904 0.030544274 0.020681713 -0.002459277
-0.012843211 0.0008452957 -0.003038045 0.0075288713 -0.018201727 -0.012961117 0.018481009 0.0049235825
0.17937794 -0.00012238603 0.04475863 -0.0042297365 -0.0025066417 -0.00080080866 0.030868836 -0.0005684667
-0.010523974 -0.037633866 -0.10561761 0.007918271 -0.008934901 0.0044161286 -0.005412184 0.003840078
0.006614366 -0.07464026 -0.007897435 0.012411974 -0.005828839 -0.05317356 0.082234584 0.02727433
-0.084754944 -0.024996858 -0.0037025092 0.014114603 -0.01194939 0.021172652 -0.0041002063 0.049966045
0.0006006713 -0.10373206 0.031417083 -0.000532236 0.010666057 0.08448788 -0.028152024 0.0007272505
0.02415809 0.014043222 0.055726025 -0.17760381 -0.049222376 -0.020067025 -0.054078363 -0.117339104
0.015773762 -0.019792413 0.0067310953 0.0018545862 -0.027572028 0.0051357425 0.0059166458 0.120547
-0.073527135 0.004441358 -0.018788574 -0.12454325 -0.055680133 0.018202212 -0.033967115 0.005846788
0.010352811 0.031007346 0.0052066795 0.005220962 0.016456816 -0.00095279166 0.029273182 0.012046975
0.002413971 1.4607911e-05 -0.04672406 -0.13354218 0.031815223 0.021793116 0.032273624 -0.02967089
0.0100131575 -0.056112405 0.001914834 0.04264251 -0.0018698341 -0.04548626 -0.03691548 0.0048815785
-0.09978248 0.008835113 0.09441811 0.13221353 0.015708571 -0.012273587 0.03210339 0.045732442
-0.0090163015 -0.0136313485 0.012960232 -0.037009805 0.045097034 -0.022689952 -6.990228e-05 0.036732033
0.018999433 0.07678537 -0.011414267 -0.011603372 0.0051716883 0.00050400465 0.047012493 -0.008501207
-0.0052626934 -0.054925375 0.014414283 0.018615743 -0.033519637 -0.026944017 -0.041500017 0.0044635856
0.010556674 -0.021598268 -0.012961912 -0.00038022222 0.01884896 -0.026181946 -0.02254496 -0.004051404
-0.15853173 0.016994799 0.03310192 0.0029287622 -0.0026458432 -0.027360158 -0.021806464 -0.025086755
0.013581819 0.011881469 -0.010999592 0.026020736 0.004917396 -0.089558914 0.031215938 0.042731024
0.02143847 0.0029624987 -0.005754956 0.00093442807 -0.27959678 0.01976594 0.049815997 0.025935084

conv2.lin_l.weight f4 [1, 16]
00000000: 996a 56be dfc8 d6bd b5f6 ce3d 94d0 62be
00000010: 3a94 95be 4d53 613d 80a3 11ba a813 943d
00000020: 7de1 06be 897e 4fbe 05b9 463e e9f7 adbe
00000030: a07d 0ebe 8c17 8e3d c763 953e a2ce a0bb
-0.20939101 -0.10487532 0.101056494 -0.22149879 -0.2921465 0.055011082 -0.00055556744 0.07230312
-0.13171954 -0.20263113 0.19406517 -0.33978203 -0.1391511 0.06938085 0.29177687 -0.004907445

conv2.lin_r.weight f4 [1, 16]
00000000: b322 ebbe 850c dabe 5a50 053f 7ca9 e7be
00000010: b6b2 d7be 469b 39bd e774 0e3d 1ea0 f53e
00000020: f043 cf3d 06e0 08bf 97a3 d13e 2947 7cbe
00000030: f095 023e 7f51 cbbc 7f22 be3e bc7d e53c
-0.4592491 -0.42587677 0.5207573 -0.45246494 -0.42128533 -0.045314096 0.034779456 0.47973722
0.1012038 -0.5346683 0.40945122 -0.2463652 0.12752509 -0.024819134 0.37135693 0.028014056
