runs/25-08-2025_18-13-22__best_val_acc_0.8676/models/GCN__val_acc_0.8549.pt (torch, 258736 bytes, 3 tensors)

conv1.bias f4 [16]
000000 a8 c1 1d 3e 2d 16 cd bc 14 9e fc 3d f2 e7 be 3d
       0.15405905 -0.025034988 0.123348385 0.09321584
000010 4b 69 fc 3c fc 52 26 3d b9 81 50 bd c0 40 5e bd
       0.030811926 0.040606484 -0.050904963 -0.05426097
000020 82 ad f9 3d a7 69 fd bc 0d d3 25 3d 4b 2a 69 3c
       0.12191297 -0.030934168 0.040484477 0.014231275
000030 65 3f d9 3d d9 83 45 bd 9f 25 d0 3d 53 c4 59 bd
       0.10607795 -0.048221443 0.10163426 -0.053165745

conv1.lin.weight f4 [16, 4005]
000000 8f b2 12 bd e6 cd dc 3b b2 4f 2c bd dd 3a ef 3c
       -0.035814818 0.006738412 -0.04206819 0.029202873
000010 70 02 84 39 58 77 9f 3b 54 d0 31 3a 6a cb 92 bc
       0.00025178818 0.004866522 0.00067830575 -0.017919261
000020 8a ef 92 3d ff c9 9e bd 99 e5 9c 3b ea 67 68 bc
       0.07174595 -0.077533714 0.0047881124 -0.014184931
000030 0a 97 1b 3d 8d bf b0 3d ec 77 95 bb a5 71 84 3d
       0.03798584 0.086302854 -0.004561415 0.064669885
000040 ca 61 94 3d 9c ea 2c 3c 59 6f 08 bd 7b 62 f2 3c
       0.07245214 0.010553982 -0.033309314 0.029587975
000050 fc d8 23 3c 64 2a d7 bc a9 55 90 bd b3 fd e1 3b
       0.010000464 -0.02626533 -0.070475884 0.0068966984
000060 90 26 46 3d 6a 7a 96 bd fe 01 52 bb 66 1e 0e 3c
       0.04837662 -0.073475674 -0.0032044644 0.00867424
000070 ef 9b 89 bd aa 31 84 3b 52 e6 fe bb 0e 30 8b 3c
       -0.06719195 0.0040342407 -0.007778921 0.016990688
000080 30 b4 9e 3c cf f1 82 3c 86 1d 9e 3b 8b 5b c8 3d
       0.01937303 0.015984444 0.004825297 0.097830854
000090 72 2d 5a bd f3 a0 81 bd 60 92 b2 39 60 95 d7 3c
       -0.053265996 -0.06329527 0.00034059864 0.026316345
0000a0 7d ec 43 bc 33 f2 93 bc 9b e8 9d 3c 95 92 8f bd
       -0.011958239 -0.018059826 0.019275954 -0.0701038
0000b0 96 34 15 bd 8a cf 56 bd b4 36 80 bd 0e b1 e7 bc
       -0.036427103 -0.05244402 -0.06260434 -0.028282668
0000c0 b6 c5 c8 3b 0a 13 2c 3d 5c 7a 52 3c 33 96 53 bd
       0.0061270846 0.042010345 0.012846556 -0.051656913
0000d0 00 b5 8a 3c 2c f8 67 3d ee b7 a4 3b d8 f8 9a 3a
       0.01693201 0.05663316 0.005026809 0.0011823429
0000e0 34 3a 6b 3b 88 36 e7 3c 71 42 e4 bc 4b 83 5e bc
       0.0035892846 0.028224245 -0.027863713 -0.013581107
0000f0 53 44 3a bc 8a 06 6d bd 83 c8 0d 3d ee 50 e0 3d
       -0.011368829 -0.057867564 0.03461505 0.10952936
000100 17 d4 3c 3d 5b ae c0 3b 83 a4 0c 3d 64 70 3f 3b
       0.046100702 0.00588016 0.034336578 0.0029211277
000110 ba 38 82 3c 00 dc 1d bb 8e 70 cd 3b 47 2e 02 3d
       0.01589619 -0.002408743 0.006269521 0.031782415
000120 9a ae dd 3b 35 32 67 3d 80 8c a0 37 0b ea 0b bd
       0.006765199 0.056444366 1.9138912e-05 -0.034158748
000130 77 88 17 3d ee 34 78 bc da 66 c0 3d a3 31 2d bd
       0.036995377 -0.015149338 0.093946174 -0.042283665
000140 46 68 13 bd a8 f2 91 3c 03 e7 6e be ba 05 fa 3c
       -0.035988115 0.017815903 -0.23330311 0.030520309
000150 6c c9 42 3b 3d b8 be 3d 2e 23 a3 3c e2 29 d0 3c
       0.0029722108 0.093124844 0.019914236 0.025410596
000160 d7 24 08 bd 1a d0 ef 3a 08 31 5b 3c ff 5f 28 bd
       -0.03323826 0.0018296272 0.013378389 -0.041107174
000170 e2 9a 62 bb c6 d4 54 3d 24 e8 c2 3a c4 c0 f2 3c
       -0.003457718 0.05196073 0.0014870209 0.029632933
000180 70 df 97 bd b0 55 f5 bc 87 aa 1c 3b 1e 30 16 bc
       -0.07415664 -0.029948086 0.0023905353 -0.0091667455
000190 3f b2 06 bc de 40 5f bd f5 de 41 3c c8 08 3d bc
       -0.008221208 -0.05450522 0.011832942 -0.011537738
0001a0 9b 17 a2 3d a8 16 42 3c 94 96 88 3c eb 37 83 ba
       0.07914659 0.011846222 0.016673364 -0.0010011172
0001b0 1a 4e c5 bc d3 4f ed 3b ba e9 c1 3c 72 ec 9f bb
       -0.024085093 0.007242182 0.02367102 -0.0048804814
0001c0 3c 4c a1 3b 00 15 28 3d 59 4f 0a bd aa 98 a3 3c
       0.004922418 0.041035652 -0.033767078 0.019970257
0001d0 55 ef 9a 3b 0e ab 72 3b 27 d8 6f bc 7f da 7d 3c
       0.0047282376 0.0037028226 -0.014638937 0.015493988
0001e0 f9 0e 05 3c 4c ba 5a bc 0a ff e5 3b 83 bc e5 3b
       0.008121246 -0.013350081 0.0070189284 0.0070109977
0001f0 ad 64 b6 3d 4c 73 7d bd c9 e6 a7 3d 4e 5f 59 3c
       0.08905921 -0.061877534 0.08198316 0.013267351
000200 3f a3 35 be 94 98 fb bc 20 53 ac 38 fc a1 30 3b
       -0.17738055 -0.030712403 8.217082e-05 0.002695202
000210 20 2f 79 3c 2a 45 06 bc ba 77 50 3c 5a cf 0c bd
       0.015208989 -0.008195201 0.012723858 -0.034377433
000220 7c c8 f7 bb ab 79 f6 3c 4e 1c 82 3c 83 04 04 3d
       -0.0075617414 0.030087313 0.015882637 0.032230865
000230 6d d4 2b 3c 3f aa aa 3d 8b bc 1b 3c 70 d5 83 b5
       0.010487658 0.08333253 0.009505401 -9.822379e-07
000240 19 d7 b8 3c 58 cb 19 3d 5a 2d 45 3c 4d 4e d8 bd
       0.022563504 0.03754744 0.012034738 -0.1056181
000250 e4 48 8b bd c3 1c 82 3d 3f 5c af bd 68 db c4 bd
       -0.06801012 0.06353142 -0.085625164 -0.09612161
000260 ad ba 39 3d e0 78 85 3c 57 bd 5b 3b cf 31 0a bd
       0.045344044 0.01629299 0.0033529603 -0.033738907
000270 1c 10 05 3c a2 99 b2 3b fe 43 cd 3b a5 65 58 bc
       0.008121517 0.0054504434 0.006264209 -0.013207828
000280 94 b9 f2 bc 90 8d a8 38 ce 06 e0 3b 51 c7 4c bd
       -0.029629506 8.037232e-05 0.0068367487 -0.04999477
000290 6f a9 27 bd a6 88 d7 3a a8 fd 86 bc 0d 8a 17 bc
       -0.04093307 0.0016443923 -0.016478375 -0.009249222
0002a0 9e 6b df 3d dc e9 c4 bd 51 db 15 3c 69 71 06 bd
       0.10909198 -0.09614918 0.009146527 -0.032823
0002b0 5a 1d fb b5 2a 99 34 3a f4 1b 1f 3c b0 d8 ac 3c
       -1.87095e-06 0.00068892783 0.009711254 0.021099418
0002c0 ef 58 a0 3c 24 5a a1 b6 e1 0b b0 bd 97 c4 ff bd
       0.019573657 -4.8086677e-06 -0.08596016 -0.124886684
0002d0 89 4d db 3c 46 0c 25 bd c6 0c a5 3d d1 ab 25 3c
       0.02677037 -0.040294908 0.08059077 0.010111765
0002e0 d2 cf c8 3b 2a 02 ee bc 0c 62 dc 3a 5a ba 8f 3c
       0.0061282897 -0.029053766 0.0016813888 0.017544914
0002f0 2e 30 04 3c 01 cc 03 bd 11 f2 e0 3b 1f 33 69 3d
       0.008068128 -0.032176975 0.006864794 0.05693352
000300 86 88 13 bc 2e 6c 81 3a 91 1d 28 bd bb 84 6c 3d
       -0.009004718 0.0009874159 -0.04104382 0.05774377
000310 21 ab 48 3c 79 52 0e 3b 16 53 8a 3c de ad 7b 3d
       0.012247832 0.0021716638 0.016885322 0.06144511
000320 47 aa 4c bc aa 4a 85 bd bd 22 ac 3c a3 d6 e4 bc
       -0.012491769 -0.06508382 0.021012658 -0.027934378
000330 de 9a ce 3b 29 fd 83 3d 0f a0 41 3c e5 43 85 3c
       0.0063050827 0.06444771 0.011817946 0.016267726
000340 0a aa 8a 3c 52 a5 a6 3d 23 45 c3 bb ae 24 f1 3c
       0.016926784 0.08137001 -0.0059591695 0.029436436
000350 6c ec 8c bc 56 f0 10 3b 90 ce 24 3d 6e d0 f2 3c
       -0.017202578 0.0022115908 0.040236056 0.029640403
000360 47 73 e9 bc 91 9c 1c bd 42 41 b8 bd cc f1 bb bb
       -0.028497351 -0.03823525 -0.08996822 -0.0057356115
000370 6a a0 9e 3d 2e fc 3c 3b 27 06 09 bc 71 e0 0d bd
       0.0774544 0.0028836834 -0.008363283 -0.034637872
000380 38 e8 be 3d ab 48 8a 3d c0 6e f1 3a 2d fc c1 bc
       0.09321636 0.067521416 0.0018419847 -0.023679817
000390 4b 77 e1 3c 9d 4f 37 bc 3f 98 f4 3c 65 ec 46 3d
       0.027522704 -0.011188415 0.029857753 0.048565287
0003a0 a0 cc 3c 3c 54 85 8f 3c 04 bc 97 3d 67 0c 1c 3c
       0.011523396 0.01751963 0.07408908 0.009524441
0003b0 03 2c 93 bb 87 92 a2 3c e1 67 92 bd ab eb 59 bc
       -0.0044913306 0.01984526 -0.071487196 -0.0133008165
0003c0 95 fb 5b bd de f2 ba 3c a5 6c 16 3b b9 4a 97 3d
       -0.053706724 0.022820886 0.002295294 0.07387299
0003d0 4e bc 04 bd 3b 42 d6 bd a9 69 53 3d 5a 4f 5a 3d
       -0.032406144 -0.10461851 0.051614437 0.05329833
0003e0 7e 85 73 3c 5e 50 a4 3c f3 06 3b 3d 5c cc 4b b5
       0.01486337 0.020057853 0.045660924 -7.5920775e-07
0003f0 17 ec 27 be 4a eb 92 3b 7c 9b 06 3b dc 1c 05 3d
       -0.16398655 0.004483615 0.0020539453 0.032498226

conv2.lin.weight f4 [1, 16]
000000 e4 c5 59 bf 5f a4 04 b9 45 0b 1a bf e9 8f 87 bf
       -0.8506758 -0.00012649734 -0.60173446 -1.0590793
000010 01 72 28 3f 31 81 60 3f fc 94 20 3e c1 b2 58 3e
       0.65798956 0.8769713 0.15681833 0.21161939
000020 8b d2 11 bf 5b 94 01 b9 6c 7f 8b 3f 11 80 8b 3f
       -0.5696189 -0.00012357665 1.0898261 1.0898458
000030 d8 0b 6a bf e0 56 56 3d d4 1d 74 bf ad 5f 06 3e
       -0.9142432 0.052328944 -0.95358014 0.13122435
