runs/25-08-2025_18-13-22__best_val_acc_0.8676/models/GraphSAGE__val_acc_0.8676.pt (torch, 515900 bytes, 5 tensors)

conv1.lin_l.weight f4 [16, 4005]
0	0xba8fa667	-0.0010959626
1	0x3d285710	0.041098654
2	0xbcb53aa6	-0.022122692
3	0xbabeeedf	-0.0014567039
4	0x3c859071	0.016304227
5	0xbc79954b	-0.015233348
6	0x3adbf493	0.0016781263
7	0x3a5d4b60	0.00084417127
8	0x3d5c2cc4	0.05375363
9	0xbcba08ca	-0.02270927
10	0x3cbbfa34	0.022946455
11	0xb9892a1e	-0.00026162056
12	0x3cd2f853	0.025753176
13	0x3cb98158	0.022644684
14	0x3dd26c65	0.10274581
15	0x3b7dec06	0.0038745417
16	0xbd1fa9f0	-0.038980424
17	0xbd1c534b	-0.038165372
18	0xbd4e32ee	-0.05034154
19	0x3da26de8	0.07931119
20	0x3a952b03	0.0011380616
21	0x3a89da4b	0.0010517327
22	0x3a9a9a6e	0.0011795291
23	0xba607160	-0.0008561816
24	0x3d510d04	0.051037803
25	0xba8f15a7	-0.0010916487
26	0xbbba4c7e	-0.005685388
27	0x3b6b000b	0.003585818
28	0xbda33661	-0.07969356
29	0x3b49f74a	0.0030817562
30	0x3bac7990	0.005263515
31	0x3c9658b9	0.018352853
32	0x38ef7b84	0.00011419415
33	0x3c35a796	0.011087319
34	0xbd69c0e3	-0.057068717
35	0xbd3ef302	-0.04661847
36	0x3cc59047	0.024116648
37	0x3c6569bb	0.014002259
38	0x3b4d78f7	0.0031352618
39	0x3c66bb38	0.014082722
40	0xb9c9c5e6	-0.00038485153
41	0xbd06999b	-0.032861333
42	0x3c144171	0.009048806
43	0xbb8ba3b1	-0.004261457
44	0xbd2759df	-0.040857192
45	0x3c7e0c37	0.015505842
46	0xbcc1e610	-0.023669273
47	0xbc595e03	-0.013267043
48	0x3c343887	0.010999805
49	0xbbc16385	-0.005901756
50	0x3b68a3c2	0.0035497998
51	0x3ad02145	0.0015879056
52	0xb9405a38	-0.00018344156
53	0x3ca7a7dc	0.020465784
54	0xbc1391a5	-0.009006892
55	0xbc2ebd7e	-0.010665296
56	0x3951c436	0.00020004887
57	0x3bc4bd7d	0.006004034
58	0xbc083412	-0.008313196
59	0x3c3479d0	0.0110153705
60	0xbb4a9e0e	-0.0030916962
61	0x3bf8e25d	0.007595344
62	0xbd433dfb	-0.04766653
63	0xbc9c83fa	-0.0191059
64	0x3c862805	0.016376505
65	0x3bf8eea1	0.007596806
66	0x3b3d8d45	0.0028923315
67	0x3cd4c47d	0.0259726
68	0x3bdccd47	0.006738338
69	0x3d65a98d	0.0560699
70	0xbb17441e	-0.0023081372
71	0xbc72f313	-0.014828461
72	0xbd088f69	-0.03333989
73	0x3d426099	0.047455404
74	0x3d43404b	0.047668736
75	0x3c5d649f	0.0135127595
76	0xbc1d83b5	-0.009613921
77	0xbdd21f6b	-0.10259899
78	0xbd2d0264	-0.042238608
79	0xbc4183aa	-0.011811176
80	0xbba3e57a	-0.005001721
81	0x3db12735	0.08650056
82	0xbd83d5c4	-0.06437257
83	0x3892f6b7	7.007777e-05
84	0x3b008fe2	0.001961701
85	0xbc0a09c4	-0.00842518
86	0x3b93f913	0.004515776
87	0x3c86c035	0.016449073
88	0x39409940	0.00018367637
89	0x39d58fdc	0.0004073371
90	0xbbd63a73	-0.0065377294
91	0xbd75cb85	-0.060008544
92	0xba5cda5a	-0.0008424871
93	0x3c6ae708	0.014337309
94	0x3b8991b3	0.004198277
95	0xbc82242f	-0.015886394
96	0x3b1a55f0	0.0023549758
97	0xbbc53f1b	-0.0060194856
98	0x3bae20f6	0.005313988
99	0x3b7a0fb5	0.0038156335
100	0xbca7b3cc	-0.020471476
101	0x39f9e7b8	0.00047665625
102	0x398ecc78	0.00027236692
103	0x3b108644	0.0022052685
104	0x3da83f1a	0.08215161
105	0xb917d8f0	-0.00014481298
106	0xbc963d70	-0.018339843
107	0xb8fb29be	-0.00011976388
108	0x3a8ac2c6	0.0010586611
109	0x3cc0294c	0.023457192
110	0x3ca4962b	0.020091137
111	0xbaba7153	-0.0014224447
112	0x3bea179a	0.007143927
113	0x3ae109de	0.0017169078
114	0x3dab6780	0.083693504
115	0x3d2cbbe2	0.042171367
116	0x3bb470c4	0.005506607
117	0xb8d93857	-0.000103578604
118	0xbb002078	-0.0019550603
119	0xbb8b5471	-0.0042520096
120	0x3c693e4b	0.014236043
121	0xbcd0150e	-0.025400665
122	0xb86c8a00	-5.6395307e-05
123	0xb8c959ee	-9.6011776e-05
124	0x3d33eec1	0.043928865
125	0xbb5dfb96	-0.003387188
126	0x3c6c301e	0.014415769
127	0xbbf1b1ca	-0.0073759304
128	0x3b0d9392	0.0021602851
129	0xbab06d83	-0.0013460371
130	0xbc6fb760	-0.014631122
131	0xbb8cc626	-0.004296082
132	0x3bad7dcb	0.0052945367
133	0x3cf5ba2b	0.029995998
134	0xbd2860c1	-0.041107897
135	0x39c8f148	0.0003832674
136	0xb9c7d435	-0.00038114344
137	0xbdfbb7c0	-0.12290907
138	0x3a145f46	0.0005659949
139	0x3bff39b7	0.0077888626
140	0x3cbb5ec8	0.022872344
141	0x3caf84f1	0.021425696
142	0xbc94ec69	-0.018179135
143	0xb6edce80	-7.08719e-06
144	0x3c1f9f68	0.009742595
145	0x3c188542	0.009309115
146	0x3c6764c0	0.014123142
147	0xbd08a21c	-0.033357725
148	0xbca83c67	-0.020536615
149	0xbbc8af28	-0.006124396
150	0x3b8b143f	0.004244357
151	0xbca7bc5c	-0.020475559
152	0x38b42836	8.590559e-05
153	0xb95932a4	-0.00020713598
154	0x3bf774ba	0.0075517567
155	0xbc49e2de	-0.012322156
156	0x3aa05160	0.0012231283
157	0xbc086ce0	-0.008326739
158	0x3cef1d35	0.029188732
159	0xbcbb7a7d	-0.022885555
160	0xba4a2548	-0.0007711244
161	0xbc33d761	-0.010976643
162	0x3c9e9109	0.019356268
163	0xbce86130	-0.028366655
164	0xbdc39ba9	-0.09551174
165	0x38c75ae8	9.505992e-05
166	0xbc9796cb	-0.01850452
167	0x3b723b8c	0.0036961762
168	0xbc71ee41	-0.014766277
169	0x3d46f448	0.04857281
170	0x3cf0ca4d	0.02939334
171	0xbc161ab6	-0.009161642
172	0xb80e9ced	-3.4001587e-05
173	0xbb9002ff	-0.0043948884
174	0xbd04d8d4	-0.032433346
175	0xbae28f06	-0.0017285056
176	0x3c5932ec	0.01325677
177	0x3cd40559	0.025881456
178	0x3cdf3b7d	0.027250046
179	0xbde4c960	-0.11171222
180	0xbb96bdce	-0.004600263
181	0x3c3028c6	0.010751909
182	0x3cb7314b	0.022362372
183	0xbc10ee68	-0.008845903
184	0x3b831499	0.004000258
185	0x3a047000	0.00050520897
186	0x39410e84	0.00018411322
187	0x3d1a0a4a	0.03760747
188	0x3b887342	0.0041641304
189	0xbc546cf9	-0.012965434
190	0x3b53496e	0.0032239812
191	0x3cadb1ab	0.021202883
192	0x3d37de77	0.044889893
193	0x3ad732a0	0.0016418286
194	0xbd5992fa	-0.053118683
195	0x3df117ce	0.117721185
196	0x3b8a20ec	0.0042153504
197	0x3c2666ca	0.010156343
198	0x3be63400	0.007025242
199	0x3c2279bf	0.009916722
200	0x3a299007	0.00064683
201	0xb9cca35c	-0.00039031624
202	0x3ac2e8ea	0.0014870439
203	0xbbe87dc5	-0.007095071
204	0xbcba5128	-0.022743776
205	0xbdcfeabc	-0.10152194
206	0xb987cd40	-0.0002590213
207	0xbd5f1d85	-0.05447151
208	0xb962b881	-0.00021621773
209	0xb9eb5700	-0.00044887513
210	0xbd0f282a	-0.034950413
211	0x3d10a8a9	0.035317097
212	0x3a76f1ff	0.00094202155
213	0x3ac711b5	0.0015187772
214	0x3cab2980	0.020893812
215	0x3a977112	0.0011554083
216	0xbbc8f96a	-0.006133248
217	0xbaa778c6	-0.0012777082
218	0x3cb59830	0.022167295
219	0xb851bc70	-5.000498e-05
220	0x3ce8cef2	0.028418992
221	0xbb0cfcb5	-0.002151293
222	0x3a905db4	0.0011014254
223	0xbca3694c	-0.01994767
224	0x3cd84eaa	0.026404697
225	0x3c86bb87	0.016446842
226	0x3cbdce42	0.02316964
227	0xbc285eb4	-0.010276485
228	0x3adbdf44	0.0016774912
229	0xbd3d3446	-0.04619243
230	0x3d8f2eb6	0.06991331
231	0xbd9d8b4c	-0.076925844
232	0xbd098336	-0.033572398
233	0x3d6f774a	0.058463372
234	0x3d24d58f	0.040242728
235	0xbbb0c8a2	-0.005395011
236	0x3be7593f	0.0070601995
237	0x3c4a1ea7	0.01233641
238	0xbcc80380	-0.024415731
239	0x3d812d6c	0.06307492
240	0x3c6bc954	0.014391262
241	0xbc04bbeb	-0.008101444
242	0x3c942c5c	0.018087558
243	0x39cb7618	0.00038807164
244	0x3b23248e	0.0024893614
245	0xbc8ad9d3	-0.01694957
246	0x3ba41017	0.005006801
247	0x3d3c3517	0.045949068
248	0x3b9d4012	0.0047988975
249	0x3c66e6c1	0.014093102
250	0x3cdf8393	0.02728442
251	0x38b850a6	8.788826e-05
252	0x3d71bcc1	0.0590179
253	0x39c36ba8	0.00037273508
254	0x3aae8d96	0.0013317342
255	0xbca6d82a	-0.020366747

conv1.lin_l.bias f4 [16]
0	0x3dbb1e87	0.09136682
1	0x3d82f08a	0.063935354
2	0xbd68581c	-0.056724653
3	0x3e00aac8	0.12565148
4	0xbcc7db85	-0.024396667
5	0x3dcb1e28	0.09917861
6	0x3dadd0cf	0.08487093
7	0xbc5f714e	-0.013637854
8	0xbc2238a1	-0.009901197
9	0xbd3e4f32	-0.046462245
10	0xbd46e9ea	-0.04856292
11	0x3dc8ff44	0.09814313
12	0x3da17258	0.078831375
13	0xbd089088	-0.03334096
14	0x3d95fa67	0.07323151
15	0xbb4d290f	-0.003130499

conv1.lin_r.weight f4 [16, 4005]
0	0xbde4e6f5	-0.11176864
1	0x3d84b992	0.06480707
2	0xbd5bbdcf	-0.053647812
3	0xbb396045	-0.002828614
4	0x3c49faa4	0.012327824
5	0xbd2bfcf6	-0.04198929
6	0x3d8b8ad3	0.06813588
7	0xbc931dd0	-0.017958552
8	0x3cb9325a	0.022607017
9	0xbdbbd10f	-0.09170734
10	0x3bc85e3a	0.0061147483
11	0xbc856b52	-0.016286526
12	0x3c64a155	0.01395448
13	0x3d2a13e1	0.041522864
14	0xbc1097bb	-0.008825238
15	0x3ce2f024	0.027702399
16	0x3e0d0772	0.13772371
17	0x3da7ed10	0.08199513
18	0x3dad9405	0.08475498
19	0x3c8fd719	0.017558621
20	0x3cd6962a	0.02619465
21	0xbd86d5eb	-0.0658377
22	0x3c89e4ff	0.016832827
23	0x3c33e514	0.010979909
24	0x3dd4161c	0.103557795
25	0xbd366705	-0.04453184
26	0xb9123f64	-0.0001394726
27	0x3d80a4aa	0.06281407
28	0xbdb7eb82	-0.089804664
29	0xbbf70b4a	-0.0075391876
30	0x3d10fa50	0.035394967
31	0x3bfbe36c	0.007687023
32	0x3c83f922	0.016110007
33	0x3d033244	0.03203036
34	0x3c37a017	0.011207602
35	0x3e183217	0.14862858
36	0x3c24b720	0.010053426
37	0xbd4dd4e0	-0.05025184
38	0x3c640367	0.013916827
39	0x3cc670d7	0.024223728
40	0xbd9e59a0	-0.07731938
41	0x3cfcd20b	0.030861875
42	0x3d09293b	0.033486586
43	0xbd42bd28	-0.047543675
44	0xbe0a5a2c	-0.1351096
45	0x3bfa5fe0	0.0076408237
46	0xbdb64537	-0.088999204
47	0xbcb9c7a2	-0.0226782
48	0xbcf5fdbe	-0.03002822
49	0x3d0a8287	0.033815887
50	0x377d6200	1.51027925e-05
51	0xbcd25c10	-0.025678664
52	0x3d166b13	0.036723208
53	0x3c76cc1e	0.015063314
54	0x3b01bf5e	0.0019797902
55	0x3bc500ed	0.0060120733
56	0xbd583641	-0.052786116
57	0xbadfdd4c	-0.0017079501
58	0xbb06b288	-0.002055319
59	0x3aa4501c	0.0012536081
60	0xbb7974fd	-0.0038064115
61	0xbd39fa6b	-0.045404833
62	0x3d67f496	0.05662974
63	0x3d0398f2	0.032128282
64	0xbbc41c35	-0.005984808
65	0x3d48850b	0.048955005
66	0xbdb71706	-0.08939938
67	0x3d826595	0.063670315
68	0xbc0fba78	-0.008772485
69	0x3c32dc2c	0.010916751
70	0x3c8ad9e0	0.016949594
71	0x3c9de37a	0.019273508
72	0xbcf6953e	-0.030100461
73	0x3db05f5f	0.086119406
74	0xbc53f114	-0.0129358955
75	0xbd391d52	-0.045193978
76	0x3d9cb1d5	0.07651106
77	0xbcf4830c	-0.029847644
78	0xbd0fd32e	-0.035113506
79	0xbc98a0f3	-0.018631434
80	0xbd4c0d3b	-0.049817305
81	0xbda2728e	-0.07932006
82	0xbe359063	-0.1773086
83	0x3cb1ad79	0.021689164
84	0x3b03df66	0.002012217
85	0x3c0aa723	0.0084627
86	0xbd4d0037	-0.050049033
87	0xbd3e15a4	-0.046407357
88	0xbd2329dd	-0.039834846
89	0x3bbc4ac8	0.0057462193
90	0xbd76cada	-0.060252048
91	0xbda13e6b	-0.078732334
92	0xbd8fc438	-0.07019848
93	0xbd155bd2	-0.03646452
94	0x3cc33f3c	0.023833863
95	0x3c347ce3	0.011016103
96	0x3c1b8174	0.009491313
97	0xbdc84eb4	-0.097806364
98	0xbc3c5f52	-0.0114973355
99	0xbd3d9be1	-0.046291236
100	0x394b4b84	0.0001938772
101	0xbdae6a3e	-0.08516358
102	0x3d26d476	0.040729962
103	0x3b97d002	0.0046329508
104	0xbd2bdbbe	-0.04195761
105	0x3d1927d6	0.037391506
106	0x3d87e70c	0.066358656
107	0xbc4b0312	-0.012390869
108	0x3c57e0a6	0.013176119
109	0x3c50af0c	0.012737047
110	0x3de7d457	0.113197975
111	0xbd248efc	-0.040175423
112	0x3bd65061	0.0065403436
113	0x3d4896f9	0.048972104
114	0xbe2cf212	-0.16889217
115	0x3cb9aed5	0.022666374
116	0xba53e460	-0.0008083042
117	0x3c9649e8	0.018345788
118	0x3ae84e28	0.0017723488
119	0x3c432388	0.011910327
120	0x3c13c614	0.0090193935
121	0xbdc67ddc	-0.096919745
122	0xbb5f2c75	-0.0034053598
123	0x3ce1dc27	0.027570797
124	0x3cb8496e	0.022495952
125	0xbdd7fbfc	-0.10546109
126	0x3d933060	0.07186961
127	0xbc6490a1	-0.013950498
128	0xbdf9c29e	-0.121953234
129	0xbd68798e	-0.05675655
130	0x3d87f418	0.06638354
131	0x3ce65473	0.02811644
132	0x3cb70eaa	0.02234586
133	0xbd5ae9fd	-0.053445805
134	0x3d173551	0.03691608
135	0x3db83554	0.089945465
136	0xbc96e574	-0.018419959
137	0xbcfabce5	-0.03060765
138	0x3c9a7168	0.018852904
139	0xbcafea3b	-0.021473994
140	0x3ccb71e8	0.024834588
141	0x3dddef1f	0.10836624
142	0x3cf60e06	0.030035984
143	0x39817582	0.00024692348
144	0xbd6563b0	-0.056003273
145	0x3c202d04	0.009776358
146	0x3d90e19f	0.07074284
147	0xbe08a444	-0.13343912
148	0x3a70350a	0.0009163177
149	0xbc3d105e	-0.011539547
150	0xbd92a149	-0.07159669
151	0xbe139190	-0.14410996
152	0x3cd22a6d	0.025654996
153	0xbd5c27b5	-0.053748805
154	0x3a3a313c	0.00071026734
155	0x3c7af5f4	0.015317429
156	0xbdb80b53	-0.08986535
157	0x3cdb79b8	0.026791438
158	0x3bd61b37	0.006534006
159	0x3cdfbcce	0.027311709
160	0xbd9521f2	-0.07281865
161	0x3b8c6b98	0.004285287
162	0xbc906f49	-0.01763119
163	0xbdb73f86	-0.08947663
164	0x3cbdc50a	0.023165245
165	0x3bd84f9a	0.006601286
166	0xbca34610	-0.01993087
167	0x3c208c49	0.009799072
168	0x3dc05a1d	0.09392188
169	0xbd2a50a1	-0.0415808
170	0x3c0b8c30	0.00851731
171	0x3c0ada34	0.008474875
172	0x38c4d47e	9.385588e-05
173	0x3c0b379e	0.008497147
174	0x3ccd73d6	0.025079649
175	0x3cb3df3a	0.021957029
176	0x3c5f9ab6	0.013647726
177	0xbbee0b43	-0.007264526
178	0xbdab96b3	-0.08378353
179	0xbdea515e	-0.11441301
180	0x3c890716	0.016727012
181	0x3c2702a8	0.010193504
182	0x3d175371	0.03694481
183	0xbd191a58	-0.03737864
184	0x3c12736d	0.008938652
185	0xbd63a685	-0.055578727
186	0x3cc472e4	0.023980565
187	0xbc5e5a34	-0.013571311
188	0x3c1e7655	0.009671767
189	0xbd6d361f	-0.057912942
190	0xba259caa	-0.0006317595
191	0xbd3f0573	-0.046636056
192	0x3d13a4fc	0.036046013
193	0x3d4b42a9	0.04962412
194	0xbaa16f0b	-0.0012316419
195	0x3dd1e6d8	0.10249108
196	0x3ca5323a	0.020165551
197	0xbdbe952b	-0.09305795
198	0x3d187bcc	0.037227437
199	0x3d8448a9	0.06459171
200	0xbd1addec	-0.037809297
201	0xbd7b32e6	-0.061327837
202	0x3c57afde	0.013164489
203	0xbd48c98a	-0.049020328
204	0x3df1f571	0.11814392
205	0x3db6832f	0.0891174
206	0x3d1a2276	0.03763052
207	0x3ccf2e7d	0.025290722
208	0x3d146054	0.03622468
209	0xbd124fb9	-0.03572056
210	0x3a105da4	0.00055071176
211	0x3ab24bce	0.0013602914
212	0x3d211291	0.039324347
213	0x3b379283	0.0028010912
214	0x3dc90180	0.09814739
215	0xbd7a5565	-0.061116595
216	0x3caaaf60	0.020835578
217	0xbdb37850	-0.08763182
218	0xbdde1b9a	-0.10845108
219	0x3c1d02cc	0.009583186
220	0xbd0716f1	-0.032980863
221	0x3b1a563c	0.0023549935
222	0x3c6ab8b8	0.014326267
223	0xbced6ef4	-0.02898357
224	0xbd86d930	-0.06584394
225	0x3d1c3e3e	0.038145296
226	0x3b9f39e8	0.004859198
227	0xbc4424a0	-0.011971623
228	0x3cea4ecf	0.028602032
229	0xba61ee00	-0.00086185336
230	0x3ad56cdc	0.0016283053
231	0x3c894cd3	0.016760265
232	0xbdbd256e	-0.09235655
233	0x3c85d61f	0.016337452
234	0x3db16511	0.08661855
235	0x3c5f0da6	0.013614094
236	0xbc2c3b6e	-0.010512216
237	0xbb3a449a	-0.0028422237
238	0x3ce28480	0.027651072
239	0xbd34eab4	-0.044169143
240	0xbc675a70	-0.014120683
241	0x3d345707	0.04402831
242	0x3c987769	0.018611627
243	0x3d807cf0	0.0627383
244	0xbd3acfc0	-0.045608282
245	0xbe15d0ca	-0.14630428
246	0xbb1caf1c	-0.0023908084
247	0x3d7a2461	0.06106985
248	0x3c51fc30	0.012816474
249	0x3b8c4939	0.0042811898
250	0x3bedc2f8	0.007255908
251	0x3880832a	6.127947e-05
252	0xbdf74be1	-0.1207502
253	0x3bf136a0	0.007361248
254	0x3cfb7b9a	0.030698586
255	0xbc615ca5	-0.013754998

conv2.lin_l.weight f4 [1, 16]
0	0xbd642948	-0.05570343
1	0xbea4c1d3	-0.32179126
2	0x3dad4de2	0.084621206
3	0xbe063c5b	-0.13108961
4	0x3c070708	0.0082414225
5	0xbe0bc7e2	-0.13650468
6	0xbe2be576	-0.16786751
7	0x3e90154d	0.2814125
8	0xbeb711b1	-0.35755685
9	0xbc7212e4	-0.014775012
10	0x3daf4d1e	0.08559631
11	0xbe0d7730	-0.13814998
12	0xbe9806ed	-0.29692784
13	0x3e6f9f73	0.23400669
14	0xbec03751	-0.37542203
15	0x3e8c1ae0	0.27364254

conv2.lin_r.weight f4 [1, 16]
0	0xbf6b6dcf	-0.9196443
1	0xbf06b0dd	-0.5261362
2	0x3b9ef195	0.004850576
3	0xbf1b6f9a	-0.60717165
4	0xbd9516d7	-0.07279747
5	0xbf1d7c15	-0.6151746
6	0xbf278c82	-0.6544877
7	0x3f36a8cd	0.7135132
8	0x3ec52883	0.3850747
9	0x3d5e4b7f	0.054271217
10	0xbd1b6435	-0.03793736
11	0xbf129581	-0.57259375
12	0xbf10a579	-0.5650249
13	0x3f17b247	0.59256405
14	0xbee29b30	-0.44259024
15	0x3f164683	0.5870134
