runs/_tmp_25-08-2025_18-57-02/models/GCN__val_acc_0.8485.pt (torch, 258736 bytes, 3 tensors)

conv1.bias f4 [16]
000000 8d 30 7e 3a 13 de 27 3d fe e2 32 3c bd 46 ad 3c
       0.00096965657 0.04098327 0.010918377 0.021151895
000010 3e 45 ce 3b 02 cd 67 3b 27 f7 21 3d 78 41 6d 3c
       0.0062948754 0.0035369997 0.039542343 0.014480941
000020 d6 2d 1f 3c 9d 2e 25 3c f3 e8 9d bb 6e c0 8a bb
       0.009715518 0.010081914 -0.0048190295 -0.004234365
000030 ab 00 17 bc d0 e7 1f 3d 51 4b 30 bb 7c 7a 84 3d
       -0.009216468 0.039039433 -0.002690036 0.064686745

conv1.lin.weight f4 [16, 4005]
000000 9a 07 10 bb ec 9b 64 3c 63 21 aa 3c 71 f9 91 bb
       -0.0021977187 0.01395319 0.020767873 -0.0044547846
000010 da 65 a4 3c 48 c4 97 3c 8a 91 37 bb 3b 6b 55 3c
       0.020068098 0.018526211 -0.0028010332 0.013026054
000020 57 eb a9 bb 52 c9 bb 3c ba b1 a4 bb c8 4d d8 ba
       -0.0051855254 0.022923145 -0.0050260695 -0.0016502673
000030 e9 12 d5 bb 2b 14 8b bc 46 80 c0 3a f5 27 b0 3b
       -0.0065024984 -0.01697739 0.0014686666 0.005375857
000040 ef df 09 3b 9f 68 78 3b 0a 42 c1 3c 92 c8 1c ba
       0.0021038016 0.0037904156 0.02359106 -0.0005980815
000050 ab bd 11 3c 73 59 8a 3b 63 20 64 3c ef 5b b9 38
       0.008895318 0.004222089 0.013923737 8.8386114e-05
000060 0e ae f3 3b 63 5f 2a 3c 8c 69 72 3b e3 73 f5 3a
       0.0074365204 0.0103987185 0.003698918 0.0018726554
000070 1b 3e 1a 3c 1a b0 35 3b 57 34 88 bc d2 3f 4d bc
       0.009414221 0.0027723373 -0.01662652 -0.012527423
000080 e9 ae 16 bc 9e 5c 4a bb 35 22 c8 bb 38 c8 97 37
       -0.009196975 -0.0030877958 -0.0061075934 1.8093837e-05
000090 0b 55 4a bb e6 80 51 3b 73 a3 5e 3b e8 07 c1 3c
       -0.0030873443 0.0031967699 0.0033971935 0.02356334
0000a0 38 53 72 bc 45 58 a2 3b bc 48 0c bb 4b 92 8f bc
       -0.014790349 0.00495437 -0.0021405658 -0.017525813
0000b0 ae 91 71 bc 68 20 8b ba 77 35 be 3c f0 e7 35 3d
       -0.014744205 -0.0010614516 0.023218853 0.044410646
0000c0 24 94 4d 3a 55 f3 bd 3c c8 66 ce 3b 66 1f 40 bc
       0.0007842204 0.023187319 0.0062988736 -0.011726236
0000d0 48 12 75 bc d2 bd 0d bc 68 33 c3 3b dd 55 ea ba
       -0.014957972 -0.008651214 0.005957056 -0.0017878372
0000e0 68 e6 70 bb a3 03 80 3c 2c 05 6e 3c 76 d3 1b bc
       -0.0036758427 0.015626734 0.0145276 -0.009510865
0000f0 79 a5 46 3c cc a8 53 3c 4a 95 0c ba 1e cb 4e 3b
       0.012124413 0.012918662 -0.0005362822 0.0031554173
000100 ee f6 10 bc 9a dd 27 3a 08 2a 83 3c e1 e7 38 3c
       -0.008847935 0.00064035656 0.016011253 0.011285753
000110 82 1a 72 bc 03 fc ec bc a0 6f 35 bc b1 ec b9 ba
       -0.014776828 -0.028928762 -0.011073977 -0.001418492
000120 84 77 1a bd 02 12 a8 3b f3 c2 41 bc 79 1a 57 bc
       -0.037711635 0.0051291 -0.011826265 -0.01312887
000130 65 c8 8d bb 42 a9 03 3d 7d 78 22 3b d3 59 30 3b
       -0.0043268674 0.03214384 0.0024791055 0.0026909008
000140 f4 e3 07 3c 97 b5 ef 3c 4d 25 0d 3d 92 b0 17 bc
       0.008294094 0.029261393 0.0344594 -0.009258406
000150 21 40 83 bb 24 f3 96 bc e3 3a 64 ba 7d 9a d0 3b
       -0.0040054475 -0.018426485 -0.00087062846 0.0063660727
000160 88 a3 54 bc 0b 14 4a ba 64 f9 00 3d 5f bb a0 bb
       -0.012978442 -0.0007708675 0.031487837 -0.004905149
000170 97 82 09 3c 1f e4 b3 3b 8e 61 bf 3a 37 f5 e4 b8
       0.008392951 0.0054898406 0.0014601217 -0.00010917562
000180 16 5a 7b 3c 19 92 5b 3c 68 6b 39 3c c4 8f 9a 3b
       0.015341302 0.013401532 0.011317112 0.004716845
000190 a7 8d 1d ba 5a 1c ee bb 4d 1d 16 3b 4b a7 2c bc
       -0.00060101826 -0.0072665634 0.0022905648 -0.010537933
0001a0 8a eb cb bc 05 31 8c ba 34 a3 7f 3c b8 80 06 3d
       -0.024892587 -0.0010695761 0.0156028755 0.0328376
0001b0 6a c9 82 3c f9 b7 cd 3b 04 ed 1a 3c de 63 1c 3d
       0.015965182 0.0062780348 0.009455923 0.03818118
0001c0 b9 41 2b bc 05 ab a4 bb 5f b4 22 3d 24 f0 84 bb
       -0.010452681 -0.00502527 0.039722797 -0.0040569473
0001d0 0f 9b 28 3d e7 dc 11 ba 82 5a 99 3b 0a c3 8d bb
       0.0411635 -0.0005564228 0.004679979 -0.004326229
0001e0 e8 6d 14 3c b5 90 12 3c 9c 19 a5 3b da 18 70 39
       0.009059407 0.008945634 0.0050384533 0.00022897442
0001f0 be 9b 04 bd 39 ac eb 3c 8c 2f a2 bc b5 e1 5e bb
       -0.03237509 0.028768646 -0.019798063 -0.0034009044
000200 72 f6 1e 3d 06 87 ab 3c 68 55 89 3b 9d 22 ad 3b
       0.038809247 0.020938408 0.0041910894 0.0052836672
000210 37 76 ce bb 24 0d 69 bc 00 47 51 bc 37 bf 9f 3b
       -0.0063007134 -0.014224324 -0.012773275 0.0048750895
000220 ed 80 59 3c df 63 4a 3b af bd 10 3d 6c ae ae bc
       0.013275367 0.0030882282 0.035337146 -0.021323405
000230 58 0c 90 ba c2 55 00 bd 5f 33 14 bb 25 2f 12 3a
       -0.0010990007 -0.031331785 -0.0022613627 0.0005576483
000240 ef 95 7f bc 5b 11 1a 3b bb 30 88 bb dc a3 4a 3c
       -0.015599712 0.002350888 -0.0041561997 0.012368169
000250 42 c9 a3 3c 03 77 b7 bb b0 61 8e 3b dd 8f 1a 3d
       0.019993428 -0.005598904 0.0043451414 0.037734855
000260 f2 88 89 bc 1b f0 e4 3b b8 d7 11 b6 80 59 fb 3b
       -0.016788933 0.0069866306 -2.1732249e-06 0.0076705813
000270 c5 b5 a4 b8 44 41 41 bb 6c 2d e5 3a b6 c1 4a bc
       -7.8539866e-05 -0.0029488364 0.001748485 -0.012375286
000280 76 bc 39 3c b6 1b 8a bb 75 8b 6d bc 62 2f d2 bc
       0.0113364365 -0.004214729 -0.014498581 -0.02565736
000290 a2 ea e0 3b a5 ce 7e b6 d4 e2 0b 3d ef 04 fe 3b
       0.006863908 -3.7969232e-06 0.034151867 0.007752053
0002a0 46 43 da bc fd 24 c2 3a 0a 3c 29 bb a0 9a 0f ba
       -0.026643407 0.0014812049 -0.002582314 -0.0005478058
0002b0 4b 2a 13 bb 4c 82 89 3c 64 b2 6a 3b 93 5b 8c bb
       -0.0022455628 0.016785763 0.0035811896 -0.0042833774
0002c0 53 30 78 39 da 6e a8 3a f4 99 99 3c a2 dc 3f 3d
       0.00023669125 0.0012850419 0.018750168 0.04684127
0002d0 1b b3 80 bb 28 cd a1 3c 81 13 ef 3b f9 13 33 bb
       -0.003927601 0.019751146 0.007296026 -0.0027325137
0002e0 1e d0 3d bc b9 c1 c1 3c 63 3f 7a bb 48 fc 01 3c
       -0.011585264 0.023651944 -0.0038184754 0.007933684
0002f0 33 f0 31 bb a5 16 cd 3b cb 96 00 bb 52 51 2c 3a
       -0.0027151227 0.006258803 -0.001962113 0.0006573397
000300 80 d6 13 bd 2f 70 13 bb c0 ba 57 bb ac a1 9d 3c
       -0.036093235 -0.0022497287 -0.0032917708 0.01924213
000310 5d 28 0d bc 7f db ac b8 21 dd 8c bc 2c 58 85 3b
       -0.00861558 -8.2424835e-05 -0.017195286 0.004069349
000320 86 f5 22 3d be 01 58 bb 52 08 35 bb 95 71 02 3d
       0.03978493 -0.0032960023 -0.0027623367 0.0318466
000330 53 fb e3 bb 90 2a 03 bd 67 b4 bb bc 98 cf bf bb
       -0.0069574504 -0.032023013 -0.022913171 -0.0058536045
000340 a3 05 e9 3b 72 77 93 bc 5e 1a 74 3d 91 c2 46 3c
       0.0071112677 -0.018001292 0.05959546 0.012131349
000350 4e 12 04 bc 49 59 2c ba 7e a1 05 3c 09 7f 84 3c
       -0.008061005 -0.0006574584 0.0081561785 0.016173856
000360 2c 7d e0 bb e4 da a4 3b da 97 b9 bc 67 5b 98 3a
       -0.006850859 0.0050309766 -0.022655416 0.001162392
000370 1d d7 e1 ba 9d 37 e4 3b 0a 14 b8 3b 52 9d 2f 3a
       -0.0017230246 0.0069646374 0.005617623 0.0006699163
000380 28 7b a9 3c 6d a5 fe 3c e7 e5 6d 3c bb a7 6a 3b
       0.020688608 0.03108474 0.014520145 0.0035805542
000390 40 a3 2b ba a9 d5 fd 3a d1 a4 06 bc f1 5d d4 3b
       -0.00065474585 0.0019366044 -0.008218006 0.0064809253
0003a0 15 8c dd 3b 21 c1 1b 3c 47 fc 41 bc 3a c2 93 3a
       0.006761084 0.009506495 -0.011839933 0.0011273094
0003b0 37 fb 88 3c 7f 84 8e 3c 0a b5 f2 bc 9c 7b 5f 3c
       0.016721351 0.017397163 -0.029627342 0.013640311
0003c0 1e 68 ba 3c 39 19 a6 ba 13 30 be bb 0a 95 b3 ba
       0.022754725 -0.0012672312 -0.0058040707 -0.0013701033
0003d0 64 8c 04 3c 64 53 bc 3c fa 2d ec bb 08 6e 22 bd
       0.008090112 0.022988982 -0.0072076293 -0.039655715
0003e0 99 80 67 bb 4f b1 b4 b9 77 d0 11 bc b8 9a 5e 3c
       -0.0035324453 -0.0003446438 -0.0088998 0.0135866925
0003f0 45 b7 54 3d c3 62 15 3a bb 97 69 3c ac d4 f3 3c
       0.051932592 0.00056986156 0.014257367 0.029764496

conv2.lin.weight f4 [1, 16]
000000 20 53 d0 3e bb 8b 1b bf f8 0c 26 3f 8b b5 2f 3e
       0.4068842 -0.60760087 0.6486354 0.17159097
000010 d5 7b b6 3e 8a 08 0c 3f 8d 3c 40 be 68 69 52 3e
       0.3564135 0.5470053 -0.18773098 0.20548022
000020 0e 41 0f 3f a9 8f ad 3e c5 95 25 3e b2 5b fa 3e
       0.5595864 0.33898667 0.16170414 0.48898083
000030 0f 7c 96 3d f2 82 92 be b0 80 92 3e be 01 8c bd
       0.07347881 -0.28615528 0.28613806 -0.0683627
