runs/_tmp_25-08-2025_18-57-02/models/GraphSAGE__val_acc_0.7809.pt (torch, 515900 bytes, 5 tensors)

conv1.lin_l.weight f4 [16, 4005]
0	0xbc0c9f54	-0.008582909
1	0x3b5e294c	0.0033899127
2	0xbb8aedaf	-0.00423976
3	0xbc5066b0	-0.012719795
4	0xbbfe5fd6	-0.0077628894
5	0x3b88aeb1	0.0041712155
6	0x3be1a90a	0.006886606
7	0xbc4f9eb3	-0.012672114
8	0xbc00a865	-0.007852648
9	0x3c1036c9	0.008802124
10	0xbba8bf57	-0.0051497626
11	0x3c195b15	0.009360095
12	0x3c86fc56	0.016477745
13	0xbc47da8b	-0.012198101
14	0x3c2888bb	0.010286505
15	0xbb6e38fb	-0.003634988
16	0x3c3c228d	0.011482847
17	0x3c39b6db	0.0113351
18	0x3b1a7daa	0.0023573437
19	0x3c19d24c	0.009388518
20	0xbc438b12	-0.011935012
21	0x3bc95206	0.006143811
22	0x3c7daaf1	0.01548265
23	0x3b1130a0	0.0022154227
24	0x3b76312c	0.003756593
25	0x3bff1f47	0.007785711
26	0x3b980439	0.0046391753
27	0x3bad2870	0.0052843615
28	0x3bfa5a39	0.00764015
29	0xbb411950	-0.002946455
30	0xbbc5b51d	-0.0060335533
31	0x3aba5dcb	0.0014218626
32	0xbc1dd74e	-0.009633852
33	0x3c178256	0.009247383
34	0xbbabb54d	-0.0052401186
35	0xbc3e9d26	-0.011634147
36	0xbc59d0a5	-0.013294374
37	0x3c24a19c	0.010048296
38	0xbb26d1fe	-0.0025454755
39	0xbc8971f8	-0.016777977
40	0xbb89292c	-0.0041858163
41	0xbc86338e	-0.016382005
42	0xbc145802	-0.009054186
43	0xbbed72f2	-0.0072463686
44	0x3b383cc8	0.00281124
45	0x3c490f83	0.012271765
46	0xb9910173	-0.00027657635
47	0x3c091ff0	0.008369431
48	0xbb33681d	-0.0027375289
49	0x3bb00ece	0.0053728586
50	0xbb8909c1	-0.004182071
51	0x3bd1faee	0.006408087
52	0x3b44c647	0.003002541
53	0x3c235688	0.009969361
54	0x3c3150e7	0.010822511
55	0xbad74b88	-0.0016425708
56	0xbbd5ca71	-0.006524377
57	0x3ab269ec	0.001361189
58	0x3c0faa2f	0.008768602
59	0x3b944544	0.0045248587
60	0x3b979f2c	0.004627129
61	0x3b2def8e	0.002654049
62	0x386e16dc	5.676491e-05
63	0xbbb8013d	-0.005615382
64	0x3c479501	0.012181521
65	0xbc0cd70a	-0.008596191
66	0x3bf0c84d	0.0073480965
67	0xbc1ad7ce	-0.009450866
68	0xbbef3ded	-0.0073010833
69	0x3b123870	0.0022311471
70	0x3c27cec2	0.010242166
71	0x3c3f20e8	0.01166556
72	0x3c78563c	0.015157279
73	0x3b263508	0.00253612
74	0xbb2296c5	-0.0024809104
75	0xbc67391e	-0.014112739
76	0xbc231201	-0.009953023
77	0xbc45e9d9	-0.012079679
78	0xbc8ae953	-0.01695696
79	0xbb843928	-0.004035134
80	0xbc3e34a9	-0.011609235
81	0x3ad4354c	0.00161902
82	0x3ac6c4c2	0.001516484
83	0xbbac8f91	-0.005266138
84	0x3c5525d3	0.013009506
85	0xbc1684a4	-0.009186897
86	0x3b344db2	0.002751213
87	0x3a59e060	0.00083113275
88	0xbac09ba4	-0.0014694822
89	0xbc0d9dcf	-0.0086435815
90	0xbb9a0b4a	-0.004701053
91	0x3c21e9a7	0.009882367
92	0xbb8eef4c	-0.0043620225
93	0xbb6114f1	-0.0034344757
94	0x3c031dee	0.008002741
95	0xbc79abad	-0.015238685
96	0xbb6e1c2f	-0.0036332717
97	0x3c4dded4	0.012565333
98	0x3acc5bdd	0.0015591342
99	0xbbe03a7a	-0.0068429084
100	0x3be013f3	0.0068383156
101	0xbb8f5ffd	-0.0043754564
102	0xbc3c3efd	-0.011489627
103	0xbc3f028b	-0.011658321
104	0xbc02c7a4	-0.007982168
105	0xbc84b65e	-0.01620024
106	0xbb5ccfc4	-0.0033693174
107	0xbb6c0a4a	-0.0036016875
108	0x3bdb1e5f	0.00668697
109	0x3b918e3a	0.0044420036
110	0xbae5dfe2	-0.0017538036
111	0x3bc3e3c3	0.005978079
112	0x37b13c24	2.112805e-05
113	0x3bdc0cf5	0.006715412
114	0xbb8c3c93	-0.004279682
115	0xbae8a20e	-0.0017748491
116	0xbc1e01d7	-0.009643993
117	0x3c136a79	0.008997553
118	0x3c4ca831	0.012491272
119	0x3c3ba170	0.011452064
120	0x3be05afb	0.006846783
121	0x3c0be094	0.00853743
122	0x3b0c8e88	0.002144726
123	0x3c0c7a72	0.008574115
124	0x3c8a00d9	0.016846107
125	0x3ba85833	0.0051374673
126	0x3b57b2cc	0.0032912968
127	0x3b97766b	0.004622271
128	0x3be9b2d2	0.0071319127
129	0x3baa4912	0.005196699
130	0x3c855f84	0.016280897
131	0x3ba182ef	0.0049289386
132	0x3c38bc19	0.011275315
133	0xbc4b11a4	-0.012394343
134	0x3bae1097	0.0053120363
135	0x3ad82677	0.0016490956
136	0xbb22035f	-0.0024721248
137	0xbb45b218	-0.0030165967
138	0x3a81d5c2	0.0009905624
139	0xbc10653e	-0.0088132005
140	0xbc424353	-0.011856872
141	0x3b88b447	0.0041718814
142	0xbbde5294	-0.0067847464
143	0x3a68e7a3	0.0008884614
144	0x3c5aa16c	0.01334415
145	0x3ac62966	0.0015118539
146	0x3c387b9c	0.0112599395
147	0xbb87813c	-0.004135279
148	0x3c2babad	0.010477942
149	0x3bc9a82c	0.006154081
150	0xbc1bc811	-0.009508149
151	0x3c2626f5	0.010141124
152	0x3be56e4e	0.0070016747
153	0x3b4635b0	0.0030244403
154	0xbbcedda8	-0.0063130446
155	0x3c0bbbac	0.008528631
156	0x3b2efc35	0.002670062
157	0x3c117d1f	0.008879929
158	0x3c02fc9a	0.007994795
159	0xbb5a24e8	-0.0033286158
160	0xbafb4fac	-0.0019173524
161	0xbbace688	-0.005276505
162	0x3c4ac053	0.012374955
163	0x3aa883de	0.0012856682
164	0x3b004fb1	0.001957875
165	0xbbf3471f	-0.00742425
166	0xbb269d5b	-0.002542338
167	0xbb2066e8	-0.00244754
168	0xb89ef7b2	-7.580164e-05
169	0xbc827ed1	-0.015929611
170	0x3c7d91c8	0.0154766515
171	0x3ac8397f	0.0015275924
172	0xbb15ed60	-0.0022877082
173	0x3c3ab712	0.011396186
174	0xbc202473	-0.009774315
175	0x3b5e9bf5	0.003396747
176	0x3c66cc0d	0.014086735
177	0x3af9a6ee	0.0019046941
178	0xbb71939b	-0.0036861661
179	0x3b65e961	0.0035081732
180	0xbc27b629	-0.010236301
181	0x3c153aa0	0.009108216
182	0x3c6cf0b6	0.014461687
183	0xbc2d67e0	-0.010583848
184	0x3b88d8f9	0.004176256
185	0xbc2f5d11	-0.010703341
186	0xbbb2feba	-0.0054624947
187	0x3bd42ec8	0.0064753033
188	0x3c4a9471	0.012364493
189	0xbc8e6ed4	-0.017386831
190	0x3bb50068	0.00552373
191	0x3ba17e22	0.0049283663
192	0x3b87c368	0.0041431673
193	0x3af71462	0.0018850679
194	0xbb77549d	-0.0037739642
195	0xbc411b55	-0.011786302
196	0x3c59d3df	0.013295143
197	0xbaaedf6d	-0.0013341733
198	0xbbc53b09	-0.0060190004
199	0xbc47658f	-0.01217021
200	0xbb7677d1	-0.0037608037
201	0xbb350ec1	-0.0027627202
202	0x3c3559ca	0.011068771
203	0x3b1043b6	0.0022013015
204	0xbc21307a	-0.009838218
205	0xbb1dc877	-0.0024075785
206	0xbc77fcd1	-0.01513596
207	0xbb849ab9	-0.0040467647
208	0x3bb2d519	0.005457532
209	0x3c117246	0.008877343
210	0x3ad3a488	0.0016147057
211	0x3c005b2b	0.007834236
212	0x3b8f8f75	0.004381115
213	0x3ad931ef	0.0016570668
214	0x3c534844	0.012895647
215	0xbb87682c	-0.0041322913
216	0x38b777b0	8.7484135e-05
217	0x3c2baaa6	0.0104776975
218	0x3c530bcf	0.012881233
219	0xba77c39e	-0.00094514515
220	0x3c0c2df8	0.008555882
221	0x3984bf70	0.00025319634
222	0x3c528808	0.012849815
223	0xbc31eb8d	-0.010859382
224	0xbb856648	-0.0040710308
225	0xbb3d6235	-0.0028897647
226	0x3be6035e	0.0070194444
227	0xbc3757ce	-0.011190368
228	0x3c149a15	0.009069939
229	0xbb9542a7	-0.0045550647
230	0x3c83a94b	0.016071936
231	0xbacaf51a	-0.0015484423
232	0xbc76da71	-0.015066729
233	0xbb96643a	-0.0045895847
234	0xbc5faa32	-0.013651418
235	0xbc0d364a	-0.008618901
236	0xbc8b93b1	-0.017038198
237	0xbbb7b471	-0.005606227
238	0x3c8f3a6c	0.017483912
239	0xbc44b772	-0.012006627
240	0xbb509c43	-0.003183142
241	0x3c813124	0.015770502
242	0x3c27bef8	0.010238402
243	0xbbcd8158	-0.0062715225
244	0xbc3c6aa5	-0.011500035
245	0xbc8b4bb5	-0.017003873
246	0x3bb1ba87	0.005423847
247	0xbb716fbf	-0.0036840288
248	0xba3f0f22	-0.0007288327
249	0xbc2d2352	-0.010567503
250	0x3b2a63b1	0.0025999362
251	0x3a9c7371	0.001193626
252	0xbb2e41fd	-0.0026589625
253	0xbc3fd3e4	-0.0117082335
254	0x3bfca93f	0.0077106054
255	0xbb2aed84	-0.0026081512

conv1.lin_l.bias f4 [16]
0	0x3be3ca3e	0.0069515994
1	0x3c38dbaa	0.011282841
2	0x3af08971	0.0018351508
3	0xbc8f8653	-0.017520105
4	0xbc1940ae	-0.0093538
5	0xbc307da5	-0.0107721435
6	0xbc6ba074	-0.014381517
7	0xb9336c06	-0.00017111012
8	0x3be3d5a2	0.0069529573
9	0x3c8e35c5	0.017359624
10	0x3b48de76	0.0030650175
11	0x3b7a9ae5	0.0038239297
12	0x3c2268ad	0.009912652
13	0xbbdd5f3d	-0.006755738
14	0xbb75211f	-0.0037403775
15	0x3c35ed13	0.011103886

conv1.lin_r.weight f4 [16, 4005]
0	0xbc348f2b	-0.011020462
1	0xbbdb0ce0	-0.0066848844
2	0x3b2daead	0.002650182
3	0xbb12f60d	-0.002242449
4	0x3c407658	0.011746965
5	0xbc630bac	-0.013857763
6	0x3bb7c406	0.0056080846
7	0x3bba2524	0.005680697
8	0xbbb48902	-0.0055094967
9	0xbbaccbcb	-0.0052733175
10	0xbb85975a	-0.0040768804
11	0xbb289925	-0.0025726047
12	0x3b999b1d	0.0046876804
13	0x3b4ffa84	0.0031735012
14	0x3c6282ba	0.013825113
15	0x3bf05a11	0.0073349555
16	0x3c288b80	0.010287166
17	0xb89ee899	-7.577352e-05
18	0x3aec45d5	0.0018026183
19	0x3c1bbd1d	0.009505537
20	0x3c105eef	0.008811696
21	0x3c3c5f36	0.011497309
22	0xbbc65274	-0.0060523096
23	0x3c71107c	0.014713403
24	0x3c514dc7	0.012774891
25	0xbc12a7a0	-0.008951098
26	0xbc1b4434	-0.00947671
27	0x3c39b963	0.011335704
28	0x3b469568	0.0030301455
29	0xba81053e	-0.0009843481
30	0x3c7ecdd7	0.015552006
31	0xbc289c43	-0.010291162
32	0x3acada18	0.0015476374
33	0x3c26bd29	0.010176935
34	0xbb93d45b	-0.0045113987
35	0x3c8f0cd8	0.017462179
36	0xbc58a652	-0.013223248
37	0x3ba1b1a3	0.004934506
38	0x3bf5bd6f	0.007499389
39	0xbbc76949	-0.006085549
40	0x3c796a03	0.015223029
41	0x3c1359af	0.00899355
42	0x3ae5c7f3	0.0017530903
43	0x3be8a9b1	0.007100307
44	0x3bd568cc	0.006512737
45	0xbc1c0295	-0.0095221
46	0x3b6c12be	0.0036021913
47	0x3bfe51f6	0.0077612353
48	0xbc39a001	-0.011329652
49	0x3c8e6edd	0.017386848
50	0xbc78ba77	-0.015181175
51	0x3c5c3970	0.013441429
52	0x3c8471ea	0.0161676
53	0xbb629493	-0.003457342
54	0xbb862dcb	-0.0040948144
55	0x3bc98a2d	0.006150505
56	0xbbc1ded6	-0.0059164567
57	0x3c352669	0.011056521
58	0x3bd87d69	0.006606747
59	0xbc77b2ad	-0.015118283
60	0xbc63fbf5	-0.013915052
61	0x3aec6ff2	0.0018038733
62	0xbb689962	-0.0035491814
63	0x3ab6061c	0.0013887319
64	0x3bdab14f	0.006673969
65	0x3c44c9df	0.01201102
66	0x3c2ceefd	0.010555026
67	0x3b7adabf	0.0038277355
68	0x3c6d82ea	0.014496544
69	0xbbc16122	-0.0059014717
70	0x3c49cd10	0.012316957
71	0x3c5e5f85	0.013572578
72	0x3c81b396	0.015832704
73	0xbc10296e	-0.00879894
74	0xbc0b211c	-0.008491781
75	0xbbdab4fd	-0.0066744075
76	0xbc36ab32	-0.011149215
77	0xbc4b8bb6	-0.012423446
78	0x3c798d42	0.015231432
79	0x3c892237	0.016739948
80	0x3c36c84a	0.011156151
81	0x3ba751a8	0.0051061697
82	0x3b7f979a	0.0039000274
83	0xbb2f33c1	-0.0026733729
84	0xbc43623b	-0.011925275
85	0xbc231807	-0.009954459
86	0xbc068a8e	-0.008211745
87	0xbc3842b4	-0.011246372
88	0x3a10bc7e	0.00055212516
89	0x3c46057c	0.0120862685
90	0x3c6398dc	0.013891425
91	0xbbc3ebf3	-0.005979055
92	0xbb23638e	-0.0024931165
93	0xbaec87db	-0.0018045859
94	0xbbfc9604	-0.007708313
95	0x3c3d4593	0.011552232
96	0xbc1dc6bb	-0.009629901
97	0x3b85faf3	0.0040887534
98	0x3b2fa7fa	0.0026803003
99	0x3c1fbe7f	0.009750008
100	0x3ae68791	0.0017588009
101	0xbb9360f5	-0.004497642
102	0x3b08cda6	0.002087453
103	0x3b20d8e0	0.002454333
104	0x3bd5297b	0.006505189
105	0xba3e7022	-0.0007264634
106	0xbc293b89	-0.010329136
107	0xbc0ba9b0	-0.008524343
108	0xbb9721b8	-0.004612174
109	0xbc0de1fb	-0.008659835
110	0xbc082563	-0.008309695
111	0xbc050d6e	-0.008120878
112	0x3c47e0bb	0.012199576
113	0x3c2041b2	0.009781288
114	0x3bf3f37e	0.007444798
115	0x3c3ee1c5	0.011650507
116	0x3c5c5186	0.013447171
117	0x3c3384b9	0.0109569365
118	0xbb86d612	-0.0041148746
119	0x3c519f67	0.012794352
120	0x3c42ab80	0.011881709
121	0xbc0db52b	-0.008649151
122	0x3ba33e5d	0.0049817995
123	0xbc100e5e	-0.008792488
124	0x3c05bd42	0.008162798
125	0xbc384cd1	-0.011248783
126	0xbbd4b4e1	-0.006491289
127	0x3c4affe7	0.012390113
128	0xbb15e230	-0.0022870414
129	0xbab61451	-0.0013891553
130	0xba9dc9b3	-0.001203826
131	0x3c207b68	0.009795047
132	0xbbe92837	-0.0071153897
133	0xbc29e6be	-0.010369955
134	0x3c510543	0.012757602
135	0x3c8c5ce2	0.017134134
136	0x3b85d2f8	0.0040839873
137	0xbc30f651	-0.010800914
138	0x396a3f9a	0.00022339672
139	0x3c6533a4	0.013989363
140	0xbb4f4e70	-0.0031632446
141	0x3b7f970d	0.0038999945
142	0xbbed570a	-0.007243042
143	0x37c72b08	2.3742687e-05
144	0xbae0dbef	-0.0017155389
145	0x3c4a3c57	0.012343488
146	0x3bdeecec	0.0068031456
147	0xba1b7420	-0.0005930085
148	0xbb142e61	-0.0022610652
149	0xbbff88b3	-0.0077982782
150	0xbb5c47e9	-0.0033612198
151	0x3be4cd1e	0.0069824597
152	0x3c0ead18	0.008708261
153	0xbc385362	-0.011250349
154	0xbc4bc4ad	-0.012437028
155	0xbc477d40	-0.012175858
156	0xbc4d688b	-0.012537132
157	0x3be92a94	0.0071156714
158	0x3c15c28a	0.00914062
159	0x3c2eb364	0.010662887
160	0xbc172e53	-0.009227353
161	0xbc2f4613	-0.010697859
162	0x3b815ce0	0.003947839
163	0xbbb03750	-0.0053776875
164	0xbbc7526d	-0.006082824
165	0x3aba6bc3	0.0014222789
166	0xbc2e51df	-0.010639637
167	0x3b67fa7f	0.003539711
168	0x3c3b9f6c	0.011451583
169	0xbc0240b9	-0.007950001
170	0x3bbd1655	0.0057704845
171	0x3c6d2a6b	0.014475445
172	0x3b481b8c	0.0030533997
173	0x3c292ed1	0.010326103
174	0xbc07aacd	-0.008280468
175	0xbb7c57d0	-0.0038504489
176	0x3a9f6aca	0.0012162563
177	0x3c383bda	0.0112447385
178	0x3c0b9a55	0.008520682
179	0x3b2cdcb3	0.0026376664
180	0x3b69f86e	0.0035701054
181	0xbc005e28	-0.007834949
182	0x3bd1682b	0.0063905916
183	0x3a8f0fac	0.0010914705
184	0x3adece70	0.0016998779
185	0x3b82afe1	0.0039882516
186	0x3c3164ce	0.010827256
187	0xbc7f5469	-0.01558409
188	0x3c6b8f5d	0.014377442
189	0x3c28c4a1	0.010300786
190	0xbc1279bf	-0.008940159
191	0x3c27efe4	0.0102500655
192	0xbbb55e1a	-0.0055348994
193	0xbc64c993	-0.013964075
194	0x3c981a63	0.01856727
195	0x3a77a960	0.0009447541
196	0x3b9ccf2e	0.00478544
197	0x3c0df4da	0.008664334
198	0x3be0a61b	0.006855739
199	0xbbe7cbee	-0.007073871
200	0xbaf1a654	-0.001843641
201	0xbb70ca33	-0.0036741614
202	0x3c1ae546	0.009454077
203	0x3b100886	0.0021977737
204	0xbab7054b	-0.001396337
205	0xbb95b48a	-0.004568641
206	0x3b4c264d	0.0031150759
207	0xbc833489	-0.016016262
208	0x3bc855f5	0.0061137625
209	0x3bc739cd	0.0060798884
210	0xbbfb18d0	-0.00766287
211	0x3b03889b	0.0020070437
212	0x3c472376	0.012154451
213	0x3c4fc4e6	0.012681222
214	0xbbf1d8fc	-0.007380603
215	0xbb2c5faf	-0.002630215
216	0x3bc36de6	0.0059640286
217	0xbb0f715d	-0.0021887638
218	0x3b29e882	0.002592594
219	0xbc21d9d8	-0.009878598
220	0xbbc38170	-0.005966358
221	0x3b7f1d98	0.0038927551
222	0x3c36890f	0.011141076
223	0x3a6e209a	0.00090838375
224	0x3af4f3cb	0.0018688379
225	0xbac9544f	-0.0015360209
226	0x3b4fb2b5	0.003169221
227	0xbb62a614	-0.0034583854
228	0x3c88aace	0.016683009
229	0xbc2199b5	-0.009863307
230	0x3b0130e5	0.0019712981
231	0xba1dd929	-0.0006021434
232	0x3b6d9c77	0.003625659
233	0xbc4374eb	-0.011929731
234	0x3be4e26c	0.0069849994
235	0x3c105f48	0.008811779
236	0x3c1c82d2	0.009552674
237	0x3c545cb8	0.012961559
238	0x3c233892	0.009962218
239	0x3c340e29	0.010989704
240	0x3c61d981	0.013784767
241	0xbc25c669	-0.010118105
242	0x3b84a231	0.004047655
243	0xbc3fa085	-0.011695986
244	0x3b8b6247	0.004253659
245	0x3bda762e	0.00666692
246	0x3c7beaac	0.015375774
247	0x3c806ef8	0.015677914
248	0x3c2dfef8	0.010619871
249	0x3b466869	0.0030274636
250	0xbb79b016	-0.003809934
251	0x3c14c7ac	0.009080809
252	0xb9bff7b0	-0.000366149
253	0x3c69a78a	0.014261136
254	0x3b593e2e	0.0033148634
255	0xbc2e0456	-0.010621151

conv2.lin_l.weight f4 [1, 16]
0	0x3e6dde83	0.23229413
1	0x3d1928ff	0.037392613
2	0x3dbf070f	0.09327518
3	0x3c862317	0.016374154
4	0xbe2b0971	-0.1670282
5	0x3e7574cd	0.23970337
6	0x3e467428	0.19380248
7	0xbe606db5	-0.2191685
8	0xbcbc6378	-0.02299665
9	0xbe511563	-0.20418315
10	0x3e4115ca	0.18855968
11	0xbe627548	-0.22115052
12	0xbe18a063	-0.14904933
13	0xbdf5dbe0	-0.120048285
14	0xbd7ca741	-0.061682943
15	0xbcb3120c	-0.021859191

conv2.lin_r.weight f4 [1, 16]
0	0xbe5ff254	-0.21869785
1	0xbdbaea22	-0.091266885
2	0xbdd78a1f	-0.105243914
3	0x3da9dd1c	0.082941264
4	0xbdb5838b	-0.088629805
5	0x3e40e906	0.18838891
6	0xbe21f69e	-0.15816733
7	0x3cedbffe	0.029022213
8	0xbe21bb5f	-0.15794133
9	0xbdd2cbd0	-0.102927804
10	0xbdbdc0ff	-0.09265327
11	0x3e763de8	0.24047053
12	0xbe2d2bd6	-0.16911253
13	0x3de71e10	0.11285031
14	0x3e378311	0.17921092
15	0x3d339c3d	0.043850172
