runs/25-08-2025_18-27-02__best_val_acc_0.8727/models/APPNP__val_acc_0.8390.pt (torch, 258688 bytes, 3 tensors)

lin1.weight f4 [16, 4005]
00000000: 6f46 3ebd 5ac4 6a3c a7e5 0bbd 6488 263c
00000010: 6b35 5b3a 9d5f b7ba cca9 af3c 9bfa 6ebc
00000020: 6870 143d ece4 18bd 92ad 893b 6c19 04bd
00000030: 5247 c13c 14b0 383d a8d1 4bbc 58a8 feb9
00000040: bcea 6b3d abd3 e7bb 7273 783b 744a 193d
00000050: 2149 793b 7a0b 14bc 7a29 a93b b6ec 163b
00000060: 7031 bd3d a971 dbbd 7a6a 2c3a 4724 3c3b
00000070: a03c 83bd 8224 1cb4 ea7a 3e3c 98f5 35b9
00000080: 4113 963c b6b8 423c 2b99 773c 4e2a ac3d
00000090: 07c2 dfbd 7107 6cbd da5b bebb 4d2a 763c
000000a0: cc28 913c c431 cc3a 2761 543c b3c7 94bc
000000b0: 691c 3abd c681 0bbc 86ee 83bc 63e3 883c
000000c0: 25c7 be3c 21f8 9a3d 1d0c fc3a 0f99 153d
000000d0: 42b8 b13c d319 b03c a44f b3b9 7a10 4737
000000e0: 0244 0d3d 4f0e dbbc c85c c2ba b0f0 dc3c
000000f0: 1e33 5abc 28a3 463c 7334 193c 772d d83d
00000100: f8f1 013d 91c7 32ba 6a82 673d 74e3 363d
00000110: c8eb 9c3c da09 48bc 1f31 8f3b e450 ac3b
00000120: e462 f8bd 4be5 ae3d 84ee 85bb 9d5b 67bc
00000130: f0bb a33d 460c 623b 113d 943c 3b74 82bd
00000140: e5e6 ca3b 9a9e ecbb 8a0a 7ebe cc6d 023d
00000150: 96a4 1d3c 45c7 323d a8ac f0bc b20f 3fbd
00000160: 52be 8ebd 9c43 feba 9fe0 7b3d 536d e6bd
00000170: 9698 1abc b28e d03c 6e2c 403b facd 493d
00000180: ff44 133d 8a9d 99bc de0e 9736 e886 aab9
00000190: 6252 8a3a 1eac 6bbd 0df0 c93b 2f5f 9f3c
000001a0: 566a 92bb 93a2 a83c fef7 563c 1686 2236
000001b0: 441d 80bc 5334 be3a 5798 4f3d 0002 8c3c
000001c0: 6db2 4e3c dc7c 3bbd d58c 35bc f672 9e39
000001d0: ae71 3f3a 1ec7 0e3c 5135 963a 1196 633c
000001e0: a96d c43b dc8d e03c 82b2 013b 4571 e13b
000001f0: c4d2 d4bc 16bb d13c 0572 12bc 5a09 883c
00000200: ac1f 77bd 6633 a9ba e8a8 0039 dccd 75ba
00000210: f21c a2bb 6c9a c63c 1c40 b53a a0c4 cdb8
00000220: f07e 2c36 c7d0 ea3c 4acb e83b 4bfa 823d
00000230: 8622 6b3b 6f4b 303d 09b9 5f3b 82a5 1334
00000240: 43fb 673c 1285 29bd e63e 473c 8bc2 89bd
00000250: d9c2 983c 75c5 ab3c 9f1c 48be d6d3 81bd
00000260: d10e 813c 37cf 683d 6d03 2b36 83cd f6bb
00000270: f1fe 993c ffdc 1a3d 161b a33a 5b3b 8fbc
00000280: 9d81 8cbc bb3f 963b 0788 fa3a 3634 50bd
00000290: b7bd 29bc 0c9b 32bb 4d93 ba3c 204d b3bb
000002a0: 84b3 703d cebf a2bd 72d3 093b 429b c43c
000002b0: b2a5 033b 9cca c8b5 dbe6 893b 42ec 843c
000002c0: ead1 b03c 61e5 95b5 8069 d7bc 183b 11be
000002d0: 5c61 e53c ee4d c73b cb51 a23d d123 4b3c
000002e0: 2491 8f3c 1edc 8abd 58d8 5a3b 9a2d 283b
000002f0: 49ad 743a 3d68 2c3d 1284 c73c 9844 d1bc
00000300: db3b 713c 82d6 e43a 9ad3 1c3d 9b1b 7e3d
00000310: 580d 043c b6e1 30ba 3b33 1d3d c552 ce3c
00000320: 9205 0c3d e617 3f3c 7f39 ac3c 5412 95bc
00000330: 963c e0bb e9dd e23d f17c a83c 0840 ef3c
00000340: 9dbb b13c 784c 9bbb a9ce 273b 39f2 96bc
00000350: e48a 833b 5ef8 e53b 289d 89bd a264 433d
00000360: 2499 dcbb a29c a8bd 4a55 cdbd 991c 803d
00000370: 498c 3b3d 388e 09bc b5d7 94bd cf5d 53bc
00000380: 1f17 573d 7351 86bc 03b3 2ebd a744 feba
00000390: c581 513c 48ed 86bc d382 983c b92b 2f3d
000003a0: 6831 14bc 9f25 0a3b 722f 293d f38a c93c
000003b0: e4b9 debb 6a19 84bb 28c2 71bb 69c9 11b9
000003c0: 8c16 3ebd 2185 983d 4159 4b3d f977 5b3d
000003d0: fa07 e3bc aa95 e7bd b871 cd3c fbfc 103d
000003e0: d914 883d d0f2 f338 c7a2 723d 74b9 8fbc
000003f0: 37f4 11be ae38 173c df50 2c3d 689e fdb9
-0.04645389 0.01432904 -0.03415456 0.010164354 0.0008362147 -0.0013990287 0.02144327 -0.014586116
0.03624001 -0.037327692 0.0042015994 -0.032250807 0.023593578 0.045089796 -0.012440123 -0.0004857208
0.057596907 -0.0070747933 0.0037910608 0.03742452 0.0038037973 -0.009035939 0.005162415 0.0023029274
0.09237945 -0.10715038 0.00065771455 0.0028708146 -0.06408048 -1.4541914e-07 0.011625985 -0.00017352996
0.018319728 0.011884859 0.015112202 0.084065065 -0.1092568 -0.057624284 -0.0058092894 0.015024734
0.017719649 0.0015578796 0.012962616 -0.01816163 -0.04543725 -0.008514827 -0.016104948 0.016709989
0.023288319 0.07566858 0.0019229684 0.03652292 0.021694306 0.021496689 -0.00034200877 1.1865161e-05
0.034488685 -0.026740221 -0.0014828676 0.026970237 -0.013317851 0.01212386 0.009350884 0.10555547
0.0317249 -0.0006819899 0.056520857 0.04465051 0.019155398 -0.01220938 0.0043698694 0.0052586664
-0.12128237 0.08539828 -0.004087271 -0.014120963 0.079948306 0.0034492179 0.018095525 -0.063698255
0.0061920756 -0.007221055 -0.24808708 0.03184299 0.00962176 0.04364707 -0.029379204 -0.046645828
-0.069698945 -0.0019398811 0.061493512 -0.11251321 -0.009435793 0.025458667 0.0029323357 0.0492687
0.03595447 -0.018751878 4.5018814e-06 -0.0003252544 0.0010553116 -0.05753719 0.0061626495 0.019454567
-0.0044682426 0.020585334 0.013120649 2.421793e-06 -0.015638955 0.0014511443 0.050682392 0.017090797
0.012615782 -0.045773372 -0.01108094 0.0003022176 0.00073030114 0.008714465 0.0011459981 0.013890759
0.005994518 0.027411394 0.0019790237 0.006879958 -0.025979407 0.025601905 -0.008938317 0.016606022
-0.06033294 -0.0012908995 0.00012269954 -0.0009376684 -0.004947298 0.024243556 0.001382831 -9.811786e-05
2.5703885e-06 0.028664006 0.007104312 0.06395396 0.0035878732 0.04304069 0.003413739 1.3750653e-07
0.014159027 -0.04138667 0.012160992 -0.06726559 0.018647598 0.020968178 -0.19542168 -0.063392326
0.015754135 0.05683824 2.548298e-06 -0.007531823 0.018798323 0.037808415 0.0012443985 -0.017484358
-0.017151648 0.004585234 0.0019114026 -0.050831042 -0.010360173 -0.002725306 0.022775317 -0.0054718405
0.05876495 -0.0794674 0.0021030572 0.023999814 0.0020087776 -1.4960128e-06 0.0042084283 0.016225938
0.02158447 -1.1168123e-06 -0.026295424 -0.14182699 0.028000526 0.006082288 0.07925757 0.012398676
0.017525263 -0.06780265 0.003339311 0.0025661946 0.0009333683 0.042091597 0.024354968 -0.025545403
0.014723743 0.0017458948 0.038287736 0.062038045 0.008059822 -0.0006747501 0.038378935 0.025185952
0.034185 0.011663413 0.02102351 -0.018197216 -0.00684316 0.11077482 0.02056739 0.029205337
0.021695906 -0.0047393404 0.0025605357 -0.018426048 0.00401436 0.007018133 -0.06719428 0.047703393
-0.006732123 -0.08233 -0.10026033 0.062554546 0.045788083 -0.008395724 -0.07267705 -0.012900784
0.052512284 -0.01639626 -0.042651188 -0.0019399122 0.012787287 -0.016470566 0.01861707 0.042766307
-0.0090449825 0.0021079553 0.041305013 0.024602389 -0.0067970622 -0.00403135 -0.0036889408 -0.00013903309
-0.04640822 0.07447267 0.049645666 0.05358121 -0.027713764 -0.11307843 0.02507864 0.03539751
0.066446014 0.0001163237 0.059237268 -0.017544486 -0.14253317 0.009229822 0.042069312 -0.00048373942

lin1.bias f4 [16]
00000000: d7b2 2b3d 4774 63bd c9c1 1dbd 5ff6 70bd
00000010: 8210 41bd 7735 60bd e383 1ebd bcc6 373d
00000020: fc7d 683d 04b5 2c3d 04f4 5f3d 5f0d 903d
00000030: 5328 2cbd 52d0 42bd ba5d 773d a906 0a3d
0.0419186 -0.055530813 -0.038514886 -0.058828708 -0.047134884 -0.054738488 -0.038699996 0.044867262
0.056760773 0.042164817 0.05467607 0.070338 -0.042030644 -0.04756195 0.06039212 0.033697758

lin2.weight f4 [1, 16]
00000000: ec4f 32bf 5177 b33d ee4d 59bc 5531 b33d
00000010: 3764 fa3b ddba 163d 9c41 f4bb 7e9b 32bf
00000020: a828 1bbf 3705 2dbf df7e 16bf 22a7 14bf
00000030: b07f 2c3d ed6c 073c 13b2 0ebf 6b8b 2abf
-0.696532 0.08762992 -0.013263209 0.08749644 0.007641341 0.0367993 -0.0074541103 -0.6976851
-0.6060891 -0.6758608 -0.5878734 -0.58067524 0.04211396 0.008265716 -0.5574047 -0.66618985
