runs/25-08-2025_18-27-02__best_val_acc_0.8727/models/GIN__val_acc_0.8564.pt (torch, 262688 bytes, 7 tensors)

conv1.nn.0.weight f4 [16, 4005]
0	0xb4292ea6	-1.5756322e-07
1	0x37810f0a	1.5385001e-05
2	0xb5042fec	-4.924357e-07
3	0xb5ac6b92	-1.2846306e-06
4	0xb6782991	-3.6979075e-06
5	0x35b25136	1.3285669e-06
6	0xb69654b0	-4.4802073e-06
7	0xb57e51bf	-9.474133e-07
8	0x35eee652	1.7799414e-06
9	0x357215da	9.0183823e-07
10	0xb69573ba	-4.4540184e-06
11	0x360adcef	2.0692203e-06
12	0xb5721161	-9.0177315e-07
13	0x361ca240	2.3340253e-06
14	0xb8f0da3c	-0.00011484741
15	0xbbc1dfde	-0.0059165796
16	0xbc9e0ae1	-0.019292297
17	0x36ace643	5.1528054e-06
18	0xb55cb9e4	-8.2226893e-07
19	0x37ff6c90	3.0448922e-05
20	0x35862021	9.993129e-07
21	0x360c7cc6	2.0934253e-06
22	0xb49ca855	-2.9179742e-07
23	0xb52f8b65	-6.5395426e-07
24	0xbd03faba	-0.032221533
25	0x3361db48	5.258633e-08
26	0xb4fb634b	-4.6824638e-07
27	0x36092f23	2.0442028e-06
28	0xbc2da787	-0.010599024
29	0xb5a44d3b	-1.2241429e-06
30	0xb787d185	-1.619082e-05
31	0x364d204d	3.0566182e-06
32	0xb5c253cc	-1.4478514e-06
33	0x36485c7c	2.9856155e-06
34	0xb5ef4525	-1.7827011e-06
35	0xbd2afa3d	-0.041742552
36	0x368ecb7e	4.2556194e-06
37	0x36884e54	4.0622344e-06
38	0xb4f69c52	-4.593481e-07
39	0xb728b702	-1.005619e-05
40	0xb684252d	-3.9382344e-06
41	0x371b98db	9.274309e-06
42	0x36984646	4.538134e-06
43	0xb57ea5da	-9.486372e-07
44	0xb77f4c38	-1.52169305e-05
45	0x36238aca	2.4369679e-06
46	0xbd117a7f	-0.035517212
47	0x3681d1c2	3.8689186e-06
48	0xb659c3f4	-3.244958e-06
49	0xb62d054a	-2.5782088e-06
50	0xb6399107	-2.7651565e-06
51	0x37b4dc23	2.1560181e-05
52	0x353d0c00	7.042545e-07
53	0x363e28f2	2.833604e-06
54	0xb39ad330	-7.2095986e-08
55	0x353632b2	6.7874055e-07
56	0x336ebe40	5.5586725e-08
57	0x34933304	2.7418002e-07
58	0xb5b256f9	-1.3287346e-06
59	0xb63e1dbd	-2.8329516e-06
60	0x359bac81	1.1598605e-06
61	0x37e10beb	2.682764e-05
62	0xb4ca224c	-3.7650386e-07
63	0xbc5183d1	-0.012787775
64	0xbb9dcdaa	-0.004815777
65	0xb9abd92d	-0.0003277747
66	0xb620bc06	-2.3951302e-06
67	0x36c600c6	5.90095e-06
68	0xb6efbf88	-7.145052e-06
69	0xbcc42bce	-0.023946669
70	0x3637deb4	2.7398755e-06
71	0xb668cf95	-3.4691523e-06
72	0xbbbb2fee	-0.005712501
73	0xbd5f16ca	-0.054465093
74	0x3327bae8	3.9052708e-08
75	0x38367c23	4.3507793e-05
76	0xbc06bd7e	-0.008223889
77	0xbc2c06b6	-0.010499647
78	0xbd0aa2df	-0.033846732
79	0x37eafba9	2.8012162e-05
80	0xb51b1412	-5.7771206e-07
81	0xbca4c425	-0.02011306
82	0xbd469902	-0.048485763
83	0x384e893d	4.924204e-05
84	0xb69773b2	-4.5136194e-06
85	0xbd159d16	-0.036526762
86	0x36251681	2.4600015e-06
87	0x37c39e6c	2.3319582e-05
88	0xb503c593	-4.908881e-07
89	0x35c5b3d8	1.4729985e-06
90	0xbb272076	-0.0025501526
91	0xbc0dfe66	-0.00866661
92	0xb53769b6	-6.832664e-07
93	0xbc7c1fc4	-0.015388433
94	0xb6f41be9	-7.275016e-06
95	0x35d633b0	1.5959286e-06
96	0xbc1fd571	-0.009755478
97	0xb63a26e1	-2.773879e-06
98	0x36331f40	2.6691268e-06
99	0x360b2a7e	2.0737348e-06
100	0x370a1e11	8.232441e-06
101	0x350739bf	5.037545e-07
102	0xb4f66016	-4.5890982e-07
103	0x358edeac	1.064463e-06
104	0xbca81674	-0.020518519
105	0x360c66fa	2.0921566e-06
106	0xb672561d	-3.6110935e-06
107	0xb6c5d55c	-5.895896e-06
108	0x36b519b5	5.397213e-06
109	0xb540de38	-7.1848945e-07
110	0xb73a567f	-1.1106603e-05
111	0x35de5c1a	1.6567094e-06
112	0x35cac394	1.5107094e-06
113	0xb745aa31	-1.1781741e-05
114	0xbc550b40	-0.0130031705
115	0xb68c788d	-4.186359e-06
116	0xb6fa6cf4	-7.4632644e-06
117	0xb6947c40	-4.4252083e-06
118	0xb54045f9	-7.16274e-07
119	0x36647f08	3.404859e-06
120	0xb89bc6ac	-7.4279815e-05
121	0x372e676a	1.0395286e-05
122	0x36ae46d5	5.19385e-06
123	0xb48692fc	-2.506639e-07
124	0xb758dca6	-1.2925977e-05
125	0x3180b700	3.746095e-09
126	0x3663116c	3.3835777e-06
127	0xb764f3bb	-1.3646607e-05
128	0xbd28dd77	-0.04122683
129	0xb54b5baa	-7.575678e-07
130	0x360aeb92	2.0700722e-06
131	0x34b320d4	3.3365234e-07
132	0x3647e058	2.9783896e-06
133	0xbb247389	-0.0025093278
134	0xb84428ab	-4.6767917e-05
135	0x34b78354	3.418196e-07
136	0x35ba242e	1.386861e-06
137	0xbcc6bbd5	-0.024259487
138	0x37e3195f	2.7072323e-05
139	0x382ad36f	4.072807e-05
140	0x37091412	8.170509e-06
141	0x37db8ee5	2.6173375e-05
142	0xb57a9c52	-9.3359733e-07
143	0x34d8f8f1	4.0414264e-07
144	0x3580dff0	9.601918e-07
145	0x363197a6	2.6463326e-06
146	0xb2d1f080	-2.4440169e-08
147	0xbd03de65	-0.032194514
148	0x35a65afc	1.2394444e-06
149	0x360f2c33	2.1334388e-06
150	0xbd720246	-0.0590842
151	0x36b9e353	5.5398937e-06
152	0x358d0819	1.0507675e-06
153	0xbc8ceceb	-0.017202815
154	0xb440269f	-1.7895444e-07
155	0xb727eec3	-1.0009567e-05
156	0x35820b36	9.689018e-07
157	0xb6495de0	-3.0005976e-06
158	0xb6166598	-2.2410877e-06
159	0xbbeabc7b	-0.007163582
160	0xb5bacb6e	-1.3917286e-06
161	0x35dbe403	1.6383132e-06
162	0xb6f50d11	-7.30309e-06
163	0xbb80a93e	-0.0039264252
164	0xb6e2f4ba	-6.763815e-06
165	0xb4b7cf5e	-3.4237286e-07
166	0xb378e3e8	-5.794928e-08
167	0xb592434a	-1.0897431e-06
168	0xb4dc7808	-4.1065528e-07
169	0xbd22c0c1	-0.039734606
170	0xb66a5fe2	-3.4924528e-06
171	0xb5bcc322	-1.4063883e-06
172	0x34d4fde7	3.9672815e-07
173	0x3615e1c1	2.2334136e-06
174	0xb5500fcb	-7.750902e-07
175	0x364f6d67	3.0909084e-06
176	0xb6a33760	-4.864225e-06
177	0xb4a7ce09	-3.1256084e-07
178	0xb6c254e0	-5.7915313e-06
179	0xbc4f99a0	-0.012670904
180	0x36a687c0	4.962989e-06
181	0xb6c96878	-6.0024286e-06
182	0xb77ce795	-1.507429e-05
183	0x370ca398	8.38274e-06
184	0xb47a6f22	-2.3323494e-07
185	0xbc1cc8cc	-0.009569358
186	0x34d0fa6a	3.892522e-07
187	0xb89604da	-7.153461e-05
188	0xb65584df	-3.1816814e-06
189	0xbd252625	-0.04031958
190	0xb6dd66d9	-6.5982863e-06
191	0x37faf16a	2.991474e-05
192	0xb79e2681	-1.8852998e-05
193	0xb6b9d477	-5.538164e-06
194	0xbc690ec0	-0.014224708
195	0xbcd61f54	-0.026137985
196	0x35993204	1.1413945e-06
197	0xb52e283e	-6.487861e-07
198	0xb90e5bed	-0.0001357642
199	0xb62db894	-2.5886447e-06
200	0xb4cc5602	-3.806054e-07
201	0xb68ce061	-4.1984463e-06
202	0xb6a22fa6	-4.8335232e-06
203	0x361f9d6b	2.3784476e-06
204	0x34a29c72	3.028868e-07
205	0xbd141aae	-0.036158256
206	0x360cc4d5	2.0976197e-06
207	0x36caddff	6.045913e-06
208	0x35a3dcd9	1.2208722e-06
209	0xb7609a97	-1.3387434e-05
210	0x367079cd	3.5833684e-06
211	0xbd09fa11	-0.033685748
212	0xb5f7f09c	-1.8472961e-06
213	0x362d1eea	2.5797003e-06
214	0xb60193d0	-1.9308536e-06
215	0xb67960e6	-3.7160294e-06
216	0xb6271046	-2.4894412e-06
217	0xb6b11e4b	-5.2785376e-06
218	0xbbcfbf45	-0.00633994
219	0x353d4f36	7.0523254e-07
220	0xbb88d507	-0.0041757855
221	0xb65fa852	-3.3327565e-06
222	0x360ecda8	2.1279357e-06
223	0x36ab9c4b	5.114392e-06
224	0xbcd64708	-0.026156917
225	0xb34dd330	-4.7922356e-08
226	0xb5f3a064	-1.8151591e-06
227	0xb734e371	-1.0781791e-05
228	0x382b2a4c	4.080897e-05
229	0x3642cd9a	2.9027929e-06
230	0xbd26726b	-0.04063646
231	0xbcfe14b2	-0.031015728
232	0xb51b699c	-5.789568e-07
233	0xb515dbd8	-5.582674e-07
234	0xbd1e44c8	-0.038639814
235	0x3671cd03	3.603113e-06
236	0xb9f18e9a	-0.00046073348
237	0xb52364f8	-6.086916e-07
238	0xbbe222d3	-0.006901124
239	0xbc039094	-0.008030076
240	0xb6843452	-3.9399974e-06
241	0xb61ea3b8	-2.3639132e-06
242	0x35d9bfa6	1.6223537e-06
243	0x36068091	2.0042391e-06
244	0x35112b4a	5.4079703e-07
245	0xbb4f7459	-0.0031655042
246	0xbc21f1de	-0.009884326
247	0xbab390e7	-0.00136998
248	0xb5dac8b0	-1.6300673e-06
249	0xb40ab20c	-1.2917025e-07
250	0xba235712	-0.0006230931
251	0xb53205ce	-6.6318614e-07
252	0xbd289d60	-0.04116571
253	0xb68fc0c8	-4.284175e-06
254	0x328082e0	1.4960676e-08
255	0xb2c9e928	-2.3505507e-08

conv1.nn.0.bias f4 [16]
0	0xbc7af48e	-0.015317095
1	0x390d7d6c	0.00013493531
2	0xbc93de9d	-0.018050486
3	0x3ed748ed	0.42047825
4	0xb9a9e3af	-0.0003240383
5	0xbe183556	-0.14864096
6	0x3d07ab08	0.033122092
7	0x3de0c7ce	0.1097561
8	0xb950c3ce	-0.00019909369
9	0x3ec9ad0f	0.39389846
10	0xb9ab0c9b	-0.00032625053
11	0xbd3a36d2	-0.045462437
12	0xbbb718a3	-0.0055876537
13	0xbcb43db1	-0.022002073
14	0xb50bfd52	-5.2150165e-07
15	0x36a9696d	5.0488657e-06

conv1.nn.2.weight f4 [16, 16]
0	0x3db166d8	0.08662194
1	0xbe0cd025	-0.13751276
2	0x3dca5e1d	0.09881232
3	0xbf759c8a	-0.95941985
4	0xbc44700a	-0.011989603
5	0xbe5e201b	-0.21691935
6	0xbe8b50a9	-0.27209976
7	0x3e194322	0.14967015
8	0x36342adc	2.6847038e-06
9	0x3f583ba4	0.84466004
10	0x3e1738f7	0.14767824
11	0x3e6582f9	0.22413243
12	0xbd8515ad	-0.06498275
13	0xbc5f0bd0	-0.013613656
14	0xbd7af87f	-0.06127214
15	0x3bac65b5	0.005261148
16	0x353ee760	7.111721e-07
17	0x36217b36	2.4062588e-06
18	0x36d69fdc	6.396307e-06
19	0x3e544ff1	0.2073362
20	0xb70e00b4	-8.464023e-06
21	0xbe087e9b	-0.13329546
22	0x3d7ffa68	0.062494665
23	0x3d322acc	0.043497846
24	0xb65b40be	-3.2671228e-06
25	0xbf351c5b	-0.7074639
26	0x370559de	7.948342e-06
27	0x3dc1a415	0.09455124
28	0x376aafbc	1.3988403e-05
29	0xbd480a0c	-0.048837706
30	0x362b5bb0	2.5534355e-06
31	0xb67fc7d3	-3.8114274e-06
32	0xbe657a6f	-0.22409986
33	0xbdc8186b	-0.09770282
34	0xbdaca188	-0.08429247
35	0xbe8b50dc	-0.27210128
36	0xb74801d6	-1.1921356e-05
37	0x3e1409e5	0.144569
38	0xbe071987	-0.13193332
39	0x3e74141c	0.23835796
40	0xb543f506	-7.2999717e-07
41	0x3cd396d3	0.025828755
42	0xb50310b0	-4.8825586e-07
43	0xbd9937f2	-0.07481374
44	0xbc9b561e	-0.018961962
45	0xbd8cdb02	-0.0687771
46	0x3670a23e	3.5857224e-06
47	0x36569988	3.1977852e-06
48	0x36b1acfe	5.29515e-06
49	0xb6ddb001	-6.606803e-06
50	0xb704a14c	-7.905368e-06
51	0x3f1a52c9	0.6028257
52	0x375bde56	1.3105184e-05
53	0x3e1b9ab6	0.15195736
54	0xbe714afe	-0.23563763
55	0xbda4b098	-0.08041495
56	0x357e9908	9.4845063e-07
57	0xbf4ef484	-0.8084185
58	0xb66a1346	-3.4879936e-06
59	0xbe0794a4	-0.13240296
60	0x372485bb	9.806298e-06
61	0xbe4795b1	-0.19490696
62	0xb39ac340	-7.2066996e-08
63	0xb74718da	-1.18671105e-05
64	0x3df2154a	0.11820467
65	0xbde35351	-0.11099876
66	0x3b0c13d0	0.0021374114
67	0xbbc57e23	-0.0060269996
68	0x3e0399b1	0.12851597
69	0xbe5dfc99	-0.2167839
70	0x3be81bcc	0.007083392
71	0xbd988196	-0.074465916
72	0x366dfca8	3.5462817e-06
73	0xb9cb3bc6	-0.00038763712
74	0x3d6fc88f	0.058540877
75	0xbdf0339f	-0.11728596
76	0x3e1bd7eb	0.15219085
77	0xbe60b911	-0.21945597
78	0x3c2fbb5b	0.010725821
79	0x3e836057	0.2565944
80	0x3e083c40	0.13304234
81	0xbdc6f1d3	-0.09714093
82	0x3c8725d0	0.016497523
83	0xbc897bf9	-0.016782748
84	0xb6873565	-4.0295295e-06
85	0x3dbfe279	0.09369368
86	0xbe1df4aa	-0.15425363
87	0x3dc84b03	0.09779932
88	0x343a7b34	1.7367421e-07
89	0x3e155608	0.145836
90	0xb7c65e6a	-2.3647404e-05
91	0xbe48adf5	-0.1959761
92	0x3b9b603a	0.0047416957
93	0xbe980b92	-0.29696327
94	0xb7f65e53	-2.9369408e-05
95	0x3b2cef31	0.0026387686
96	0xb60f74e1	-2.1376693e-06
97	0x36db99b1	6.5446006e-06
98	0xb62248ab	-2.418218e-06
99	0xbf1e6f18	-0.61888266
100	0x3854f731	5.0774954e-05
101	0xbd49b765	-0.049247164
102	0xbd540f2e	-0.05177229
103	0xb520b1b5	-5.986324e-07
104	0xb71bc97a	-9.28563e-06
105	0x3f61198d	0.8792961
106	0xb95ef879	-0.00021264133
107	0xbd6dc406	-0.05804827
108	0x364643d6	2.9543785e-06
109	0xbc8560c3	-0.016281491
110	0x3a9826d2	0.0011608249
111	0x3df7b393	0.12094798
112	0x3cfb2207	0.030655874
113	0xbd810ee0	-0.06301665
114	0xbe318d3c	-0.17339033
115	0x3e856ef3	0.2606121
116	0xb6c05d18	-5.7328834e-06
117	0xbe3dc454	-0.18531924
118	0x3e2d0b87	0.16898929
119	0x3d156d61	0.036481265
120	0x3555a370	7.9586516e-07
121	0xbe6d0300	-0.23145676
122	0x3867fe04	5.5311262e-05
123	0xbbf61a2a	-0.007510443
124	0x3d4ed64a	0.05049733
125	0x3d9bcb82	0.076071754
126	0xbc2ca902	-0.0105383415
127	0x3bd7be7b	0.0065839863
128	0xb72c2e57	-1.0262788e-05
129	0x33226150	3.780707e-08
130	0x3731e1cd	1.06025955e-05
131	0xbd8fc32d	-0.07019649
132	0x36c417a0	5.8440055e-06
133	0xbda4728b	-0.0802966
134	0xbda570d2	-0.080781594
135	0xb693c19c	-4.4034805e-06
136	0x37008d63	7.662314e-06
137	0xbcc903c4	-0.024537928
138	0x36d11b63	6.2318736e-06
139	0xbd851bbc	-0.064994305
140	0xb647f42e	-2.9795442e-06
141	0xbda50c41	-0.08058978
142	0xb56751da	-8.6173316e-07
143	0xb5189e62	-5.685489e-07
144	0xb70ba101	-8.322532e-06
145	0xb64fbb23	-3.0954332e-06
146	0xb71e1c55	-9.42413e-06
147	0xbdcfeb07	-0.1015225
148	0x368e77e0	4.245885e-06
149	0xbdc9c538	-0.098520696
150	0xbdbf8ea5	-0.09353379
151	0xb631126d	-2.638578e-06
152	0xb6cb5066	-6.059231e-06
153	0xb77fe7da	-1.5253167e-05
154	0x3c3e25f4	0.011605728
155	0xbda04254	-0.07825151
156	0x3782a39d	1.5573396e-05
157	0xbdbe2b14	-0.0928556
158	0x3c81e08f	0.015854148
159	0xbc532d2d	-0.012889189
160	0xbd976147	-0.07391601
161	0x3d8b7881	0.06810094
162	0x3def1656	0.11674182
163	0x3906425a	0.00012803954
164	0x36e50ce0	6.8262307e-06
165	0xbe087c41	-0.13328649
166	0x3d3ead5b	0.046552043
167	0xbe375741	-0.17904378
168	0xb5fd6d88	-1.8881847e-06
169	0xbe4dab72	-0.20084932
170	0x3726c068	9.939169e-06
171	0xbe03a916	-0.1285747
172	0x3be73e6a	0.007057001
173	0xbdca73a4	-0.09885338
174	0x363a442c	2.775584e-06
175	0xb651b509	-3.1248803e-06
176	0x35d573c4	1.5903429e-06
177	0xb6d7da35	-6.432902e-06
178	0x32c96410	2.3444983e-08
179	0x36d082d9	6.2141157e-06
180	0x3c8b3b95	0.016996184
181	0xbe3160d4	-0.17322093
182	0xbdb10cbd	-0.08645008
183	0x35c11916	1.4386922e-06
184	0x36a204e6	4.8285465e-06
185	0x3588409a	1.0151591e-06
186	0xbe2781c3	-0.16358094
187	0x35c7138e	1.4832347e-06
188	0xb6faa795	-7.4700897e-06
189	0xbe812e13	-0.25230464
190	0xbc1e0c46	-0.009646481
191	0x3d67e48a	0.056614436
192	0x3a7faf71	0.0009753621
193	0xba839aec	-0.0010040677
194	0xb827d4f1	-4.001422e-05
195	0x3ebfcae0	0.3745947
196	0xb6e2dc3f	-6.760965e-06
197	0xbe46de24	-0.19420677
198	0x3dadbca9	0.0848325
199	0x3e5fa869	0.21841587
200	0x373ef654	1.1382235e-05
201	0xbf29ef6e	-0.66380966
202	0x3623e2c7	2.4420895e-06
203	0x3d398be6	0.045299433
204	0x3c9cc0f1	0.01913497
205	0xbcf25f3a	-0.029586423
206	0x368971a0	4.096146e-06
207	0x36a8675c	5.018823e-06
208	0x3ce4b141	0.027916552
209	0x3caf8784	0.021426924
210	0xbd7505a5	-0.059819836
211	0xb5b5b341	-1.3537721e-06
212	0xb57cb601	-9.4142166e-07
213	0x3d76ba8a	0.06023649
214	0xbe9810bc	-0.29700267
215	0x3e122617	0.14272343
216	0x34947d58	2.7658348e-07
217	0x3ddd4cdd	0.10805676
218	0xb4de2ba8	-4.1382486e-07
219	0xbe8a6efd	-0.27037802
220	0x3d6ac95e	0.057320945
221	0xbe0abb03	-0.13547902
222	0xb866e103	-5.504583e-05
223	0x34ccc570	3.8141616e-07
224	0xbd69c4fa	-0.057072617
225	0x3e144cbe	0.144824
226	0x3cdeab4b	0.027181288
227	0xbeee3f0d	-0.4653248
228	0x364a3968	3.013376e-06
229	0xbda95197	-0.08267515
230	0xbe600e2d	-0.21880408
231	0xbc13362b	-0.008985083
232	0xb62f2a0a	-2.6101502e-06
233	0x3f432118	0.7622237
234	0xbb2d80bb	-0.0026474434
235	0xbd2dcc53	-0.042431187
236	0x3e2ec788	0.17068303
237	0x3da268e4	0.079301625
238	0x3cf0ddd9	0.02940266
239	0x3b5a28b1	0.0033288414
240	0x361ddc44	2.3523035e-06
241	0x33f01f68	1.1181584e-07
242	0x3699b3f0	4.580703e-06
243	0x33c0e560	8.98242e-08
244	0x35a80904	1.2519599e-06
245	0xbd296289	-0.041353736
246	0xbe451fba	-0.19250384
247	0x3e219e00	0.15782928
248	0xb5f2b3b0	-1.8082701e-06
249	0x3e142caf	0.1447017
250	0xb6065083	-2.001442e-06
251	0xbd6f7584	-0.05846168
252	0x360086e7	1.915201e-06
253	0xbe1c30ae	-0.15252945
254	0x3606f269	2.0108657e-06
255	0x35d7c5f1	1.6076357e-06

conv1.nn.2.bias f4 [16]
0	0x3e9f3b98	0.31100154
1	0x3eb2d917	0.3493125
2	0xbdd3a376	-0.10333912
3	0x3eb216b5	0.3478295
4	0x3ded4712	0.11585821
5	0x3d39a031	0.045318786
6	0x3e58b105	0.21161278
7	0x3e1389ef	0.14408086
8	0x3cf8ef45	0.03038753
9	0x3ab37065	0.0013690112
10	0x3cc231a2	0.023705307
11	0xbc1dabfe	-0.009623526
12	0x3e93bc7e	0.28854746
13	0xbda96a33	-0.08272209
14	0x3e5d7a15	0.21628602
15	0xbde4520f	-0.11148464

conv2.nn.0.weight f4 [16, 16]
0	0xbd6aed76	-0.057355367
1	0x3e1a67bc	0.15078634
2	0x3e25f1b8	0.1620549
3	0x3e4659ce	0.19370195
4	0xbb941279	-0.0045188037
5	0xbdcafa0f	-0.09910976
6	0xbcbc0bf9	-0.022954928
7	0xbdd8e782	-0.105910316
8	0x3da9a817	0.08284014
9	0xbd8dcd88	-0.069239676
10	0xb7426c44	-1.1588509e-05
11	0x3688192c	4.0560462e-06
12	0xbc4b7646	-0.012418335
13	0xbdf724dd	-0.12067578
14	0xbe2396da	-0.15975514
15	0x3dc7f40b	0.097633444
16	0xbd728977	-0.059213128
17	0xbf038612	-0.5137645
18	0xbe3ec89a	-0.18631211
19	0xbec888f8	-0.39167
20	0xb6eaf8d8	-7.0027127e-06
21	0xbdc57255	-0.09640948
22	0x3f0ad258	0.5422721
23	0x3c2d15b4	0.010564256
24	0xba870ac5	-0.0010302892
25	0x39fe87ea	0.0004854792
26	0xbb8545e1	-0.004067168
27	0x37061bcf	7.993497e-06
28	0xbed3b678	-0.4135015
29	0x3ccc6b36	0.024953466
30	0xbd8dd07b	-0.0692453
31	0x37fb2c8c	2.9942275e-05
32	0xbcfb03b2	-0.03064141
33	0x3eb0293c	0.3440646
34	0x3e167aa7	0.14695226
35	0xbdac53ca	-0.08414419
36	0x3dff56f6	0.12467758
37	0xbe24f544	-0.16109186
38	0x3d9b2c9a	0.075768664
39	0x3d1ac873	0.03778882
40	0xbdb9c971	-0.09071625
41	0x3dd4e9da	0.10396166
42	0x3d8021a1	0.06256414
43	0x370150cf	7.707814e-06
44	0x3f040469	0.5156923
45	0x3e5f489a	0.21805039
46	0x3e0e77f7	0.1391295
47	0xbdc5fa1f	-0.096668474
48	0xbf572531	-0.84041125
49	0x3e80a02a	0.25122195
50	0xbda469e0	-0.080280066
51	0x3e082d49	0.13298525
52	0x3d395450	0.045246422
53	0xbd854d4a	-0.06508882
54	0xbf0a5b88	-0.54045916
55	0x3e28820f	0.16455863
56	0xbd4cd439	-0.05000708
57	0x3907da39	0.00012955898
58	0x3d83a338	0.06427616
59	0x3b2c171d	0.0026258894
60	0x3f1715c6	0.590176
61	0x3e3abda5	0.18236406
62	0xbf6418ff	-0.8910064
63	0x3c846ce4	0.016165204
64	0x3d4da7e1	0.05020893
65	0xbf30053f	-0.68758005
66	0xbd933ad7	-0.07188957
67	0xbf18e7d6	-0.59728754
68	0xbcd38b28	-0.02582319
69	0xbd97379d	-0.07383654
70	0x3eee0747	0.46489927
71	0x3e46f40f	0.19429038
72	0xbd01d1f2	-0.03169436
73	0xbc6d04e1	-0.014466495
74	0x3d58bb19	0.052912805
75	0x36ce1a04	6.142307e-06
76	0xbf13ab9d	-0.57683736
77	0x3d5279dc	0.051385745
78	0x3d51fcda	0.05126653
79	0xbca8e41c	-0.020616584
80	0xbf79e189	-0.97609764
81	0x3ea3d435	0.3199784
82	0xbd828cd7	-0.06374519
83	0x3e57ecde	0.21086451
84	0x3c4b6e99	0.012416505
85	0xbc905acf	-0.017621426
86	0xbd84268f	-0.06452667
87	0x3e93b69d	0.2885026
88	0xbc77c6dc	-0.015123095
89	0x3c2dac54	0.010600168
90	0x380a02fa	3.2904536e-05
91	0x371f9ee6	9.514135e-06
92	0x3eab5164	0.33460534
93	0x36dac7f4	6.520184e-06
94	0xbe9f3b87	-0.31100103
95	0x3e2ea3cf	0.17054676
96	0xbdbf95f4	-0.09354773
97	0x3ecec1df	0.40382287
98	0x3cfaa207	0.030594839
99	0xbe2fe14c	-0.17175788
100	0x3d284b31	0.041087333
101	0x3e5e7af1	0.21726586
102	0xbec67342	-0.3875981
103	0x3e188f9f	0.14898537
104	0xbd695508	-0.056965858
105	0x3cba8a58	0.022771046
106	0xbe25a39e	-0.16175696
107	0x3ca5d75b	0.020244291
108	0x3f05f6c8	0.52329683
109	0xbe212c44	-0.15739542
110	0x3d8ed527	0.06974249
111	0x3d83b440	0.06430864
112	0xbb2bd0c9	-0.0026216975
113	0xbefa5242	-0.48890883
114	0xbea1ff91	-0.31640294
115	0xbf0ac591	-0.5420771
116	0xbbf355bf	-0.007425993
117	0x3e35aec2	0.17742446
118	0x3f31f38b	0.6951224
119	0xbebfe130	-0.37476492
120	0xb626773d	-2.4805333e-06
121	0x39b8750e	0.00035182427
122	0x3c22e12d	0.009941381
123	0xb5bbacd0	-1.3982881e-06
124	0xbf053011	-0.5202647
125	0x3dcdeed9	0.10055322
126	0xbdd7d73b	-0.10539099
127	0x38971f4e	7.206072e-05
128	0x3e19b632	0.15010908
129	0xbed48ee1	-0.41515258
130	0xbe931db5	-0.28733602
131	0xbf9b4f48	-1.213357
132	0x3db265e6	0.08710842
133	0xbe4dcb2d	-0.20097037
134	0x3e2d4939	0.16922463
135	0xbf8a6fed	-1.0815407
136	0x3db89b5c	0.090140074
137	0x3a53e556	0.0008083185
138	0xba9c4b91	-0.0011924376
139	0xbc03593e	-0.008016882
140	0xbf8af36d	-1.0855538
141	0x3da2fba4	0.07958153
142	0x3ee2b314	0.4427725
143	0x3db4b3b1	0.08823336
144	0xbd885f74	-0.06658831
145	0x3dc07beb	0.093986355
146	0x3e1261cf	0.14295124
147	0x3e136236	0.14392933
148	0x3e6daeec	0.23211259
149	0x3e3a497f	0.18192099
150	0xbc479e11	-0.012183682
151	0xbdac7472	-0.08420648
152	0x3d9dd646	0.07706885
153	0xbc519dda	-0.012793982
154	0xbe088195	-0.13330682
155	0x3c4eb67c	0.01261675
156	0x3d04e69a	0.03244648
157	0x3e0401a5	0.12891252
158	0x3e6333fe	0.22187802
159	0xbe32defd	-0.17467876
160	0x3e3e414c	0.18579596
161	0xbcb9b3f0	-0.022668809
162	0x3e319ceb	0.17345016
163	0xbe0029c5	-0.12515934
164	0x3e9976fe	0.29973596
165	0x3c7e34e5	0.015515541
166	0x3e1cac94	0.15300208
167	0xbd84cd5a	-0.0648448
168	0x3d69020d	0.05688672
169	0xbe1f3303	-0.15546803
170	0xbdac4e21	-0.084133394
171	0x3c993ec8	0.018706694
172	0xbe3aa33e	-0.18226334
173	0x3de97e5e	0.11401056
174	0x3e888f19	0.26671675
175	0x3bc13c63	0.0058970912
176	0xbdd5096b	-0.10402187
177	0x3e3df15a	0.185491
178	0xbe7f9e3e	-0.24962708
179	0x3eab011a	0.33399278
180	0xbad6459d	-0.0016347651
181	0xbc2dbb5d	-0.010603753
182	0xbe6b09ca	-0.22952953
183	0x3ddcf2f8	0.1078853
184	0xbd60ce63	-0.054884326
185	0x39e33689	0.00043337446
186	0x3dfbe192	0.122988835
187	0x367b112c	3.741191e-06
188	0x3da928f1	0.08259762
189	0xbbc65c9a	-0.0060535194
190	0xbd974fe4	-0.07388285
191	0x36d86639	6.449202e-06
192	0xbdfcbc13	-0.1234056
193	0x3d10ae5c	0.035322532
194	0xbdd2b973	-0.10289278
195	0x3dee3cd6	0.11632697
196	0xbdff994c	-0.12480411
197	0x3da53c91	0.08068193
198	0x3ef9eb54	0.48812354
199	0x3de7f6b1	0.113263495
200	0xbd6357cb	-0.055503648
201	0xba0d8ca5	-0.0005399681
202	0x3d715f91	0.05892903
203	0x36454e92	2.9401021e-06
204	0xbd779764	-0.06044711
205	0xbe205578	-0.15657604
206	0xbe1c917b	-0.15289871
207	0x37bea568	2.2726788e-05
208	0x3b0fdb5c	0.0021950817
209	0x3eb78cdc	0.35849655
210	0x3e652a4c	0.22379416
211	0x3e04b486	0.12959489
212	0xbbf2611b	-0.00739683
213	0x3d0bb6f8	0.03411004
214	0xbb8c03fe	-0.004272937
215	0x3e890921	0.26764777
216	0xbd45540f	-0.048175868
217	0x3e240d5d	0.16020723
218	0x3de7cf8e	0.11318885
219	0x3d55ab66	0.05216541
220	0x3edeb561	0.43497756
221	0x3e458e08	0.19292462
222	0xbe872ac7	-0.26399824
223	0x3c5b1cfa	0.013373608
224	0x3dd599cd	0.10429726
225	0xbe683a30	-0.22678447
226	0x3d31bc04	0.043392196
227	0xbd0e5fb8	-0.034759253
228	0x3cf34fe7	0.029701186
229	0xbdfe4e94	-0.12417331
230	0xbd331ef9	-0.04373071
231	0xbe56e86a	-0.20987096
232	0x3d882622	0.06647898
233	0xbdb4e9c0	-0.08833647
234	0x3df4b080	0.11947727
235	0x3739d6ee	1.10769015e-05
236	0xbe5178dd	-0.20456262
237	0xbadec4cf	-0.0016995909
238	0xbd8fd2bf	-0.070226185
239	0x3cdbe745	0.026843676
240	0xbea2af61	-0.31774428
241	0x3e41459d	0.18874212
242	0x3db47c47	0.088127665
243	0x3c554db5	0.013019015
244	0x3cfdc9cc	0.030980013
245	0xbd42b735	-0.047538
246	0x3d1f7745	0.038932104
247	0x3e7f1558	0.24910486
248	0xbd6c7e43	-0.0577376
249	0x3d184b9b	0.037181478
250	0x3d113654	0.035452202
251	0xb7d7f77f	-2.5745247e-05
252	0x3e6a07d0	0.22854543
253	0x3a71a6f2	0.0009218297
254	0xbea95992	-0.3307615
255	0x3c4b9943	0.012426677

conv2.nn.0.bias f4 [16]
0	0xbe4e2306	-0.20130548
1	0x3edd805e	0.43262
2	0x3ec049e4	0.37556374
3	0x3fae3e4f	1.3612765
4	0x3ef90296	0.48634785
5	0x3f6db24f	0.928502
6	0x3ec9ce91	0.3941541
7	0x3f2b2c28	0.6686425
8	0x3f9dd7bb	1.2331461
9	0xbda05925	-0.07829503
10	0x3e662f2f	0.22478937
11	0x3e936f1c	0.28795707
12	0xbdd4bf31	-0.10388029
13	0x3efab8d7	0.48969147
14	0xbd5f8b26	-0.05457606
15	0x3ee62747	0.4495184

conv2.nn.2.weight f4 [1, 16]
0	0x3e03b529	0.12862076
1	0x3df7ef13	0.12106147
2	0xbe589fe4	-0.21154743
3	0xbf0b06d2	-0.5430728
4	0x3e23cf24	0.15996987
5	0xbe945585	-0.28971496
6	0xbe76342e	-0.24043342
7	0x3e593ec8	0.21215355
8	0x3f5c6d3d	0.86104184
9	0x3e00c5ee	0.12575504
10	0x3e835a5b	0.25654873
11	0xbd120bc1	-0.03565574
12	0x3e1b36d3	0.15157633
13	0xbe6d518c	-0.23175639
14	0x3d99b31d	0.07504866
15	0xbd270c9d	-0.040783513
