runs/25-08-2025_18-27-02__best_val_acc_0.8727/models/GraphSAGE__val_acc_0.8727.pt (torch, 515900 bytes, 5 tensors)

conv1.lin_l.weight f4 [16, 4005]
00000000: 26f7 5bbb 78ed bd3c 94f5 54bc 5799 793a
00000010: aff9 8e3c aa73 0d3c f86b 423b cebf adbb
00000020: 664c 8d3d 9bdb d2bc 2160 c53b 46db 833c
00000030: a9f9 70bc b3b4 71bb e877 fa3b 074e 79bd
00000040: fe3c f2bc 90a3 cc3b 5ca3 953b 2810 ce3a
00000050: 9275 2fbc eb8f 943c 8006 b03b 10d5 47ba
00000060: 2a1a eb3d 0a6c f03c 1315 743c b5cc 0fbc
00000070: af92 3a3d 22fe cabb 441a 033d ea5a 76bc
00000080: 7cfe ccb7 3bfe 703b 34fd 1f3c 9ceb 53bd
00000090: cc8a 38bd bb2f 6b3c 3cc7 c0ba 0c7e 583c
000000a0: 2074 38b8 2e5b bb3b ea79 b53a f6d7 15bb
000000b0: 95ac d1bc db07 e73c 8480 6a3c 65fe 64bb
000000c0: 15a6 fa3b 5261 aa39 2a8d b0ba 6088 ceb8
000000d0: df26 4139 4a0a aa3b 1adf 6a3b 708d 9336
000000e0: 450b cd39 22f2 9c3b 943f a9bc 3c46 6bbc
000000f0: f0f0 edb8 12a9 e03c 465b a7bc 55d1 383d
00000100: e616 333c 0e8e 043c 7b75 0cbb a3a3 eb3c
00000110: a001 593c 0564 a23c a406 ea3b 90ee 9b3c
00000120: 2cb4 30bd a36e 3a3d 4234 ae3b 56d4 1dbc
00000130: 981a 13bd 7cd4 8dbd 568d 733b 78b1 a0ba
00000140: 53b6 1ebb 1bd4 43bc 4a55 7bbd 606c aeb7
00000150: 8426 6b3a 9a12 493c 5903 803b 488e 853c
00000160: eaa2 e33a 5009 393b f9e2 2b3d f733 b4bc
00000170: b54f 123a e433 013d 7aef cc3b 6269 abbb
00000180: e03e 8e3d 3337 71bb 165e fcbb 0877 1b3a
00000190: eedf 1fbc 5818 4eba e61a bd3b 3d4b f9bb
000001a0: 3895 233d f710 543b 2404 cc3c 8f5e 36b6
000001b0: ca6a 423a fc97 ed3a 7b0f 933c a80a 60bb
000001c0: 7ea3 d53b 82d2 6eba b682 183c 1847 413c
000001d0: 72e9 693b 697c 2439 6267 6e3b 123e 7f3a
000001e0: a6ff 76bc 06c0 153c acc4 0b3c d4f2 013b
000001f0: 360e 243d b8e2 f2bb d88c 943c 2b2b 15bc
00000200: 8de0 5cbd 9f89 65ba ced8 41bd 3135 b5bb
00000210: 54aa d83a fc4d a23c 9440 87bc 68e0 4339
00000220: c8bf e739 7641 e0bd 50cf 60b9 4863 b4bb
00000230: b2f9 993c 9a2e 23bd bc0a 81bc 89c5 8a36
00000240: abe7 1dbc f177 ab3b 58c6 9d3c 0740 b4bd
00000250: 7eb7 d03b f693 70bb d004 efbc 69fc 993c
00000260: 6ca7 7437 586b 3ab9 46d5 163b e535 4d3c
00000270: 0eaa 543b 38c1 b53c 3cd8 703b c283 bc3c
00000280: d84c 253a 1e31 19bc be65 dc3c f054 56bc
00000290: 745a 88bd 3466 06bb 3844 a4bc b7e9 d7bc
000002a0: 1ab2 c93a 0e2d 24bc 62b4 2f3c f4e3 df3a
000002b0: a4cb 103c 1fd5 9ebc 5d8c 49bd b42e 8ebb
000002c0: 2d6d 7d3b c844 2dbc e869 b93c feb0 13bd
000002d0: ae6b 10bb 40fc 0abc 7acf 6f3b 9d03 413b
000002e0: 2b77 1dbb 6b77 813a 7f97 c539 50c5 c93c
000002f0: ea42 5f3a 57c5 00bd 7806 ef39 28f9 163d
00000300: bcc1 383d 1052 123c fd74 50bc 8104 b13c
00000310: 1837 c33b bc18 333c 5d58 043c a2ae 913c
00000320: 48ba 0a38 68df f63a 92a8 4b3b f773 5736
00000330: 2500 debc b406 96bd de67 fa3a 39e4 2d3d
00000340: a44e 0739 744b 003d 5622 32bb 0929 43bd
00000350: ba82 393b c26e df3b 7058 5bbc 3628 4abc
00000360: 10b2 ae3b 562f 11bc e7d5 7c3d fce2 643a
00000370: 4033 b43c 951d 883b f845 3fbb 0215 eeba
00000380: d94a 893d 1da6 993b 9cb7 a13c 1727 8fbc
00000390: c8da 4a3a 6808 cc3c 1c58 a33d 3cd7 793c
000003a0: 4e55 1a3c fa70 b63b 8c75 0f3b e313 7dbc
000003b0: 60be c9b9 8626 993b 5433 70bc dd88 8c3d
000003c0: f762 9bba 61b4 b03b 0965 3d3c fcef a738
000003d0: 5853 8b3b 82be 27bd 0d84 193d d19d 903b
000003e0: a619 0f3c c96d 8b3c d221 0c3c 24d3 c035
000003f0: a17b 9a3d b8ec 0f38 f496 d2ba f23d 31bb
-0.003356406 0.023184523 -0.0129980035 0.00095214456 0.017453043 0.0086335335 0.0029666405 -0.005302406
0.068993375 -0.025739482 0.0060234223 0.016095769 -0.014707961 -0.0036881387 0.0076436885 -0.06086543
-0.029570099 0.006245084 0.004566593 0.0015721368 -0.010709183 0.018135032 0.0053718686 -0.00076229963
0.114796 0.029348392 0.014897603 -0.008776833 0.045550045 -0.006194846 0.03200747 -0.015036324
-2.4437199e-05 0.0036772627 0.009764958 -0.051738366 -0.045054242 0.014354642 -0.0014707814 0.013213646
-4.397717e-05 0.0057176566 0.0013845537 -0.0022864318 -0.025594989 0.028201988 0.014312867 -0.003494167
0.007649193 0.00032497436 -0.0013469805 -9.848247e-05 0.00018420395 0.005189215 0.0035838545 4.397407e-06
0.00039109043 0.0047896067 -0.0206602 -0.014360007 -0.00011345919 0.027424369 -0.020429265 0.04512151
0.010930752 0.008090509 -0.0021432329 0.028764552 0.013245016 0.019823084 0.007141905 0.019034654
-0.043140575 0.045515668 0.005316288 -0.009633144 -0.035914034 -0.06925294 0.00371631 -0.0012259921
-0.002421756 -0.011952425 -0.061360635 -2.0792882e-05 0.0008970278 0.012272501 0.003906649 0.016303197
0.0017367278 0.002823431 0.041964505 -0.021997435 0.0005581335 0.031543627 0.006254134 -0.0052310685
0.06945586 -0.0036806583 -0.0077016456 0.0005930518 -0.009757979 -0.0007861904 0.005771029 -0.007607846
0.039937228 0.0032358745 0.024904318 -2.7175154e-06 0.00074164255 0.001812696 0.017951718 -0.003418604
0.006519734 -0.00091103476 0.009308508 0.011796735 0.0035692123 0.00015686605 0.003637754 0.0009736727
-0.0150756 0.00914002 0.008530777 0.0019828575 0.040052615 -0.007412281 0.018133566 -0.00910453
-0.053925086 -0.0008756164 -0.0473259 -0.0055300226 0.0016530254 0.019812576 -0.016510285 0.00018680247
0.00044202642 -0.10949986 -0.00021439535 -0.0055049993 0.018795822 -0.039839365 -0.015752189 4.1357166e-06
-0.0096377535 0.005232804 0.019259617 -0.08801275 0.00636953 -0.0036709285 -0.0291771 0.018797116
1.4582514e-05 -0.00017778331 0.0023015304 0.0125250565 0.0032449993 0.02218686 0.003674998 0.023012046
0.0006305701 -0.009350089 0.026903983 -0.013081774 -0.066578776 -0.0020507695 -0.02005206 -0.026356561
0.0015388161 -0.0100205075 0.010724159 0.0017081485 0.008837614 -0.019388733 -0.049206126 -0.0043390635
0.003866981 -0.010575481 0.022633508 -0.036057465 -0.0022036838 -0.008482993 0.0036592172 0.0029451617
-0.0024027328 0.0009877508 0.0003768764 0.024630219 0.0008516746 -0.031438198 0.00045590452 0.036858708
0.045106634 0.008930698 -0.012723205 0.021608593 0.0059574954 0.01093119 0.008077708 0.017783467
3.3075252e-05 0.0018834891 0.0031075818 3.2104997e-06 -0.027099678 -0.07325497 0.0019104441 0.04245398
0.00012903899 0.031321958 -0.002718111 -0.047646556 0.002830668 0.0068186233 -0.013387784 -0.012338689
0.0053312853 -0.008861383 0.06172743 0.0008731333 0.021997094 0.004153917 -0.0029185992 -0.001816422
0.06703729 0.0046889917 0.019740872 -0.017474694 0.00077382894 0.024906352 0.0797579 0.01524907
0.009419752 0.005567667 0.0021890132 -0.015446636 -0.00038479548 0.004673782 -0.014660675 0.06862042
-0.0011855055 0.0053925966 0.011559733 8.007881e-05 0.0042518787 -0.040953167 0.03747945 0.0044133444
0.008734142 0.017020123 0.008552985 1.4366565e-06 0.075431116 3.431432e-05 -0.0016066716 -0.002704498

conv1.lin_l.bias f4 [16]
00000000: 34de 243e b019 d23d 60ff 25bd f6ca 023e
00000010: e37a 383e 8530 36bd 5a59 3cbd d826 bc3d
00000020: 7e8f 833d 27dd 8e3d 3ee0 b33d b37e 59bd
00000030: 403e 363e da64 14bd 944a e73d 751c 643d
0.16100389 0.10258806 -0.040526748 0.12772736 0.18015628 -0.044479866 -0.04598365 0.09187096
0.06423853 0.06975775 0.08783005 -0.053099345 0.17797184 -0.036228992 0.112935215 0.0556912

conv1.lin_r.weight f4 [16, 4005]
00000000: 4fe5 24bd 9b51 163d d3ef 06bd 45bc f93a
00000010: de27 783c 6013 cdbc c084 193d 20d0 60bb
00000020: 4641 7a3c dbc0 d3bd cbe6 7e3c 7c4d c03b
00000030: 1439 d93c 1811 1bbc e61f 7dbd 7084 773d
00000040: c2c3 823d 9237 31bb e167 85bc 3c56 1e3d
00000050: 4e64 15bb c885 323a 1f83 ac3c b475 873b
00000060: c42c 913d 7991 45bd 6c7b 993b 8047 1eb9
00000070: 6783 33bd 2256 24b9 1562 82bd 1e7a 983c
00000080: a62f 063c b8a5 033c 78c4 7b3c 704e 6a3d
00000090: e9c3 883c b26d 0fbd 7b8d 1fbb 4024 40bd
000000a0: e445 2b3b 726a 0d3d 331a 573d da16 3abd
000000b0: 68b2 4bbd 60f6 823c 35fc 09be ed13 f33b
000000c0: 9d18 e53c 351d bd3d 1688 233d 7283 253d
000000d0: 599d 483c 41cd 473c e4e7 193b e3b6 683c
000000e0: 0c1c bbbb 6c0e 28bc 40fc 86bb e0a6 353d
000000f0: 8c26 f43b 9891 913d 971e 4d3d a77f 4abb
00000100: 1ba1 27bb f005 eb3b 8098 84bc d35d 513c
00000110: 03a0 083d 9491 e2bb 8ff1 063d 30db 903b
00000120: f1de bbbd 3473 533d 20c2 c5b8 8e6a 793d
00000130: bc47 a63d aef2 56bd db87 403d 611d 213d
00000140: f0b3 073d 8825 a1bd 2549 c4bd 747b 963c
00000150: 46ed 8a3a 4c47 63bd f428 f5bc c07b 85bd
00000160: f17d 1dbd 4eda 06ba a1fc 423c e59d 11bd
00000170: 78be 63bd 090c 533d 787a 333c e7fd 0e3d
00000180: 57a9 733d 3e23 00bd 209a 46bd f658 453a
00000190: a00b 3abb 4cbe 083c fa8a 9d3c b54a b23c
000001a0: 9d11 533d 30b6 bd39 4e60 a33d e8f8 27bc
000001b0: 6f7f c1bc 1b34 1b3b dc05 643d 64ec 173d
000001c0: 6a03 e43c 2797 163b c9a1 7abb ca78 2cbd
000001d0: f433 00bc a6f3 9c3c d469 33bb ef39 203c
000001e0: 8847 bfb9 36d1 64bc 2183 9abb fdfc 853d
000001f0: 5399 0dbd e0c6 363d b645 2d3d 11fa 9a3c
00000200: b2b4 6abd ca23 88b9 d413 1bbd fc97 c5b9
00000210: 26c6 cabc 5bb2 77bd 8a23 0d3b 9ee9 0e3c
00000220: 68ee 84bb 9d88 7fbc 7aeb 6c3a a3a7 1c3c
00000230: c7dd dd3c b1b7 d0bb 999d 863c b8e3 4036
00000240: 6c45 0d3c 8b8b 48bd 4265 a63d bba3 4fbd
00000250: 37f5 493d dc29 ba3d 7ead 39bd eb49 9fbd
00000260: 3a6f d33c 2579 ecbc 2083 65b9 7a83 d73b
00000270: 5223 b43c 47af c03c 7329 693b 00d3 84bc
00000280: 7acc 993b 4884 fb39 7668 813c 82f2 84bd
00000290: 5070 c8bc 1033 08bd 06e0 653d 34ba 8d3a
000002a0: 3a36 063e 3ea5 74bc f6f8 b83b 348e 583d
000002b0: 9072 d33b 7ea9 5b3d 1c86 cc3c bf66 193b
000002c0: 2154 5c3c 4120 5b3b fce9 adbd 4fcd 48bd
000002d0: 1200 71bb a83c 3b3c cea0 b83d cb53 adbc
000002e0: cdf6 463c 3deb 15be 49a6 8a3c c364 413d
000002f0: 844c a73a 9272 21bd 42e3 293c b318 923c
00000300: 3a3e 3ebd 1c88 e13c bcef 583c 3858 26bc
00000310: ea09 9c3c b6ac 81bc b3fa 153d fc1e 683c
00000320: a831 4abc 53ca e63b 7c78 233c f223 1ebd
00000330: d451 803d 5263 c13c b8ac bb39 f7de 933c
00000340: 129c 483c de43 3abd 0eab 8b3a 57c6 b4bc
00000350: 9976 c2bc abf0 e33c 4720 503c 2e4d 4b3c
00000360: b9a5 d13c 4b0a f8bb 64d0 f6bb 320c d03c
00000370: 0b90 f0bc 62b4 68bd e5a1 bbbc 5e1f 7dbd
00000380: 23f0 6dbd 2cc8 beba 45d2 20bd 58d6 96bd
00000390: 9dab 1c3c cdf9 a6bd 2db4 f2b9 e08d 0d3d
000003a0: 749f cfbd b646 033b 49df 2ebd 5b56 e33c
000003b0: fe6f d4bb 5694 6f3c 398f a7bd 13c3 2e3d
000003c0: 4e6e 9ebc ce98 0bbd 8cb7 503d d410 793c
000003d0: 7f44 0dbd 7afb 93bd 4280 9a3c 5ad1 253d
000003e0: f80f 9b3c 8684 bd3b ad35 693d 713f a3bb
000003f0: ef99 51bd 3386 ec3c 0855 3e3d 9f46 ef3b
-0.04025775 0.03669892 -0.032943558 0.0019053301 0.015146224 -0.025033653 0.037480116 -0.003430374
0.015274351 -0.10339519 0.015557955 0.005868612 0.026516475 -0.009464525 -0.061798 0.060429037
0.06384994 -0.002704118 -0.016284885 0.03865646 -0.0022795382 0.0006810096 0.021058617 0.0041339044
0.070886165 -0.048234437 0.0046839025 -0.0001509469 -0.043826487 -0.00015672346 -0.06366364 0.018612918
0.008190071 0.008035116 0.015366666 0.05720371 0.01669498 -0.035016723 -0.0024345804 -0.04690957
0.0026134187 0.034525342 0.05251522 -0.04543195 -0.04973069 0.015986621 -0.13475116 0.007418147
0.027965838 0.092340864 0.039924704 0.04040856 0.012244546 0.012194932 0.0023484165 0.01420376
-0.0057101306 -0.010257345 -0.004119426 0.044348598 0.007450884 0.07107848 0.050078 -0.003089884
-0.0025578204 0.0071723387 -0.016185999 0.012778717 0.033355724 -0.006914327 0.032945212 0.0044206604
-0.09173382 0.051623538 -9.4298506e-05 0.060892634 0.08119151 -0.05247753 0.047004562 0.03933466
0.033130586 -0.07868487 -0.09584264 0.018369414 0.0010599277 -0.055487916 -0.029926755 -0.06517744
-0.038450185 -0.0005144224 0.011901052 -0.03555097 -0.055601567 0.05152515 0.010954492 0.03491011
0.059487667 -0.03128361 -0.04848683 0.000752821 -0.0028388277 0.008346152 0.019231308 0.021764139
0.05153047 0.0003618463 0.07977353 -0.010252215 -0.023620335 0.002368218 0.05566965 0.037090674
0.02783366 0.0022978277 -0.0038243404 -0.04210738 -0.007824887 0.01915915 -0.002737631 0.009779437
-0.00036483654 -0.013965895 -0.004715339 0.06542394 -0.03457005 0.044623256 0.04230281 0.01891807
-0.05730123 -0.00025966606 -0.037860706 -0.00037688005 -0.024752688 -0.060472827 0.0021536076 0.008722691
-0.0040567406 -0.015596536 0.0009037774 0.009561452 0.02708329 -0.006369554 0.01643257 2.874278e-06
0.0086225085 -0.048961204 0.08124782 -0.050693255 0.04930612 0.09090015 -0.04533147 -0.077777706
0.025809873 -0.02886636 -0.0002188799 0.0065769525 0.021989498 0.023521079 0.0035577684 -0.016213894
0.004693565 0.00047973008 0.015796881 -0.06491567 -0.024467617 -0.033251822 0.05612185 0.0010812939
0.13106623 -0.014931975 0.005644913 0.05286999 0.006452866 0.053628437 0.024966292 0.0023407189
0.013447792 0.0033435973 -0.084918946 -0.049023923 -0.0036773724 0.011428036 0.09015046 -0.02115812
0.012143803 -0.14640518 0.016924994 0.047215234 0.0012763892 -0.039415903 0.010369124 0.017834043
-0.046446063 0.027530722 0.013240751 -0.010152869 0.019047696 -0.015829425 0.03661604 0.0141675435
-0.012340941 0.007043162 0.009977456 -0.0386085 0.062656075 0.02360693 0.00035796105 0.018050654
0.012244241 -0.04547488 0.0010655837 -0.022067232 -0.023738192 0.02782472 0.012703008 0.012408538
0.025591718 -0.0075695864 -0.0075321663 0.02539644 -0.02936556 -0.05681265 -0.022904346 -0.061797492
-0.05809034 -0.0014555505 -0.03926303 -0.073651016 0.0095624 -0.081531145 -0.00046292078 0.03455913
-0.10137835 0.002003116 -0.04269341 0.027751138 -0.006483077 0.014622768 -0.081816144 0.042666506
-0.019339707 -0.034081273 0.050956294 0.015201766 -0.03448915 -0.072257 0.018859986 0.040482856
0.018928513 0.0057836203 0.056935955 -0.004981928 -0.051172193 0.028872585 0.04646781 0.00730212

conv2.lin_l.weight f4 [1, 16]
00000000: 24a2 febd d49f c9be f27e bfb7 ab92 19be
00000010: 70cd f53d 7314 5ebc 7c26 05b9 4e6b 95be
00000020: ea32 5ebe 78fa b5be 32c4 68be 8821 163f
00000030: a147 58be ce48 b0be 24a5 dfbd 1931 a4be
-0.124332696 -0.39379752 -2.2828088e-05 -0.14997356 0.12002075 -0.01355468 -0.00012698205 -0.2918343
-0.2169911 -0.35542655 -0.22731093 0.58644915 -0.21121074 -0.34430546 -0.1092017 -0.3206871

conv2.lin_r.weight f4 [1, 16]
00000000: 788b 3dbf 73a8 4fbf 4959 06bb 4b92 72bf
00000010: 2bff 67bf c3cb fa3c 532c 0e3a a5cc 31bf
00000020: 06fd 54bf 32a5 1bbf 60ca 57bf 5b41 703f
00000030: 4c7a 4dbf 46f4 2f3f 8759 7fbf 7a8e 48bf
-0.7404094 -0.8111641 -0.0020499995 -0.94754475 -0.9062373 0.03061474 0.0005423475 -0.6945289
-0.83198583 -0.60798943 -0.84293175 0.93849725 -0.80264735 0.68732107 -0.9974598 -0.783424
