runs/25-08-2025_18-27-02__best_val_acc_0.8727/models/SGConv__val_acc_0.8566.pt (torch, 17778 bytes, 1 tensors)

conv.lin.weight f4 [1, 4005]
0.06733869 -0.06770082 0.08718899 -0.02365603 -0.002690648 0.045014713 0.02603949 0.03975134
-0.0010225185 0.16494375 -0.014847717 0.06428287 -0.022973659 -0.038385235 -0.037282795 -0.04560079
-0.18553293 -0.024037804 -0.005429389 -0.21394889 0.0058307764 0.024551868 0.0037676813 -0.0044050096
-0.56695014 0.3244303 0.008982199 0.013490789 -0.03682244 0.026240744 -0.060761668 -0.012396381
-0.032646947 -0.03197048 -0.033610962 -0.46868846 0.21030638 0.1799288 0.0075599332 0.003250691
-0.047571514 -0.084673606 -0.01329854 0.033509217 0.11160591 -0.010451938 0.29133502 0.088812076
-0.0690975 -0.12409562 -0.039330557 -0.06021776 -0.045070738 -0.07549945 0.0018742043 -0.10783816
-0.07682178 0.04422386 0.050579697 -0.007930957 0.036871172 0.0032539575 -0.045296907 -0.34852627
-0.09109569 -0.04221556 -0.15924554 -0.066315204 -0.049845073 0.07551001 -0.030843358 -0.086589485
0.028904764 -0.37244457 -0.063699976 0.07243028 -0.11929262 0.14154877 -0.013876305 0.061761707
0.054568302 0.2090927 0.67682636 -0.035657387 -0.013765727 -0.20476064 0.047730345 0.062131435
0.06039847 -0.0012276688 -0.08452553 0.1328458 0.014199598 -0.014230877 -0.014646928 -0.036892097
-0.014610327 0.06927997 0.020717354 -0.002294291 0.00014937537 0.06060467 -0.018482726 -0.028262438
-0.11774108 -0.03656011 -0.00755974 0.05879779 0.04782728 0.0033771212 -0.02622416 0.03348331
-0.0055596824 0.00084732135 0.13962834 -0.021934237 0.022995373 -0.010858751 0.008580918 -0.012938654
-0.024618246 -0.0028740359 0.021071456 -0.013807785 -0.2457388 -0.021508621 -0.06374765 -0.03262663
0.35228816 0.05607232 0.009922958 0.04911923 -0.01162663 -0.092529245 -0.00081390777 0.04099454
0.021412207 -0.16691348 0.0064451923 -0.05587543 -0.023054956 -0.04899049 -0.0079646455 0.00072096137
-0.025219055 0.03333909 -0.14299692 0.22182567 0.003245724 -0.08464429 0.30376914 0.29581085
-0.025022186 -0.14351378 -0.0040078056 0.028156394 -0.043337137 -0.038272284 -0.008626765 -0.039781112
0.056807842 -0.0015882354 -0.03662546 0.08953455 0.085463196 0.016238868 0.022045681 0.019916194
-0.20473446 0.18783163 -0.016307196 -0.032795344 -0.004632119 -0.004978905 0.039042436 -0.008276099
-0.026406618 0.028197888 0.16810025 0.57743585 -0.03043386 0.02056972 -0.09118142 -0.022439465
-0.025249157 0.17132199 -0.0081635015 -0.03840037 -0.009890153 -0.18584445 0.012866672 -0.12829782
-0.036119346 -0.020438574 -0.080244556 -0.011051884 -0.016856112 0.00029880874 -0.04559924 -0.06957837
0.005644194 -0.008686572 -0.030185824 0.060867377 0.02294736 -0.20843932 -0.03656024 -0.068440564
-0.045059536 -0.059741646 0.018207997 0.1093162 -0.012590805 -0.016023248 0.09802937 -0.03857772
0.007352183 0.061250314 0.07646899 -0.06529004 -0.18440145 0.0031690407 0.06290909 0.078574724
-0.10643947 -0.05264785 0.04143843 -0.015548783 -0.02764957 -0.0021273252 -0.04665907 -0.12849227
0.022322167 -0.043740403 0.062564574 -0.013106213 0.15260708 0.06485406 0.029832698 0.13465874
0.1520791 -0.18458186 -0.041308496 -0.11217927 0.120805256 0.28924292 -0.0971332 -0.19735624
-0.06597662 -0.022093289 -0.080530934 0.035367172 0.6688863 -0.006348846 -0.07763885 0.036398925
00000000: dee8 893d baa6 8abd 2490 b23d 4aca c1bc
00000010: 9555 30bb 5961 383d c550 d53c 4dd2 223d
00000020: 0706 86ba 04e7 283e d743 73bc bda6 833d
00000030: 4133 bcbc d639 1dbd d8b5 18bd e5c7 3abd
00000040: 58fc 3dbe eeea c4bc 04e9 b1bb 6b15 5bbe
00000050: 1910 bf3b 0021 c93c 34eb 763b e657 90bb
00000060: a523 11bf ba1b a63e 132a 133c 7808 5d3c
00000070: 20d3 16bd d4f6 d63c 3ae1 78bd 311a 4bbc
00000080: ceb8 05bd 7af3 02bd a6ab 09bd eff7 efbe
00000090: 8e5a 573e 413f 383e 51b9 f73b 8c09 553b
000000a0: 59da 42bd 5b69 adbd 1fe2 59bc f640 093d
000000b0: a491 e43d 9b3e 2bbc dd29 953e 1be3 b53d
000000c0: fd82 8dbd d825 febd 1419 21bd e6a6 76bd
000000d0: 189c 38bd 759f 9abd dca7 f53a 41da dcbd
000000e0: bd54 9dbd 1424 353d a82c 4f3d d8f0 01bc
000000f0: 3a06 173d 5940 553b 4089 39bd 0972 b2be
00000100: 6190 babd 39ea 2cbd 4311 23be 44d0 87bd
00000110: 592a 4cbd fea4 9a3d 36ab fcbc d455 b1bd
00000120: afc9 ec3c 0eb1 bebe 2275 82bd 5456 943d
00000130: b04f f4bd 29f2 103e 7159 63bc d8f9 7c3d
00000140: 0383 5f3d 661c 563e 7e44 2d3f 7b0d 12bd
00000150: a589 61bc c6ac 51be e580 433d 887d 7e3d
00000160: 6364 773d bbe9 a0ba b91b adbd bb08 083e
00000170: 6ea5 683c a028 69bc abf9 6fbc 2b1c 17bd
00000180: 2760 6fbc a8e2 8d3d 71b7 a93c d15b 16bb
00000190: a5a1 1c39 9a3c 783d 1669 97bc a186 e7bc
000001a0: 3c22 f1bd 0ec0 15bd b2b7 f7bb f4d5 703d
000001b0: 8ae6 433d b152 5d3b 0dd4 d6bc cc25 093d
000001c0: ff2d b6bb c61e 5e3a bbfa 0e3e 6eaf b3bc
000001d0: cb60 bc3c e7e8 31bc fb96 0c3c a6fc 53bc
000001e0: 34ac c9bc 525a 3cbb 0c9e ac3c 0c3a 62bc
000001f0: f4a2 7bbe d932 b0bc 218e 82bd 80a3 05bd
00000200: 1d5f b43e 17ac 653d e793 223c 3f31 493d
00000210: 9f7d 3ebc f97f bdbd 6d5c 55ba e4e9 273d
00000220: a768 af3c 5eeb 2abe 3132 d33b a3dd 64bd
00000230: bfdd bcbc 41aa 48bd 257e 02bc e6fe 3c3a
00000240: 3198 cebc 928e 083d c96d 12be 4526 633e
00000250: 36b6 543b fc59 adbd a187 9b3e 8574 973e
00000260: 54fb ccbc 47f5 12be e953 83bb 3da8 e63c
00000270: 4882 31bd 66c3 1cbd 4657 0dbc 85f1 22bd
00000280: 57af 683d 562c d0ba 9404 16bd e45d b73d
00000290: 5407 af3d 6007 853c 2599 b43c 4927 a33c
000002a0: e9a5 51be ef56 403e ab96 85bc 6954 06bd
000002b0: 08c9 97bb 1526 a3bb f6ea 1f3d 7a98 07bc
000002c0: b152 d8bc 42ff e63c 7922 2c3e d6d2 133f
000002d0: 6e50 f9bc d481 a83c 53bd babd f8d2 b7bc
000002e0: 52d7 cebc 086f 2f3e 35c0 05bc b549 1dbd
000002f0: 4f0a 22bc 024e 3ebe bcce 523c 8160 03be
00000300: e1f1 13bd cc6e a7bc 4257 a4bd f612 35bc
00000310: d415 8abc 6ea9 9c39 45c6 3abd 1b7f 8ebd
00000320: eef2 b83b 2052 0ebc 4348 f7bc 1250 793d
00000330: 1afc bb3c 1e71 55be 31c0 15bd 912a 8cbd
00000340: 5990 38bd a8b3 74bd f028 953c 2ce1 df3d
00000350: aa49 4ebc 3043 83bc 9fc3 c83d ac03 1ebd
00000360: 95ea f03b 9ce1 7a3d c69b 9c3d c9b6 85bd
00000370: bcd3 3cbe aeaf 4f3b 7bd6 803d c9eb a03d
00000380: f0fc d9bd 46a5 57bd 58bb 293d 53c0 7ebc
00000390: 5a81 e2bc 986a 0bbb 951d 3fbd 7a93 03be
000003a0: fadc b63c 2329 33bd db21 803d 71bb 56bc
000003b0: 0845 1c3e 35d2 843d b463 f43c fbe3 093e
000003c0: a0ba 1b3e 0703 3dbe 1933 29bd 3fbe e5bd
000003d0: bf68 f73d a617 943e c5ed c6bd c117 4abe
000003e0: c01e 87bd fcfc b4bc 67ed a4bd 2bdd 103d
000003f0: 223c 2b3f fb09 d0bb 1e01 9fbd 0a17 153d
