runs/_tmp_25-08-2025_18-27-02/models/GCN__val_acc_0.8619.pt (torch, 258736 bytes, 3 tensors)

conv1.bias f4 [16]
00000000: 86cf 3e3d 3642 f43c 2015 f53c 1f83 913d
00000010: be81 3c3d 22f9 253d a6d1 8c3d 998b 713d
00000020: 887b 613d db2b 743d f047 833d 8b70 6b3d
00000030: 8e70 e73c 7908 a13d 2162 9f3d 35b9 023d
0.04658463 0.029816728 0.0299173 0.071050875 0.04602217 0.040520795 0.06875925 0.05897102
0.05504945 0.059612136 0.06410205 0.057480376 0.028251912 0.07862944 0.077823885 0.03191491

conv1.lin.weight f4 [16, 4005]
00000000: 5a03 35bd 4806 2f3c aef0 6fbc b6f0 2e3b
00000010: 02b8 b73a 8f62 7abc ecf3 bfbb ba6f 82bc
00000020: b469 d63b b5db e0bc 3165 373c 613d d4bc
00000030: cd41 e43c 48d2 4b3c 5f51 c2bc 86a5 013c
00000040: 3fc7 d23c f40a c9bc fbdc 143d f48a 803d
00000050: 4a43 8abb a956 98bc 84b6 123d 94d7 693a
00000060: a3f3 0c3e 565a 0ebd c165 d5bb c66b a53b
00000070: 8197 6b3d 29ba 2abc 2199 dcbc 5961 df3c
00000080: bcfc a13a 594c 6e3c 2f7f cebb 0597 a03d
00000090: 219b 98bd fe0a 03bd 8797 86bc 9024 693b
000000a0: 264d bb3c 14e9 f2bb 5494 3c3c 3d9f 7abc
000000b0: 7eca 8fbb 3610 b83b 6837 dbbd f235 75bb
000000c0: 06de be3c 872c 873d 868a 6abc c400 593c
000000d0: f398 b1bc 5d90 b53c 0288 1e3a 0133 8b3c
000000e0: 488c 143d a85c 30bc cff6 c4bc f007 ca3b
000000f0: 7b33 f9bb e4a4 203a 5be2 b53c b92e 113d
00000100: 9d62 2c3d ba82 bebb f688 753d a432 763c
00000110: 19a5 843b 20d9 a2bd 987e 013b f6e4 d53c
00000120: ac07 2bbd f74f 9a3d 1e42 aeba 14a0 12bd
00000130: 7170 233d e9fc 123d ff99 7ebb 44b7 10bd
00000140: c3bf 4a3c 7788 bcbc 5e99 09be b539 5e3a
00000150: 520c b63b deda 3cbd 5b0f c1bc 45e6 a2bc
00000160: 1ca8 e6bc 98c5 393a e647 583c 6daf d8bc
00000170: 1816 d2bb 699f 703d 2d8e 3b3c 6583 bd3c
00000180: 9f27 52bd 5ebc febc 4789 5bbb a2cf 7dbb
00000190: b26a fabb 2dad 23bd 6059 2b3c b840 123d
000001a0: dbbe 5b3c 977c 283c c649 1f3c 808f 42bc
000001b0: 31b5 94bc aa2e b93b c971 003d 47b1 84bb
000001c0: 61ba 293d 8483 023c f88a 89bc 3e56 233c
000001d0: 72ac 89bb 9f62 edbb 9637 78bb f7c8 f73b
000001e0: 90bb 133c e53b 0f3d bc39 ce3b 34b7 ec3b
000001f0: f9d8 5f3c 11bf d5bb 6fcd 173c fc10 893c
00000200: 1f93 88bc 8e49 2c3d 90b5 283a f8d7 31ba
00000210: a0a5 083b 584d ec3c f42a 75bc 76a3 31bc
00000220: c715 6d3c 4814 d43c d395 5d3c 40a9 84bc
00000230: 140b 413c 5fe3 193c 8ae5 cd3a 1d05 8135
00000240: f6f1 a63c 3630 9bbc d506 253d 8de0 aebc
00000250: e017 753b 89f9 393d cc0b 61bd c54a 83bd
00000260: 34d6 a33a 033b 083b 3e64 d33a b62a 47bc
00000270: d3da ca3b be12 003b 7a65 d5b9 e63e 313d
00000280: 0eea 0cbd 6838 c43a e377 693c 98c0 66bd
00000290: 0081 85bd 6506 18bc 16fd 2c3c 9970 8bbc
000002a0: 1e48 af3d 1577 0ebd 98fa 1cbb c4af 063c
000002b0: 5cfa baba 4019 eab9 0e1c 333b 0cb8 f73b
000002c0: 50f7 4e3b a582 07bc 8ccc adbd 2561 a6bd
000002d0: 6a9f 2dbc b241 d63b ec84 243d 15b1 c13c
000002e0: 4ff8 023d dd7e 95bd 2713 503b b4e8 be3c
000002f0: 3fa0 a93b 2d2b ee3c 965b f13b c50e 86bc
00000300: 9a33 a03c 521a 603c 6a90 c83c d873 873c
00000310: 728e d03b 9fdd 83ba 7e76 123c 69e5 e73c
00000320: 6af7 a53c bc3e 2b3b 274d 543b 031a 11bd
00000330: 5423 b3bc 18ec f33c 7c2d 283c 4bcc eb3c
00000340: d781 b1bc dd34 013d b42c 9c3c 35e4 ffbc
00000350: 7e44 d43b 2cbf 603a 73e3 bdbc 8488 d43b
00000360: 56a9 6abb b08d 21bd ecba 7ebd 913a 263d
00000370: a5eb 71bc 95d2 62bc 82b9 17bd 6f73 84bc
00000380: 0ce6 0f3d 709f 513b 200f 08bd 64fe 863b
00000390: d8b2 953b 0ac0 433c 498f bc3d 48e5 04bd
000003a0: 5655 9cbc 14b6 933c 7ff4 473c b825 9f3c
000003b0: e4ab c03b ef1d 893c 7d44 35bd 7f12 453c
000003c0: cc85 1ebd e1bf 553d 2f47 233d ba35 083d
000003d0: c71f 06bd d449 c1bd 805e 713d 57e3 43bc
000003e0: ce43 713c ec3a 243c c8e1 e23c f262 9ebb
000003f0: 9ea8 193c bf2d c53b 6cc4 d23c 3c30 b0bc
-0.04419265 0.01068265 -0.014644785 0.0026693768 0.0014016631 -0.015282287 -0.005857935 -0.015922416
0.0065433625 -0.027448514 0.0111935595 -0.025908174 0.027863408 0.012440272 -0.023720441 0.007912999
0.025729774 -0.024541356 0.036343556 0.06276503 -0.0042194473 -0.01859601 0.03581859 0.0008920368
0.13764815 -0.03475412 -0.006512374 0.005048248 0.057517532 -0.010420361 -0.026928486 0.027268099
0.0012358646 0.01454457 -0.0063017826 0.07841305 -0.074514635 -0.031992905 -0.016429676 0.0035574771
0.022863936 -0.007413039 0.011509974 -0.015296754 -0.0043881526 0.005617167 -0.10703927 -0.0037416187
0.023299228 0.0660029 -0.014315253 0.013244811 -0.021679377 0.022163564 0.00060474884 0.016992094
0.036266595 -0.0107642785 -0.024043469 0.006165497 -0.007605014 0.0006128086 0.022202661 0.03544495
0.042086232 -0.0058139237 0.05994507 0.015026722 0.0040480015 -0.079515696 0.0019759294 0.026110154
-0.041755363 0.07534783 -0.0013294851 -0.035797194 0.039902154 0.035885725 -0.0038849113 -0.035331026
0.012374821 -0.02301429 -0.13437411 0.0008477227 0.005555668 -0.046107166 -0.023566892 -0.019885192
-0.028156333 0.00070866337 0.013200736 -0.026450837 -0.006411325 0.058745775 0.011447472 0.023133943
-0.051307317 -0.03109568 -0.0033498572 -0.0038728495 -0.0076421136 -0.039960075 0.01045832 0.03570625
0.013412203 0.010283611 0.009722179 -0.011875033 -0.018152805 0.0056513147 0.031358514 -0.0040494534
0.04143751 0.007965926 -0.016789898 0.009969292 -0.0042014653 -0.0072444226 -0.0037874929 0.0075617987
0.009016886 0.03496923 0.0062935036 0.007223988 0.01366257 -0.006523021 0.009265288 0.016731732
-0.016671715 0.042062335 0.00064357463 -0.0006784196 0.0020850673 0.028845474 -0.014963854 -0.010842195
0.014470524 0.025888577 0.01352449 -0.016193986 0.011782426 0.009392588 0.0015708667 9.612737e-07
0.020379048 -0.018943887 0.04028972 -0.021347309 0.0037398264 0.04540399 -0.05494289 -0.064107455
0.0012499751 0.0020787127 0.0016127897 -0.012156179 0.0061906367 0.0019542421 -0.00040702132 0.043272875
-0.0344029 0.0014970424 0.014249775 -0.056336015 -0.065187454 -0.009278868 0.010558387 -0.017021464
0.08558677 -0.034781534 -0.0023953076 0.008220617 -0.0014265287 -0.0004465077 0.0027329954 0.007559782
0.0031580515 -0.008270894 -0.0848628 -0.081239976 -0.010597089 0.006538593 0.040165827 0.02364401
0.031975087 -0.07299588 0.0031749697 0.02330432 0.0051765735 0.029073322 0.007365654 -0.016364465
0.019555856 0.01367815 0.024482924 0.01653473 0.006364637 -0.0010060555 0.008939384 0.028307633
0.020259578 0.0026129922 0.003239462 -0.035425197 -0.021867432 0.029775664 0.010264751 0.028783938
-0.021668358 0.031544555 0.019064285 -0.031236747 0.0064778915 0.00085734087 -0.023179745 0.0064860005
-0.0035806498 -0.039441764 -0.06218998 0.040583197 -0.014765655 -0.013844152 -0.03704215 -0.016168324
0.0351315 0.0031985901 -0.03321755 0.004119681 0.004568439 0.011947641 0.09207017 -0.032445222
-0.01908366 0.018031158 0.0122042885 0.019427165 0.005879866 0.016737906 -0.04425477 0.012028336
-0.038701817 0.052184943 0.039862808 0.033254363 -0.03274515 -0.0943791 0.058928013 -0.0119560575
0.014725639 0.010023814 0.027695552 -0.0048335725 0.00937858 0.0060174162 0.025728427 -0.021507375

conv2.lin.weight f4 [1, 16]
00000000: 80f4 23bf 4dcc 363f 3e7c 9c3f 08f6 9cbf
00000010: ad9c a33f 6059 8e3f 7c6f 61bf 6a67 37bf
00000020: 33be 28bf 1397 82bf a97f 30bf b9fc 81bf
00000030: 3769 0d3f 290f 50bf e3bc 28bf cd32 813f
-0.6404495 0.7140549 1.2225416 -1.2262583 1.2782189 1.1121025 -0.88060737 -0.7164217
-0.6591522 -1.0202354 -0.68944794 -1.015525 0.5523867 -0.8127313 -0.6591322 1.0093628
