runs/_tmp_25-08-2025_18-27-02/models/GraphSAGE__val_acc_0.8725.pt (torch, 515900 bytes, 5 tensors)

conv1.lin_l.weight f4 [16, 4005]
0	0x3ac4cd4c	0.0015014797
1	0x3c9ead26	0.019369673
2	0xbb0906f4	-0.0020908685
3	0xb8a67989	-7.9381345e-05
4	0x3b6ae8da	0.0035844357
5	0x3b1024d2	0.0021994603
6	0x3bd75e4e	0.0065725213
7	0xbbc38224	-0.0059664417
8	0x3da950bd	0.08267353
9	0xbc3d17e2	-0.011541339
10	0xba204d7c	-0.00061150617
11	0xbbc7d008	-0.0060977973
12	0xba0a0dc0	-0.0005266331
13	0x3caeeaba	0.02135216
14	0xbc0a642d	-0.008446735
15	0xbbe0423e	-0.006843834
16	0xbd0e6898	-0.034767717
17	0x3a2fff10	0.00067137275
18	0x3be2486a	0.006905605
19	0x3c958480	0.018251657
20	0x3a774756	0.0009432932
21	0xbc6c0d6a	-0.014407495
22	0xbc48902f	-0.012241407
23	0x3a1bb776	0.00059401186
24	0x3dcf06f6	0.101087496
25	0x3cadd8e1	0.02122158
26	0x3a1ed52d	0.00060589873
27	0x3c4736a3	0.0121590225
28	0x3cb67390	0.022271901
29	0xbae50e84	-0.001747564
30	0x3c610d86	0.013736134
31	0xbc2f5218	-0.010700725
32	0x37d45b4d	2.5314885e-05
33	0x3c637d0c	0.013884794
34	0x3c325811	0.0108852545
35	0xbcd32392	-0.025773797
36	0xbcb21d44	-0.02174247
37	0xbb63ac66	-0.0034740209
38	0xba71e708	-0.0009227847
39	0x3a907e16	0.0011023905
40	0x38d59cf0	0.00010185863
41	0x3bf8a4aa	0.007587989
42	0x3a47148a	0.0007594308
43	0xbbf76b8e	-0.0075506633
44	0xbcc58ece	-0.024115946
45	0x3cbeefbd	0.023307675
46	0x3c39c4b8	0.011338405
47	0xbbce35ee	-0.00629305
48	0x3ad814f2	0.0016485734
49	0xbae1c9b4	-0.001722625
50	0x3ab7cdc0	0.001402311
51	0x3a29e642	0.00064811495
52	0xb76c12e0	-1.4071091e-05
53	0xbd0672d5	-0.032824356
54	0xbb231b09	-0.002488794
55	0xb8344793	-4.2982003e-05
56	0xb914b0ac	-0.00014180195
57	0x3c1296db	0.0089471
58	0xbcb9987f	-0.022655724
59	0xba521d16	-0.00080151984
60	0xbb3dafde	-0.0028943936
61	0x3cf7f37a	0.030267466
62	0xbceca22f	-0.028885929
63	0x3d976e94	0.07394138
64	0x3ce1c5f8	0.02756022
65	0x3c168f14	0.009189386
66	0x3bf3ea47	0.0074436995
67	0x3c8cd2b5	0.017190317
68	0xbb79c938	-0.003811432
69	0x3c5b14ec	0.013371687
70	0x3b67f9c4	0.0035396675
71	0x3d0e1992	0.034692355
72	0xbc9dc0d3	-0.019256985
73	0x3d51d911	0.0512324
74	0x3b3128f4	0.0027032467
75	0xbd1c452f	-0.038151916
76	0xbd04fc05	-0.032466907
77	0xbd84ae4b	-0.06478556
78	0xbbf2d415	-0.007410536
79	0xbc9d6f79	-0.019218193
80	0xba13f451	-0.0005644011
81	0x3cb994a0	0.022653878
82	0xbd469c85	-0.048489112
83	0x3882c1ec	6.235004e-05
84	0x389b15a0	7.395004e-05
85	0x3da894bb	0.08231493
86	0x3c504a7b	0.01271307
87	0x3cb9cb71	0.022680016
88	0x38c0f4b0	9.20085e-05
89	0xbaa30338	-0.0012436872
90	0x3d3bef90	0.04588276
91	0x3ba09092	0.0049000466
92	0xb79d7a60	-1.8772844e-05
93	0x398044c0	0.00024465285
94	0x3bc57799	0.00602622
95	0xbc443db2	-0.0119776
96	0x3d4b6c24	0.049663678
97	0x3b8deb6c	0.004331043
98	0x3b2fa938	0.0026803743
99	0xb98d3885	-0.00026935726
100	0xbb3fce84	-0.002926738
101	0xb98fb850	-0.0002741241
102	0x3ae75618	0.0017649559
103	0x3baa6859	0.0052004275
104	0x3d13f508	0.036122352
105	0x3a1ca2b1	0.00059751706
106	0x3d6a1597	0.057149496
107	0x3752cb20	1.2564269e-05
108	0xbbb75c3a	-0.005595711
109	0x3c4d62d4	0.0125357695
110	0x3c4a5fbf	0.012351929
111	0x3bc719e9	0.006076087
112	0xbb650bc0	-0.003494963
113	0x3beead0d	0.007283813
114	0x3cbb1c19	0.022840546
115	0x3bbb53d8	0.005716782
116	0x3cafc3c3	0.021455651
117	0xb85bef7a	-5.24367e-05
118	0xbb885171	-0.004160099
119	0xbb12b784	-0.0022387216
120	0x3c0105be	0.007874904
121	0x3a9ff14e	0.0012202652
122	0xbb92a0ab	-0.0044747195
123	0x3b30bf9f	0.0026969684
124	0x3d5d0fd8	0.053970188
125	0xbbbd1130	-0.005769871
126	0x3a958f70	0.0011410546
127	0xbd3f1b06	-0.04665663
128	0xbd49a673	-0.049231004
129	0x3c21b8d8	0.00987073
130	0xbbd77694	-0.006575415
131	0xbbd8806a	-0.006607105
132	0x3b032b6a	0.002001489
133	0xbcaff30a	-0.021478195
134	0xbc3a56bb	-0.011373217
135	0x391d49aa	0.00015000129
136	0xb9b4a7d8	-0.0003445733
137	0xbdc2aef1	-0.09506024
138	0x39d023ee	0.0003969962
139	0xbce2c5d7	-0.027682228
140	0x3b7958f6	0.003804741
141	0x3c00e57c	0.007867213
142	0x3b4bbf7c	0.0031089475
143	0xb7271484	-9.958752e-06
144	0x3b6d6b86	0.003622742
145	0xbae209ed	-0.001724539
146	0x3c87ce26	0.016577791
147	0xbdeb884a	-0.115006045
148	0x3b32bb48	0.0027272273
149	0x3ac320f8	0.0014887145
150	0x3c0712f4	0.008244265
151	0xbca3c9ae	-0.01999363
152	0x375c5f00	1.3135141e-05
153	0x39945037	0.00028288524
154	0x3b59d164	0.0033236379
155	0x3b00760c	0.0019601611
156	0x3b3e3d61	0.0029028284
157	0x3c945db8	0.018111095
158	0x3c8dcd9e	0.01730996
159	0xbc77313c	-0.015087422
160	0x3a9fe9da	0.001220043
161	0xbb2bd0d6	-0.0026217005
162	0x3cfd71e8	0.030938104
163	0xbd091d27	-0.033475067
164	0xbd9b3e84	-0.07580283
165	0x3b0ea3b8	0.0021765064
166	0xbc4a9d49	-0.012366601
167	0xbc73d0b5	-0.014881303
168	0xba6f47ca	-0.0009127824
169	0x3c5670d4	0.013088424
170	0x3c18ff6b	0.00933824
171	0x3be013d8	0.006838303
172	0x3b2e5386	0.0026600077
173	0xbbe5c758	-0.007012289
174	0xbc9565f0	-0.018237084
175	0x3b8faca0	0.004384592
176	0xba1ba568	-0.0005937428
177	0xbbb94fdb	-0.0056552715
178	0x3cfb50a6	0.030678105
179	0xbd98512b	-0.074373566
180	0xbba0484f	-0.0048914324
181	0xbaf9c8f3	-0.001905708
182	0xbca3fbbb	-0.020017495
183	0x3cc36614	0.023852386
184	0x39123872	0.00013944673
185	0x3a3f2ffc	0.0007293222
186	0xb9857fd4	-0.00025462976
187	0x3d15f032	0.03660602
188	0x3ba5251c	0.005039824
189	0xbd26ab78	-0.04069087
190	0xbadcdff0	-0.0016851407
191	0x3c90253e	0.017595883
192	0x3d317783	0.043326866
193	0xbc563d3b	-0.013076122
194	0xbcd9b290	-0.026574403
195	0x3dc1adff	0.09457015
196	0xbab56d2c	-0.001384174
197	0xba83dd8b	-0.0010060532
198	0x3c9e3ed0	0.01931706
199	0x3c30a12a	0.010780612
200	0x38c24c8a	9.2648974e-05
201	0x3b62ba9e	0.0034596096
202	0x3b0c3d43	0.002139882
203	0xb7263830	-9.907453e-06
204	0xbc52d96d	-0.012869221
205	0xbd48a45a	-0.048984863
206	0x3a1884f4	0.00058181514
207	0x3d8321f8	0.064029634
208	0x382809fc	4.006362e-05
209	0x3d1fc707	0.039008167
210	0x3bdf67f8	0.006817814
211	0x3c42ebc9	0.011897036
212	0x3bcb01b2	0.0061952705
213	0x3b52478d	0.0032086105
214	0xbbc2dd1a	-0.0059467675
215	0xbc995430	-0.018716902
216	0x3afda24a	0.0019350734
217	0xbad7dd0a	-0.0016469073
218	0x3cd1b0be	0.025596973
219	0x3b4ae359	0.0030958264
220	0x3d1bf542	0.038075693
221	0xbbfb693f	-0.0076724584
222	0x3c2d2055	0.010566791
223	0xbba62150	-0.005069889
224	0x3d6ec888	0.05829671
225	0x3c1b314a	0.009472201
226	0x3c9cbb31	0.019132229
227	0xbc295fa9	-0.010337749
228	0xba6f666a	-0.00091323873
229	0xbbafe7e1	-0.0053682183
230	0x3c449f96	0.012000939
231	0x3cae306f	0.02126333
232	0x3bfa79cd	0.0076439143
233	0x3c00a353	0.0078514395
234	0xbbb680fd	-0.005569576
235	0xbca3974c	-0.019969605
236	0xbc40090a	-0.011720905
237	0x3c290ca9	0.01031796
238	0xbb7cb7b1	-0.0038561637
239	0x3ccd4137	0.02505551
240	0x3cc03779	0.023463951
241	0x3c003e36	0.007827332
242	0xbb16a355	-0.0022985537
243	0x39788754	0.00023701537
244	0xbbc4eac5	-0.006009432
245	0xbcaa336d	-0.020776475
246	0x3c9152ab	0.017739614
247	0x3b4233aa	0.0029632845
248	0x3c75176a	0.014959196
249	0x3c7f1852	0.015569763
250	0x3cce5745	0.025188098
251	0xb42bb640	-1.5991918e-07
252	0x3d979307	0.0740109
253	0xb82bb316	-4.0936364e-05
254	0x3a6605ea	0.0008774685
255	0x3b4c3c56	0.0031163893

conv1.lin_l.bias f4 [16]
0	0x3e227ada	0.15867177
1	0x3dc39e09	0.09551627
2	0xbd36a051	-0.044586483
3	0x3e0049cc	0.12528151
4	0x3e377a43	0.17917733
5	0xbd471cd1	-0.048611466
6	0xbd47dcbb	-0.04879449
7	0x3db11540	0.08646631
8	0x3d741a6d	0.059595514
9	0x3d80bef2	0.0628642
10	0x3da8c120	0.08239961
11	0xbd5b3bca	-0.053523816
12	0x3e37e5ac	0.17958707
13	0xbcae0041	-0.021240355
14	0x3ddfb2cd	0.109227754
15	0x3d54bd05	0.051938076

conv1.lin_r.weight f4 [16, 4005]
0	0xbc8ccb8c	-0.017186902
1	0x3cd0538c	0.025430463
2	0xbb303c02	-0.0026891236
3	0x3c273790	0.010206118
4	0x3ab7d382	0.0014024826
5	0x3caafe5f	0.020873247
6	0x3d860249	0.065434046
7	0xbb3391bb	-0.0027400095
8	0x3c715abb	0.0147311045
9	0xbdc802c9	-0.09766156
10	0x3cad2063	0.021133607
11	0xbc8cc17f	-0.01718211
12	0x3c4925d4	0.012277085
13	0x3c5e90dc	0.013584342
14	0xbcb7ad44	-0.022421487
15	0xbb160069	-0.0022888428
16	0x3d72d0ca	0.059281148
17	0xbb97a23f	-0.0046274955
18	0x3c5c7e3f	0.013457834
19	0x3d0cdc3b	0.034389716
20	0xbc5327ba	-0.0128878895
21	0x3b5d9246	0.003380911
22	0x3b95100e	0.004549033
23	0x39e0868c	0.00042824855
24	0x3d9664c4	0.07343438
25	0xbd7b722e	-0.061388187
26	0xbb8c047b	-0.004272995
27	0x3c205964	0.009786937
28	0xbcbff15f	-0.023430524
29	0x393e0c08	0.00018124294
30	0xbc8f3a86	-0.01748396
31	0x3c0ae795	0.008478065
32	0xba6550ee	-0.0008747716
33	0x3ca511de	0.020150121
34	0x3bca4c8d	0.0061736763
35	0x3d891f62	0.06695439
36	0xbc5da807	-0.01352883
37	0xbc7e1007	-0.015506751
38	0xba76e8b2	-0.00094188296
39	0xbd1bcf5d	-0.038039554
40	0xbd73b3e7	-0.05949774
41	0x3d6be22d	0.057588745
42	0x3ce9452d	0.028475368
43	0xbb95e85c	-0.0045748185
44	0xbc8d1967	-0.017224027
45	0x3bc64680	0.0060508847
46	0xbe0cf77d	-0.13766284
47	0x3c513c90	0.012770787
48	0x3d0fabbe	0.035075895
49	0x3ca2dfb5	0.019882062
50	0x3d17de84	0.03707744
51	0x3d842d3e	0.06453942
52	0xbd2457e0	-0.040122867
53	0xb9b53580	-0.0003456287
54	0xbb6fa9a8	-0.003656963
55	0x3d33e82d	0.043922592
56	0x3ceac1ac	0.028656803
57	0x3b0a5dec	0.002111311
58	0xbb44c805	-0.0030026447
59	0x3b51272c	0.0031914217
60	0xba0ccee8	-0.00053714076
61	0x3d5f4433	0.0545084
62	0x3d320ea0	0.04347098
63	0x3d2cce09	0.042188678
64	0xbd332f2f	-0.04374617
65	0x3cae86e2	0.021304552
66	0x3d91e056	0.07122867
67	0xbd24e00a	-0.040252723
68	0x3cae78b4	0.02129779
69	0xbd0a75ee	-0.033803873
70	0x3c9e00c7	0.01928748
71	0x3c65417b	0.013992663
72	0xbd950419	-0.07276172
73	0x3d8a504c	0.06753597
74	0x3c051c21	0.008124382
75	0x3ce48bc4	0.027898677
76	0x3d8ee767	0.0697773
77	0xbd812fb2	-0.06307925
78	0x3d188f8d	0.037246276
79	0x3d3c4a6e	0.04596942
80	0x3d2cdd09	0.042202983
81	0xbced2b37	-0.02895127
82	0xbd8de1ca	-0.069278315
83	0x3cb8c9c2	0.022557143
84	0x3b5542bf	0.0032541004
85	0xbd913bb3	-0.07091465
86	0xbc0ddb6a	-0.008658269
87	0xbd73a0a0	-0.059479356
88	0x3ca21012	0.019783054
89	0x39f168df	0.00046045237
90	0xbc2943e6	-0.01033113
91	0xbd2b324b	-0.04179601
92	0xbbb42506	-0.0054975776
93	0x3b831520	0.004000321
94	0x3c2c1186	0.010502225
95	0x3da3d937	0.08000415
96	0x3d715e9c	0.058928117
97	0x3b4e5431	0.0031483287
98	0xbb962485	-0.00458199
99	0x3b9fbdb8	0.004874911
100	0x3c5dc4cd	0.0135356905
101	0x3cfefa35	0.031125167
102	0x3d074ffb	0.03303526
103	0x3cfb9c6b	0.030714234
104	0x3d7bc8e4	0.06147088
105	0xbaaa725e	-0.0013004055
106	0x3d59aa3e	0.05314087
107	0xba2272b8	-0.0006196904
108	0xbcc246e8	-0.023715451
109	0x3b6c755c	0.0036080694
110	0x3d953d82	0.07287122
111	0x3c395d7b	0.011313791
112	0xbd0e10e4	-0.034684077
113	0xbcb71681	-0.022349598
114	0xbd06d752	-0.03292019
115	0xbd17ff02	-0.03710843
116	0x3b1c8ece	0.002388883
117	0x3bceaaf4	0.0063070003
118	0xbab092ec	-0.001347152
119	0x3c35e6e5	0.011102413
120	0x3cb0c321	0.02157742
121	0xbc589794	-0.013219733
122	0xbca6fad2	-0.020383272
123	0x3d0ebdcb	0.03484897
124	0xbce35a97	-0.027753158
125	0x3bbff5b6	0.0058581484
126	0x3d99bdee	0.07506929
127	0x3d0ea32e	0.03482359
128	0xbd623739	-0.055228446
129	0xbb2b0014	-0.0026092576
130	0xba63feae	-0.0008697313
131	0x3ba844fc	0.0051351767
132	0xbc59dcf0	-0.0132973045
133	0x3bc1049b	0.0058904416
134	0x3cb989fe	0.022648808
135	0x3c157d44	0.009124104
136	0xb8f4c46a	-0.000116714116
137	0xbbcf9aa2	-0.0063355723
138	0xbcac51b7	-0.021035058
139	0x3d1ee9f5	0.038797338
140	0x3c800388	0.015626684
141	0x3a145ec0	0.0005659871
142	0x3b14346e	0.0022614258
143	0x376ed4ae	1.4235424e-05
144	0x3c8a40de	0.016876634
145	0xbd36f82b	-0.044670265
146	0x3d97a47e	0.07404421
147	0xbd53e1dc	-0.05172907
148	0x3c23843b	0.009980257
149	0x3d10d825	0.03536238
150	0xbd762a1e	-0.06009876
151	0xbde51d88	-0.11187273
152	0x3bd9b84f	0.0066442857
153	0xbcdc16c4	-0.026866324
154	0x3aa38de9	0.0012478206
155	0x3c4365b1	0.011926101
156	0x3c9a7275	0.018853405
157	0x3d06e019	0.03292856
158	0xb94b4d20	-0.0001938832
159	0xbcd9a442	-0.026567582
160	0xbd332451	-0.043735806
161	0x3c447ff0	0.011993393
162	0x3c97bafe	0.018521782
163	0xbc733fde	-0.01484677
164	0xbcacf30a	-0.021111984
165	0x3cb2760b	0.021784803
166	0xbca06ac2	-0.019582156
167	0xbc29c1e7	-0.010361171
168	0x3ddd4849	0.10804803
169	0xbc13e102	-0.009025814
170	0x3cc849e0	0.024449289
171	0x3ccb5734	0.024821855
172	0xbb9c8ca0	-0.004777506
173	0x3c4fd39d	0.01268473
174	0x3c2d26eb	0.010568361
175	0x3a5b6c52	0.0008370328
176	0x3a861866	0.001023066
177	0x3954a2e0	0.00020278571
178	0xbd724c98	-0.059155077
179	0xbd3fc55b	-0.046819072
180	0xbbeffcf2	-0.0073238546
181	0x3cb6c52c	0.022310816
182	0x3dccc1a9	0.09997875
183	0xbc4963ed	-0.012291891
184	0x3c82f3ac	0.015985332
185	0xbcc46a09	-0.023976343
186	0x3c1efcad	0.009703797
187	0x3d12e7fe	0.035865776
188	0x3c404640	0.011735499
189	0x3c0c8bdc	0.008578267
190	0xbd13e337	-0.03610536
191	0x3cae77fc	0.021297447
192	0xbd3fdfd6	-0.046844326
193	0x3cb1bd33	0.021696663
194	0xbcbf82b9	-0.023377763
195	0x3cf413c1	0.029794576
196	0x3cdb73be	0.026788589
197	0xbd65befa	-0.056090333
198	0x3cd574f3	0.026056742
199	0x3c7fadf7	0.015605441
200	0xbbe3059d	-0.0069281594
201	0xbc3796c2	-0.011205377
202	0x3cc700b0	0.02429232
203	0xbcfcb656	-0.030848663
204	0x3b25446f	0.0025217792
205	0x3cea6cac	0.028616272
206	0xbaa9e2a4	-0.0012961221
207	0x3d163731	0.03667373
208	0xbd2454d6	-0.04011997
209	0xbca2785c	-0.019832782
210	0xbb0a31aa	-0.002108673
211	0xbca9f7f4	-0.020748116
212	0xbd166233	-0.036714744
213	0x3c51383b	0.012769754
214	0xbc86640e	-0.016405132
215	0x3c87145a	0.016489197
216	0x3c15ecc6	0.0091506895
217	0x3be51ab6	0.0069917096
218	0xbc1a2aeb	-0.0094096465
219	0x3ce41e0d	0.02784636
220	0x3c87a234	0.016556837
221	0xbca4c207	-0.02011205
222	0xbd920997	-0.07130735
223	0xbcdb1def	-0.026747672
224	0xbd62a57a	-0.055333592
225	0xbcc31a0f	-0.023816137
226	0xbc27028c	-0.010193478
227	0xbd23686b	-0.039894503
228	0x3bc521f7	0.006016012
229	0xbd00dd82	-0.031461246
230	0x3ca287cd	0.019840145
231	0x3bad48f7	0.005288239
232	0xbd8b0dd4	-0.06789747
233	0x3b94a698	0.004536461
234	0xbcd7aab8	-0.026326522
235	0x3c4553ab	0.012043874
236	0x3b8b7799	0.0042562005
237	0xbcbd6b1e	-0.023122367
238	0xbdb07dc9	-0.086177416
239	0x3cc3d092	0.023903165
240	0xbce3eb04	-0.027822025
241	0xbd0e4a6f	-0.034738954
242	0x3d4acac1	0.049509767
243	0x3d213e42	0.039366014
244	0xbd995505	-0.07486919
245	0xbda522ae	-0.08063255
246	0x3cd80068	0.026367381
247	0x3d2b366a	0.04179994
248	0x3d63e6cf	0.055640038
249	0x3abbdbde	0.0014332493
250	0x3d11e498	0.035618395
251	0x3c2cea58	0.010553919
252	0xbd9f0ef1	-0.07766522
253	0x3cc2ef1a	0.023795653
254	0x3d38fd91	0.045163695
255	0xbca21e27	-0.019789768

conv2.lin_l.weight f4 [1, 16]
0	0xbdd14d62	-0.10219838
1	0xbebac830	-0.36480856
2	0x3a4c7a58	0.0007800213
3	0xbe073a9d	-0.13205953
4	0x3de6ef83	0.11276152
5	0xbcd12c06	-0.025533687
6	0xb912f423	-0.00014014593
7	0xbe8a510f	-0.27014968
8	0xbe4ba52d	-0.19887228
9	0xbea88b4b	-0.32918772
10	0xbe576386	-0.21034059
11	0x3f087bc9	0.5331388
12	0xbe3a33ee	-0.18183872
13	0xbec7f70b	-0.39055666
14	0xbdb5b4e8	-0.08872396
15	0xbe9911b7	-0.29896328

conv2.lin_r.weight f4 [1, 16]
0	0xbf2ab3ec	-0.6668079
1	0xbf375053	-0.7160694
2	0xbb7db129	-0.0038710332
3	0xbf5b3995	-0.8563474
4	0xbf4e98b1	-0.8070174
5	0x3d2e594e	0.042565636
6	0x3b0b26be	0.002123281
7	0xbf201bb1	-0.62542254
8	0xbf41ab23	-0.7565176
9	0xbf0a4fa7	-0.5402779
10	0xbf43355d	-0.762533
11	0x3f5c4b46	0.8605236
12	0xbf393614	-0.7234814
13	0x3eec801c	0.4619149
14	0xbf667afe	-0.9003142
15	0xbf360ef7	-0.71116585
