runs/25-08-2025_18-20-48__best_val_acc_0.8666/models/GCN__val_acc_0.8594.pt (torch, 258736 bytes, 3 tensors)

conv1.bias f4 [16]
00000000: 8afd 833d 329f 453d 935b 613d f6ff 693d
00000010: 1531 743d dacb 3d3d e3c4 863d 73a3 8e3d
00000020: f313 3fbd d37f a83d 3975 8f3d dfab 7e3d
00000030: 54c8 1f3d 57d1 223d 5e35 f9bc 6ab0 973d
0.06444843 0.048247524 0.055018973 0.05712887 0.05961712 0.046336986 0.06580522 0.06964769
-0.046649884 0.082275055 0.0700478 0.062175628 0.039009407 0.039750423 -0.030420955 0.07406695

conv1.lin.weight f4 [16, 4005]
00000000: 1505 2dbd e41f 003d 39d3 20bb 1850 a3b9
00000010: 50d0 c3bb be54 183a db9a 8d3c 8a63 f9bc
00000020: 04d5 4a39 bd64 8bbd b013 153a 6111 79bd
00000030: af87 a3bc 354b eabc 00dc 783c 5e4b 303d
00000040: abe7 e23d 13bb b8bc ddf8 2ebd f4ea 93ba
00000050: a06b 173b 8c7f dc39 0b0d 6abd e27e 123c
00000060: 1666 2c3d 1eab cdbd 2a8d f43b 7d6e 803c
00000070: 1d73 aebd c492 603b 0da8 623d e126 c83c
00000080: 93ad 7b3c 7ff6 6c3c 26c7 083c 6046 a13d
00000090: dd64 5bbd 44b6 f5bc 17e2 dcbc 4eba d0bc
000000a0: 1113 7d3c 9fc1 f2bc 7d7d 283c f322 80bd
000000b0: 700c 933b 0d46 94bc 7b7a 95bd d7ce 663b
000000c0: c4a7 ae3c 7d60 6d3c b466 03bc d507 3f3d
000000d0: 3836 943c f51c 283d a039 04bc 9245 2439
000000e0: d35d 79bd 0ae0 83bd 3fb3 4ebb 458a fbb9
000000f0: e0ee a3bb 9be3 5e3c 3a84 aa3a e5a4 0a3e
00000100: b52c 8b3d d651 ad3b 0eaf d33d 645f f1bc
00000110: 76df 083c 6c50 8ebd 3619 843c f278 d4bd
00000120: 0194 813c 4f46 b83d eda7 413d 7c0f bfbd
00000130: ef2f 813d 8846 2abc 0617 f8ba 0d7b 4fbc
00000140: b079 fa3c a747 d0bd 0e3a 5dbe d879 ea3b
00000150: 9de4 7d3c 428b ab3c d317 14bc c4d5 b5b9
00000160: b590 66bc ea93 b63a 7c47 7abc 4af7 13be
00000170: 1a65 a8bc 5ab1 653d 9631 183d bac8 553c
00000180: fc62 76bc be1f 73bd 57ac 003b bf7c 413b
00000190: 202c 01bb 80c1 12bc 6622 243c cf05 29bd
000001a0: 0069 153d e735 07bd 3090 773c 721f 043b
000001b0: a4ce 1e3a a4b3 d43b dca9 423d 017d cb3c
000001c0: e36e 6c3c 1ecd 31bd 7fd6 0f3c e137 283c
000001d0: bdf0 1a3a 1e0e f23a 24c2 2e3b 7d8b 36bc
000001e0: 6832 a03b 56dd 8d3b e3b6 8ebb eb27 023c
000001f0: 554d 923c cf28 37bd f0f1 4b3d 6aab 2fbd
00000200: 2939 c2bd 2a58 073b b801 8e3a 0130 8a3b
00000210: d78d 0e3c 85f8 113d 549e 733b d59d 843d
00000220: 2314 6fbc 16a4 793c 7e1e d4bb f71e 83bd
00000230: aacf 993c 8cc8 223d 20db 9dbc 784a 1b34
00000240: f38e 353d a0c1 07bc f900 123d 07b6 15bd
00000250: 436e 7dbd 81a0 3d3d 924d 41bd c892 c8bd
00000260: 8288 4d3c 5c3a cc3c 4801 db3a 7dc6 f23b
00000270: af36 e83c 932f bf3c 6623 b63b 9462 9ebd
00000280: 9e75 8abb d939 e6bb 1a19 a33c bc9b 96bd
00000290: f72f 0a3d 7808 a638 0f37 183c 340b 6abc
000002a0: 0b3b 163d 9b2a 36bd a0c0 683c 053f 863c
000002b0: 8f39 343a 83ea 1aba c50e 1a3d 5fbf 123d
000002c0: 7f83 923b d012 d235 b763 85bc 7af3 a0bd
000002d0: 175c 3f3c 9ed0 2ebd dd54 973d 986e 2c3b
000002e0: 1e79 d73b 0844 9ebd 3ee0 5f3b 9afa be3c
000002f0: 16e6 013c 2dcc 8cbd 6ba8 803c d520 083d
00000300: 9c8d 943d 4d7f 403c f9ee a8bc aff0 bf3d
00000310: 7810 1bbb 76e4 423a fd57 a23c ac00 3e3d
00000320: 5a78 563b 0efb db3c 2855 733b 0ea3 8bbc
00000330: 54fc af3c c83b 893d 3671 07bd 9b39 d13c
00000340: 3847 943c 91a9 b2bc 11b1 afbb c6df 1cbc
00000350: 7024 dcbb 37d2 f43a 6f2b 603d 6876 093c
00000360: 95e1 28bd 0e1e 3fbd 0e69 6cba 3358 183c
00000370: 9901 a43d b92c 45bc 23a2 94bd cfd8 e4bc
00000380: b84f 9abc e9cb 473d 2a62 55bd 338d c63b
00000390: 565b 9e3c d0fa e03b 7bdc 9c3d fba0 843d
000003a0: 6e8c b6bd 2685 423d 9e7d 1c3d 427d 88bc
000003b0: f7c1 6abb 97b4 cbbd 151d f2bc 21e0 87bc
000003c0: cdf9 213c c63e 20bc 4a51 da3c 2810 013b
000003d0: c25a babc 2ff0 5fbd eee4 8bbd c695 bf3c
000003e0: 9a1f 253d 7109 e13c 4443 0b3d 18bf b1b3
000003f0: a46a 0cbe 97ac a53b d868 4d3c 443d cb3c
-0.042241175 0.031280413 -0.002453996 -0.00031149457 -0.0059757605 0.00058109674 0.017285755 -0.030442972
0.00019343576 -0.06806324 0.00056868326 -0.06080759 -0.01996216 -0.028600315 0.015189171 0.043040626
0.110793434 -0.022550141 -0.042717803 -0.0011285231 0.002310492 0.000420567 -0.057141345 0.008941384
0.042089544 -0.10042404 0.007463117 0.015677685 -0.0851805 0.0034267167 0.055336047 0.024432601
0.015361208 0.014463066 0.008348262 0.07874751 -0.053562988 -0.029994138 -0.026963277 -0.025479462
0.01544644 -0.029633341 0.010283825 -0.06256666 0.0044875666 -0.018099809 -0.07298752 0.00352185
0.021320231 0.014488337 -0.008020092 0.04663833 0.01809226 0.04104324 -0.0080703795 0.00015666176
-0.060880493 -0.064392164 -0.0031539944 -0.0004797747 -0.0050028414 0.01360407 0.0013009377 0.13539465
0.067956366 0.0052892966 0.103361234 -0.029464431 0.0083540585 -0.06948933 0.016125303 -0.10374631
0.015817644 0.08997785 0.047279287 -0.09329125 0.06307971 -0.0103927925 -0.001892776 -0.012663615
0.030575603 -0.101699166 -0.21604177 0.007155638 0.0154964 0.020940427 -0.009038883 -0.00034682278
-0.014072587 0.001392958 -0.015275832 -0.14449802 -0.020556021 0.05607734 0.037156664 0.013048345
-0.015038248 -0.059356444 0.0019633973 0.0029523817 -0.0019710138 -0.008957267 0.010017967 -0.041265305
0.03647709 -0.03301039 0.015110061 0.0020160344 0.00060580135 0.0064911414 0.04752527 0.02483988
0.014430734 -0.043408506 0.008779167 0.010267229 0.00059105066 0.0018467342 0.002666601 -0.011141655
0.0048888214 0.004329364 -0.004355298 0.0079440875 0.01785914 -0.044716652 0.049791276 -0.042888083
-0.09483559 0.0020651915 0.0010834252 0.0042171483 0.008700809 0.035637397 0.0037173228 0.064754166
-0.014592203 0.015236875 -0.0064733615 -0.064023905 0.01877578 0.039742038 -0.019269526 1.4462591e-07
0.04432578 -0.00828591 0.03564546 -0.036550548 -0.061872732 0.046295647 -0.047193117 -0.09793621
0.012544753 0.024930172 0.0016708756 0.0074089156 0.028346388 0.023338115 0.005558419 -0.07733646
-0.004225447 -0.007025939 0.01990943 -0.07353923 0.03373715 7.917074e-05 0.009290471 -0.014284898
0.0366774 -0.044474225 0.014206082 0.016387472 0.0006875032 -0.0005909579 0.03761174 0.035827037
0.004471242 1.5651694e-06 -0.0162829 -0.078589395 0.011679671 -0.04267942 0.07389233 0.0026311036
0.0065757176 -0.0772782 0.0034160758 0.023312856 0.007928392 -0.06874881 0.015705308 0.033234436
0.07253572 0.011749101 -0.020621764 0.093720786 -0.002366094 0.0007434556 0.019817347 0.04638736
0.0032725544 0.02685311 0.0037129615 -0.017045524 0.021482624 0.067008555 -0.03306695 0.025540164
0.018100366 -0.021809371 -0.005361684 -0.009574836 -0.006718211 0.0018678372 0.05472892 0.008390047
-0.041230757 -0.04665952 -0.000901834 0.009298372 0.08008117 -0.0120345885 -0.072574876 -0.027935414
-0.018836841 0.04877845 -0.05209557 0.0060593127 0.019330662 0.0068658367 0.07659241 0.06476017
-0.089135036 0.04749026 0.038205735 -0.01666129 -0.0035821178 -0.09946554 -0.029554883 -0.016586365
0.009886217 -0.009780591 0.02665009 0.0019693468 -0.022748355 -0.054672416 -0.06830774 0.023386847
0.04031334 0.027470322 0.033999696 -8.2769645e-08 -0.13712555 0.0050559747 0.012537204 0.024809487

conv2.lin.weight f4 [1, 16]
00000000: a556 9dbf e392 b83f a4be 63bf 0a01 b4bf
00000010: 0e9c 39bf 2594 2f3f ef15 2dbf 412e 95bf
00000020: 0a3b 4a3d 1ba3 8bbf 4cd4 41bf 3308 96bf
00000030: 463c 6fbf ecfd 813f 4224 e43a 0a5e 87bf
-1.2292067 1.4419826 -0.8896277 -1.4062817 -0.72503746 0.68585426 -0.67611593 -1.165474
0.04937271 -1.0909151 -0.75714564 -1.1721252 -0.93451345 1.0155616 0.0017405825 -1.0575573
