runs/25-08-2025_18-20-48__best_val_acc_0.8666/models/GraphSAGE__val_acc_0.8666.pt (torch, 515900 bytes, 5 tensors)

conv1.lin_l.weight f4 [16, 4005]
0	0x3bd8e122	0.006618635
1	0x3cb93044	0.022606023
2	0x3d157664	0.03648986
3	0x3b0040f0	0.0019569956
4	0xbb34cacf	-0.0027586704
5	0x3c36c816	0.011156103
6	0xbc9102c0	-0.017701507
7	0x3b82c810	0.0039911345
8	0x3dc47f08	0.09594542
9	0x3c97850c	0.018496059
10	0xba6f2b9c	-0.0009123625
11	0x3c0fc977	0.00877606
12	0xbbbf136d	-0.005831173
13	0x3a6f1ea6	0.00091216934
14	0x3d42f622	0.04759801
15	0xbcb73334	-0.022363283
16	0x3b278b74	0.0025565298
17	0xbbbcf4cc	-0.0057664867
18	0xbc519340	-0.012791455
19	0x3cb075ff	0.02154064
20	0xbc739883	-0.014867905
21	0x3c5438f0	0.012953028
22	0xbd2063c7	-0.039157655
23	0xbb2212ce	-0.0024730447
24	0xbcb7a4fb	-0.022417536
25	0xbc0eb9a1	-0.00871125
26	0xbb85eff5	-0.004087443
27	0xbb3d982c	-0.0028929813
28	0x3ccdaad7	0.025105877
29	0x39abcc46	0.00032767857
30	0x3c687ab2	0.014189409
31	0x39a99240	0.00032343157
32	0x366eb200	3.5568373e-06
33	0xbb26decc	-0.0025462387
34	0xba9e7dfe	-0.0012091992
35	0xbd721e91	-0.05911118
36	0xbc620fa8	-0.013797678
37	0xbcb46b9b	-0.022023967
38	0xbb58fc88	-0.0033109505
39	0xbb41ecbf	-0.0029590575
40	0x3a983372	0.0011612012
41	0xbc80c6d3	-0.015719807
42	0xbb13d02b	-0.0022554498
43	0xbc04fcac	-0.008116882
44	0xbc8f7aaa	-0.017514545
45	0xbcabca4e	-0.02097049
46	0xbd3a7abb	-0.0455272
47	0x3c149a92	0.009070056
48	0x3ce6264a	0.02809443
49	0xbcc5a0f6	-0.024124604
50	0x3bbb4fe9	0.005716313
51	0x3b1e479e	0.0024151574
52	0x38f83d48	0.00011836976
53	0xbc21faed	-0.0098864855
54	0xbaef7779	-0.0018269859
55	0x389f78d0	7.604214e-05
56	0x393f3245	0.00018233906
57	0x3bc44db1	0.005990707
58	0x3c25de7a	0.010123843
59	0xb8053320	-3.1757285e-05
60	0x3ba0d332	0.004907989
61	0x3d1d0cbe	0.03834223
62	0xbcec5698	-0.028849885
63	0x3bd5f3b9	0.006529298
64	0x3c9ebec0	0.019378066
65	0xbada5f90	-0.001666056
66	0x3b9ef728	0.0048512407
67	0x3d9f1581	0.077677734
68	0x3ce92326	0.028459143
69	0xbda0601c	-0.078308314
70	0x3d3a25e9	0.04544631
71	0xbaa21bb0	-0.0012367871
72	0xbca67b6e	-0.020322528
73	0x3c985d94	0.018599309
74	0x3cf3da2f	0.029767124
75	0x3caad385	0.020852813
76	0x3d3a77e2	0.045524485
77	0xbd26cf62	-0.04072512
78	0xbc0947c2	-0.008378925
79	0xbd485bfe	-0.048915856
80	0xbc20ed3d	-0.009822187
81	0x3c9a2372	0.01881573
82	0xbddc9450	-0.10770476
83	0x382e378c	4.1536565e-05
84	0x3b1af0f3	0.0023642152
85	0xbd6ff5a5	-0.058583874
86	0x3b62aab0	0.00345866
87	0x3c758333	0.014984894
88	0xb982700a	-0.00024879008
89	0xbcf063e3	-0.029344505
90	0x3d49b04a	0.049240388
91	0xbd5da946	-0.05411651
92	0xbb251f72	-0.0025195745
93	0x3cfda462	0.030962173
94	0x3a8e4f57	0.0010857385
95	0x3ad189f8	0.0015986552
96	0x3b43d1a6	0.00298796
97	0xbbe38b8e	-0.0069441264
98	0xbb6865c8	-0.0035461057
99	0x3b14f6ff	0.002273023
100	0x3b50ffd0	0.0031890757
101	0x3c84e69a	0.01622324
102	0x3c38e0d6	0.011284074
103	0x3bcf9df1	0.0063359668
104	0x3c38f370	0.011288509
105	0x3a3771c2	0.0006997847
106	0x3d4f5384	0.050616756
107	0x39ed7010	0.00045287656
108	0x3ce5b0a6	0.028038334
109	0xbc4a4f4e	-0.012348009
110	0x3c80fe10	0.015746146
111	0x39daf8a4	0.00041765452
112	0xba778c13	-0.0009443175
113	0x3b9c067f	0.0047615166
114	0x3ce146d5	0.027499596
115	0x3ce19daa	0.027541
116	0x3c4ad45b	0.012379731
117	0x3843038c	4.6494926e-05
118	0xbbd4dc46	-0.006495985
119	0xbb154820	-0.0022778586
120	0x3c151d68	0.009101249
121	0xbb288c30	-0.0025718324
122	0xba7941e4	-0.00095084147
123	0x3aed9e61	0.0018128866
124	0x3d478942	0.048714884
125	0x3b0cddec	0.002149458
126	0xbc1cd2d1	-0.009571747
127	0xbcda6999	-0.026661681
128	0x3ca547ba	0.020175803
129	0xbcb81873	-0.022472596
130	0xbc69a108	-0.014259584
131	0x3be6110f	0.0070210765
132	0x3b9e83e1	0.0048374985
133	0x3abfbde0	0.0014628731
134	0xbccb300b	-0.024803182
135	0x3a41b184	0.00073888176
136	0x39890d98	0.00026140804
137	0xbda7c736	-0.08192293
138	0x3a1dae06	0.0006015006
139	0xbd08bd0b	-0.03338341
140	0x398d34f8	0.0002693308
141	0xbcbf3502	-0.023340706
142	0xbc76a7bc	-0.015054639
143	0xb4e17822	-4.1996924e-07
144	0x3cbfa8ea	0.023395974
145	0x3b2ffa71	0.0026852156
146	0xbbbb6d96	-0.005719851
147	0xbd160c84	-0.03663303
148	0x3bb7494c	0.0055934545
149	0x3b4caf38	0.0031232368
150	0x3c840227	0.016114308
151	0xbcbe7d18	-0.023253009
152	0xb6431660	-2.9070288e-06
153	0x38884a0f	6.49878e-05
154	0x3b05529b	0.0020343426
155	0x3d39f6f8	0.045401543
156	0x3bddcbce	0.00676868
157	0x3ba26003	0.004955293
158	0x3c197889	0.009367117
159	0x3c144b1a	0.009051109
160	0xbc143546	-0.0090459045
161	0xbc995204	-0.018715866
162	0x3c9eb3ee	0.019372907
163	0xbe0e6737	-0.13906561
164	0xbc0f7baa	-0.008757511
165	0xb66c34c0	-3.5197445e-06
166	0xbc282aee	-0.0102641415
167	0xbd20e794	-0.03928335
168	0xbb9b8da1	-0.004747108
169	0x3c469c97	0.012122295
170	0x3d895cd1	0.067071564
171	0xbaca4bde	-0.0015433987
172	0xbb66e07e	-0.0035229023
173	0xbc18e385	-0.009331589
174	0xbca72a5e	-0.020405944
175	0x3bd64746	0.006539258
176	0x3c00e0c0	0.007866085
177	0xbd030770	-0.031989515
178	0xbc19d64e	-0.009389473
179	0xbdeb7b39	-0.11498112
180	0x3b734e28	0.0037125442
181	0xbc38a91e	-0.011270789
182	0x3c66d680	0.014089227
183	0x3bcfb56e	0.006338767
184	0x3bbaf8b1	0.005705916
185	0x3a8a82e2	0.001056757
186	0xb99b65f8	-0.00029639876
187	0x3a9d8c4e	0.0012019963
188	0xbb7ab4ba	-0.0038254694
189	0x3cfd660c	0.030932449
190	0x3a9632ba	0.001145921
191	0x3c320154	0.010864574
192	0x3d15dc69	0.036587153
193	0x3c99c276	0.018769484
194	0xbd4c9965	-0.049950976
195	0x3d84e2cb	0.0648857
196	0xbb312c0c	-0.002703431
197	0x3c1919fa	0.009344572
198	0x3ce3e1a3	0.027817553
199	0x3ced6521	0.028978886
200	0xbc68a4f5	-0.014199485
201	0x3ba131cb	0.004919266
202	0x3a077060	0.00051665865
203	0xb921006c	-0.00015354314
204	0xba376768	-0.0006996305
205	0xbd3440f7	-0.044007268
206	0x3a2ec9c8	0.0006667641
207	0x3c8e920b	0.017403623
208	0xb95a1b60	-0.00020800298
209	0x3c87828c	0.016541742
210	0x3b9ca9ee	0.0047809994
211	0x3d41a9ae	0.04728096
212	0xbbeda90a	-0.007252817
213	0x3bd163d9	0.0063900766
214	0x3d072b65	0.03300037
215	0xbcadf2a0	-0.021233857
216	0x3c42d77d	0.011892197
217	0xbbebeaee	-0.0071996367
218	0x3c061640	0.008184016
219	0x3a899118	0.0010495512
220	0x3cecedfc	0.028922074
221	0x3c3044d0	0.010758594
222	0xbbcacdda	-0.00618909
223	0x3ca13929	0.019680576
224	0xbe003b20	-0.12522554
225	0xbd1d8b65	-0.038463015
226	0xbac0567c	-0.0014674212
227	0x3c569ca4	0.0130988695
228	0xba051e76	-0.00050780864
229	0xbc117660	-0.00887832
230	0x3e101141	0.14069082
231	0xbcfee694	-0.031115808
232	0xbcabab3f	-0.02095568
233	0x3c184a5e	0.009295074
234	0x3db49dc1	0.08819152
235	0x3b9f872e	0.0048684096
236	0x3c365524	0.011128698
237	0x3b506ad4	0.0031801956
238	0xbd845f2c	-0.06463465
239	0x3dad9de6	0.08477382
240	0x3c49dbd0	0.012320474
241	0x3cab2580	0.020891905
242	0x3b41ad55	0.0029552777
243	0x39985508	0.00029055052
244	0x38abffa0	8.201529e-05
245	0x3c594af0	0.013262495
246	0xbcbc79e3	-0.023007339
247	0xbbb5ab6d	-0.005544117
248	0x3d04d39d	0.032428373
249	0x3bbd2553	0.0057722717
250	0x3c3b13fe	0.011418341
251	0xb530271e	-6.562203e-07
252	0x3d103d49	0.035214696
253	0x389450c4	7.072234e-05
254	0xbc811f3f	-0.01576197
255	0x3b8378b6	0.0040121926

conv1.lin_l.bias f4 [16]
0	0x3e27b8ed	0.16379137
1	0xba1a3f15	-0.0005884034
2	0x3db4cda8	0.08828288
3	0x3e140d88	0.14458287
4	0xbd24c894	-0.04023035
5	0x3de7b949	0.11314637
6	0xbc62df89	-0.01384724
7	0x3dd7400c	0.10510263
8	0xbb5bb490	-0.0033524372
9	0xbc80fd9a	-0.015745927
10	0x3e0226c3	0.12710099
11	0xbd3f79f4	-0.046747163
12	0x3e0e48cd	0.13894959
13	0x3e1a264b	0.1505367
14	0x3dd04e9b	0.10171243
15	0xbd14db35	-0.036341865

conv1.lin_r.weight f4 [16, 4005]
0	0xbd8869a9	-0.06660778
1	0xbba5079a	-0.0050363066
2	0xbd931763	-0.07182195
3	0x3b9346ac	0.0044945087
4	0x3d191cf4	0.037381127
5	0x3ca6384d	0.020290518
6	0x3d98e703	0.07465937
7	0xbc95beaf	-0.018279402
8	0xbd285555	-0.041097004
9	0xbdd44d02	-0.103662506
10	0x3bbbe1b0	0.005733691
11	0xbdc0e12c	-0.09417948
12	0xbd0c12f2	-0.034197755
13	0xbd87b534	-0.06626359
14	0x3c5c26a9	0.013436952
15	0x3d79e8ad	0.061012913
16	0x3d8cd1e7	0.06875973
17	0xbd690eaf	-0.05689877
18	0xbc73b895	-0.014875551
19	0xbd99bb79	-0.07506461
20	0x3cafea6d	0.021474088
21	0x3bd56b5e	0.0065130433
22	0x3c63bdeb	0.01390026
23	0x3ba9af28	0.005178351
24	0x3d837d38	0.06420368
25	0xbdf4ed37	-0.11959308
26	0x3d03a3f8	0.032138795
27	0x3cfacc07	0.030614866
28	0xbcd78297	-0.026307387
29	0x3b6856e9	0.0035452193
30	0xbb50cbcc	-0.0031859754
31	0x3bf5eea1	0.0075052534
32	0x399d1f4c	0.00029968692
33	0x3be1e6e3	0.006893979
34	0x3a81052b	0.0009843459
35	0x3d3eae39	0.04655287
36	0xbc0f566a	-0.00874863
37	0xbd1fa3f5	-0.03897472
38	0x3c139972	0.009008752
39	0xbd493cc4	-0.049130216
40	0xbc588bee	-0.013216956
41	0xbcc6ca5a	-0.02426641
42	0x3b511e17	0.0031908804
43	0xbd2d4763	-0.042304408
44	0xbda0ba6a	-0.07848056
45	0x3a59eed8	0.00083134836
46	0xbe169cfe	-0.14708325
47	0xbc8b7f24	-0.017028399
48	0xbcb35709	-0.021892088
49	0x3d44c313	0.0480376
50	0x3cdfe830	0.027332395
51	0x3de2f64d	0.110821344
52	0x3d278cda	0.04090581
53	0xbbad1ba4	-0.005282836
54	0x3cddfb32	0.027097318
55	0x3d6194cd	0.055073548
56	0xbd8a53cf	-0.067542665
57	0xbdb74ab9	-0.08949799
58	0x3c0a5f94	0.008445639
59	0x3c52937f	0.012852549
60	0xbc8ba0d3	-0.01704446
61	0x3d8ecf98	0.06973189
62	0x3c2f57fb	0.0107021285
63	0x3cda1a53	0.02662388
64	0x3ca17e52	0.019713555
65	0xbc396c7c	-0.011317369
66	0x3da0d43c	0.078529805
67	0xbd385377	-0.045001473
68	0x3d121251	0.035662
69	0x3c85a291	0.01631287
70	0x3dc56d96	0.096400425
71	0xbd71b90c	-0.059014365
72	0xbdc26f1b	-0.09493848
73	0x3d5467f6	0.051856957
74	0xbcf98746	-0.030460011
75	0x3d42c74a	0.047553338
76	0x3df051be	0.11734341
77	0xbb14d840	-0.0022711903
78	0x3d956b0a	0.07295807
79	0x3a734b04	0.00092808926
80	0x3c2649de	0.010149447
81	0xbd30de39	-0.043180678
82	0xbe408f55	-0.18804677
83	0x3a8494f8	0.0010115197
84	0x3bd68dbf	0.006547659
85	0xbdaa3da1	-0.08312536
86	0x3cb1fa31	0.021725746
87	0xbdcff22c	-0.101536125
88	0xbcf60ab8	-0.030034408
89	0xbb5dfa7f	-0.003387123
90	0x3cdee455	0.027208487
91	0xbdb15355	-0.086584724
92	0xbd75473e	-0.059882395
93	0x3d3fcd1d	0.04682647
94	0x3bb6f059	0.005582851
95	0x3c9e7108	0.019341007
96	0xbd12aa74	-0.035807088
97	0xbd87942e	-0.0662006
98	0xbc1e68fa	-0.009668583
99	0x3b87af89	0.0041407985
100	0x3b6a73a0	0.0035774484
101	0xbc557136	-0.01302748
102	0x3ca35016	0.019935649
103	0x3d31a502	0.043370254
104	0xbd80d47f	-0.062905304
105	0xbc942b93	-0.018087184
106	0x3d3bab99	0.045817945
107	0xbc125317	-0.008930943
108	0xbc523b06	-0.012831455
109	0x3c897d14	0.016783275
110	0x3cb763fc	0.022386543
111	0xbbbd96b8	-0.0057857893
112	0x3c0df188	0.008663543
113	0xbdccdf92	-0.1000358
114	0xbddfe5f7	-0.10932534
115	0x3cb3a445	0.021928916
116	0x3d227a07	0.039667156
117	0x3b6c02d0	0.0036012419
118	0xbabf756c	-0.0014607138
119	0xbaae7b60	-0.0013311915
120	0x3cafdb75	0.02146695
121	0xbdbfa35e	-0.09357332
122	0x3c0f47a2	0.008745106
123	0x3cb465cb	0.022021195
124	0xbdac6d02	-0.08419229
125	0xbbb409aa	-0.005494316
126	0x3dc916f7	0.09818833
127	0x3cd48da3	0.025946444
128	0xbd21a0ce	-0.039459996
129	0x3a68bb45	0.0008878003
130	0x3d824999	0.06361694
131	0x3cf30f55	0.029670397
132	0x3a9d8e7c	0.0012020613
133	0xbc0bc8f6	-0.0085318
134	0x3d86812e	0.06567608
135	0x3dab5461	0.083657034
136	0xbc822fc3	-0.015891915
137	0xbd8c923c	-0.068638295
138	0x3b9686f8	0.0045937262
139	0x3c6305d0	0.013856366
140	0x3c2a7afe	0.0104053
141	0x3dc084f8	0.09400362
142	0xbcd0d0a5	-0.025490114
143	0x3963a5b8	0.00021710142
144	0xbb9ddd5e	-0.004817649
145	0x3d32f1db	0.043687683
146	0x3ce1da00	0.02756977
147	0xbd58fba2	-0.05297435
148	0xbd098f82	-0.033584125
149	0xbc088686	-0.008332854
150	0xbd9863dc	-0.07440922
151	0xbdc27ea8	-0.09496814
152	0x3c5a41cf	0.013321354
153	0x3c44dc1c	0.012015369
154	0x3a373540	0.0006988831
155	0xbd498c05	-0.0492058
156	0xbd5d289c	-0.053993806
157	0x3c8adbd1	0.01695052
158	0x3baa94b9	0.0052057174
159	0xbdd81b02	-0.10552026
160	0xbc499ae0	-0.0123049915
161	0x3cf6d3b7	0.03013025
162	0xbccc052c	-0.02490481
163	0xbd4c9963	-0.04995097
164	0x3cc4280b	0.023944875
165	0x3638bcd2	2.7528044e-06
166	0xbc0e984f	-0.008703305
167	0x3cf178c0	0.029476523
168	0x3d26c22b	0.040712517
169	0xbc396340	-0.011315167
170	0x3d17d5b7	0.03706905
171	0x3cc54da2	0.02408487
172	0x3c00b0f3	0.007854688
173	0xbb48e3ef	-0.0030653437
174	0x3c941441	0.018076064
175	0x3c9b2642	0.018939141
176	0x3b239b5e	0.0024964432
177	0x3a1cca7c	0.00059811
178	0xbd2ea752	-0.042640038
179	0xbddbe731	-0.10737456
180	0x3a907f10	0.0011024196
181	0xbabc759c	-0.0014378312
182	0x3da6ae9a	0.08138771
183	0xbcb51d4d	-0.022108698
184	0x3c9ebd1b	0.019377282
185	0xbd6ab34c	-0.057299897
186	0x3c73163a	0.014836842
187	0x3cc391fb	0.02387332
188	0xba2fd540	-0.0006707497
189	0xbdb4b8d9	-0.088243194
190	0x3c0da7dc	0.008645978
191	0xbd82d075	-0.06387416
192	0xbdd3a8ba	-0.103349164
193	0xb9877ff0	-0.00025844527
194	0x3c2744ca	0.010209272
195	0x3de86a73	0.113484286
196	0x3c80cef0	0.015723675
197	0xbd0d60d0	-0.034516156
198	0x3cd028fc	0.025410168
199	0x3d731f1f	0.05935585
200	0xbd6a8230	-0.057253063
201	0x3d1e30bc	0.038620695
202	0xbb884024	-0.004158037
203	0xbb835fa2	-0.004009203
204	0x3d921dac	0.07134566
205	0x3d6279a5	0.05529179
206	0xbc942c71	-0.018087598
207	0x3d2bf31e	0.0419799
208	0x3d278a40	0.04090333
209	0xbdc9b6e6	-0.09849338
210	0xbc5e1ec7	-0.013557143
211	0xbdce2182	-0.10064985
212	0xbcbf5b48	-0.023358956
213	0x3cbedcaf	0.02329859
214	0x3e0e9b5c	0.13926452
215	0xbc0658da	-0.008199895
216	0x3c3f55a2	0.011678131
217	0xbd365439	-0.044513915
218	0xbca96b50	-0.020681053
219	0x3d434fcf	0.047683533
220	0x3d42f7f4	0.047599748
221	0xbd0c3d12	-0.03423793
222	0xbd2b57da	-0.04183183
223	0xbcfa3a4a	-0.030545373
224	0x3ce0ff20	0.027465403
225	0x3b7c9fa6	0.0038547306
226	0xbd805526	-0.06266241
227	0xbbf09cd0	-0.0073429123
228	0x3c3ca8f1	0.011514888
229	0x3b35cba9	0.00277398
230	0x3d76646a	0.060154356
231	0x3c81bc17	0.015836759
232	0x3c2dc0fb	0.010605092
233	0xbb3fa37d	-0.0029241734
234	0xbb9bd084	-0.0047550816
235	0x3cafa0ef	0.021439044
236	0xbb8e0187	-0.004333678
237	0xbd0d80c5	-0.034546632
238	0xbcd43a77	-0.025906784
239	0xbc75db14	-0.015005846
240	0xbc4a2a6c	-0.012339216
241	0xbca54bc5	-0.020177731
242	0x3d6c6a4e	0.057718568
243	0x3cf11cf2	0.029432748
244	0xbced26b5	-0.028949121
245	0xbd9f9a06	-0.077930495
246	0x3e2307c8	0.15920937
247	0x3d881ca5	0.066460885
248	0x3cffbecd	0.03121891
249	0x3ba83352	0.005133071
250	0x3d4175fe	0.047231667
251	0xb536318f	-6.78724e-07
252	0xbe062d97	-0.13103329
253	0x3c903481	0.01760316
254	0x3d1c52f0	0.038165033
255	0xbccf0f27	-0.02527578

conv2.lin_l.weight f4 [1, 16]
0	0xbd64d3c0	-0.055866003
1	0xbc3f0786	-0.011659509
2	0xbeaf9e2e	-0.3430037
3	0xbea5eee7	-0.3240883
4	0x3f2df2ef	0.6794881
5	0xbe78aabc	-0.2428388
6	0xbbe88048	-0.0070953704
7	0xbeec023b	-0.46095452
8	0x36ef1ec8	7.1263385e-06
9	0x36b4d2e2	5.388968e-06
10	0xbe214c93	-0.15751867
11	0xbbb5e0a6	-0.005550462
12	0xbe40be97	-0.18822704
13	0xbcc2b25f	-0.023766695
14	0xbf0cdbf3	-0.55023116
15	0x3b96c2fb	0.00460088

conv2.lin_r.weight f4 [1, 16]
0	0xbf6545e9	-0.895598
1	0xbbdbb320	-0.006704703
2	0xbf54f7c6	-0.8319057
3	0xbf85c2ff	-1.0450133
4	0x3f630624	0.88681245
5	0xbf6f793d	-0.9354437
6	0x3bdb835c	0.006699009
7	0xbf84339e	-1.0328252
8	0x388bf74b	6.6740984e-05
9	0xb882ff19	-6.246399e-05
10	0xbf69e6c2	-0.91367733
11	0x3d9552bc	0.07291171
12	0xbf4f2f6d	-0.8093174
13	0xbf7e7542	-0.9939767
14	0xbf59ba45	-0.8504985
15	0xbaebbe5b	-0.0017985807
